exp/model_mse.pth (torch, 205474 bytes, 9 tensors)

lstm.weight_ih_l0 f4 [256, 2]
000000 5e 23 0d c0 e2 7e 49 c0 17 28 62 c0 25 67 17 c0
       -2.2052836 -3.1483693 -3.533697 -2.3656704
000010 fb d7 16 40 62 82 1e c0 2b f4 04 c0 bc f4 89 c0
       2.3569324 -2.476708 -2.0774028 -4.311125
000020 a7 43 fe bf 60 1e 62 c0 14 b2 ad bf 5d 41 5f c0
       -1.9864396 -3.533104 -1.356997 -3.4883645
000030 52 cd b1 bf 32 49 0c c0 2e f7 53 c0 22 b6 5f c0
       -1.3890784 -2.1919675 -3.3119617 -3.4954915
000040 3e 86 40 40 cb c0 50 bf 3f 1a 12 bf ea 82 c5 40
       3.0081935 -0.8154418 -0.570713 6.1722307
000050 c1 2a 03 40 99 1a 25 3f c2 16 93 bf e2 14 28 c0
       2.0494845 0.6449371 -1.149132 -2.6262746
000060 73 47 cb 3f 2d 41 a6 40 ce cf b0 bf a1 68 51 c0
       1.588118 5.195456 -1.3813417 -3.272011
000070 4e 01 16 c0 22 99 85 c0 4a 4e 4d 40 3b 34 18 40
       -2.3438296 -4.174943 3.2079034 2.378188
000080 99 7f 0f c0 23 06 b2 bf d6 0a 2a c0 ec 6d bc c0
       -2.242163 -1.3908123 -2.6569114 -5.888418
000090 68 d5 ea bf 4b ba 75 c0 5f 7f e5 bf 30 3d 73 c0
       -1.8346376 -3.8394954 -1.7929496 -3.8006096
0000a0 0f 4c 29 c0 dd ef 01 c0 64 f1 5b bf 6f a1 22 c0
       -2.6452672 -2.030265 -0.8591521 -2.5411031
0000b0 6a 0f c9 bf 9e ce 42 be 64 86 ef 3f 4c ef de 40
       -1.5707829 -0.1902413 1.8712888 6.966711
0000c0 54 ad 90 3f 11 cb c8 c0 24 9a 5a c0 cc 57 a5 c0
       1.1302896 -6.2747884 -3.415658 -5.1669674
0000d0 b2 9c 16 c0 fc e5 6a c0 f2 71 e4 bf 52 c5 2f c0
       -2.353314 -3.6702871 -1.7847273 -2.7464185
0000e0 38 7e 67 c0 e2 68 18 c0 fc 51 09 c0 c0 11 3a c0
       -3.6170788 -2.3814015 -2.145629 -2.9073334
0000f0 5e 97 92 3f c2 d4 21 40 e7 6f 30 c0 57 35 86 c0
       1.1452444 2.5286107 -2.75683 -4.194011
000100 bf 5f 36 40 64 ce 38 bf 36 09 48 40 ce a4 c2 be
       2.8495939 -0.7218993 3.1255622 -0.3801636
000110 35 2f f3 bf 5a 4b 33 c0 0c 82 06 c0 cc d2 a6 c0
       -1.8998781 -2.801474 -2.1016874 -5.213232
000120 ea 75 39 40 80 6d 22 40 d9 32 88 bf 8a 4d 93 bf
       2.897822 2.5379333 -1.0640517 -1.1508038
000130 92 80 1f c0 eb 29 ce bf e6 f2 ba bf c7 c3 c5 bf
       -2.4922223 -1.6106542 -1.4605377 -1.5450372
000140 d9 35 1e c0 ad 55 52 40 fc 69 8b bf a3 ed 83 c0
       -2.4720366 3.2864792 -1.0891719 -4.1227584
000150 a4 54 c3 bf d4 c9 4a c0 5b 62 55 40 6c 1d 17 bc
       -1.5260205 -3.1685686 3.3341281 -0.009223323
000160 f9 63 01 c0 20 bb 2c c0 53 2f 2f c0 c3 54 cd c0
       -2.0217268 -2.6989212 -2.7372634 -6.416597
000170 6d 52 f1 bf aa ce 2b c0 66 bc 0c c0 34 62 0b bd
       -1.8853279 -2.6844888 -2.198999 -0.0340292
000180 df 8a 02 c0 33 32 1e c0 19 64 71 c0 a3 bb c9 c0
       -2.039726 -2.471814 -3.7717345 -6.304155
000190 6e ea a4 3f 58 9b 92 40 33 f0 28 c0 77 0d 66 c0
       1.2884042 4.581463 -2.6396606 -3.5945718
0001a0 98 d7 2e c0 e1 76 b5 c0 8f 51 0f 3c d8 f3 86 c0
       -2.7319088 -5.6707616 0.008747472 -4.217266
0001b0 32 32 38 40 a7 51 9b be 74 03 50 c0 29 a1 ac c0
       2.8780637 -0.30335733 -3.2502108 -5.394673
0001c0 61 fb be 3f d0 36 70 40 86 52 06 c0 9a 7b ff bf
       1.4920465 3.7533455 -2.0987868 -1.9959595
0001d0 26 c7 f3 bf 65 3b 2d be 2d e5 d3 3f d2 b8 a1 c0
       -1.904515 -0.16917188 1.6554314 -5.053811
0001e0 fb 8e 7a 3f 7e bc 0e 40 66 2b 83 bf ad 4a 5f 40
       0.9787442 2.2302547 -1.0247619 3.4889328
0001f0 17 c1 02 40 a1 16 1d 40 a7 56 20 c0 c1 2c 57 c0
       2.0430353 2.4545062 -2.5052888 -3.3621066
000200 e0 40 5e bf d8 8d 80 bf 69 5e c0 bf cb 3e 01 c0
       -0.8681774 -1.0043287 -1.5028812 -2.0194576
000210 6a 67 2f bf 06 0a 04 bf 8e 94 06 be 00 7d 24 bf
       -0.6851717 -0.51577795 -0.13142607 -0.64253235
000220 ca e3 a0 be 1b e6 dd be 26 e0 38 bf cb 56 a7 bf
       -0.3142379 -0.4333962 -0.72217023 -1.3073362
000230 84 c7 fd be 61 af eb be 76 ef aa bf 0d fa 39 bf
       -0.4956628 -0.4603224 -1.3354328 -0.7264717
000240 0b 5e 42 3e 4c c6 ff bf 8f 3e a0 3e 71 2f 60 3f
       0.18981187 -1.998239 0.31297728 0.8757239
000250 56 cc 83 3e eb b7 0a 3b 6a fd 71 bf 82 cc ec bf
       0.25741833 0.0021166753 -0.94527304 -1.8499911
000260 26 0f 44 3e 8d 87 a9 3f de 2a 68 3e 58 20 91 3e
       0.19146404 1.3244492 0.22672603 0.2834499
000270 dc 5a 9b bf 4d 74 2a bf 8d c2 52 3f 69 a8 07 3f
       -1.2137103 -0.6658371 0.8232811 0.5299135
000280 dd f6 a2 bf fd c5 28 be a7 b1 4b bf fa 20 84 bf
       -1.2731587 -0.16481777 -0.7956795 -1.0322564
000290 d7 a7 14 bf f2 c9 3c bf 06 a2 b1 bf a7 79 50 bf
       -0.58068603 -0.73745644 -1.3877571 -0.81435627
0002a0 0f a9 54 bf 36 33 39 bf 41 22 6a bf 6f 6c b3 3e
       -0.8307046 -0.72343767 -0.9145852 0.35043666
0002b0 0d c3 d1 bf 1d 82 49 bf 1d 0d c3 3e 0f 73 1e 3f
       -1.638765 -0.7871416 0.38095942 0.61894315
0002c0 07 e3 76 bf 13 6f 18 c0 9c 46 64 bf 46 0f 61 bf
       -0.96440166 -2.3817794 -0.8917024 -0.8791393
0002d0 5d f2 b8 be 0b 88 00 bf d4 f9 00 bf 53 bb 1c bf
       -0.36122409 -0.50207585 -0.5038121 -0.61223334
0002e0 8e ab c5 bf dd 20 17 bf e0 08 4b 3d de 15 7d 3e
       -1.5442979 -0.5903452 0.04956901 0.24715373
0002f0 f6 9f 60 3f 01 0a 35 bf b6 b7 12 be 40 50 f7 3d
       0.8774408 -0.7071839 -0.14327893 0.12075853
000300 d5 d7 0b 3d 27 22 9e be 13 ac 52 3f 24 a3 08 3d
       0.03414138 -0.3088543 0.82293814 0.033358708
000310 5f ca 84 bf 72 38 17 bf 04 73 74 bf 54 7d 2f bf
       -1.0374259 -0.59070504 -0.95488 -0.6855061
000320 cd 0e c1 3e a3 64 88 be cd 78 54 bf bf 06 2d bf
       0.37706605 -0.2663928 -0.8299683 -0.6758842
000330 0a 01 c2 be f6 4c b7 3c 1a b6 ad be 11 1c e0 bc
       -0.37891418 0.022375565 -0.33927995 -0.027357133
000340 53 51 8a be d5 ab 40 bf b3 4e 6a be 3e dd c6 bf
       -0.2701517 -0.75262195 -0.22881584 -1.5536268
000350 c2 b8 09 bf bf ea b3 bd 3a 61 fc bd b2 a0 51 3e
       -0.53797543 -0.08785009 -0.12323232 0.20471457
000360 1d 23 94 bf 76 73 c4 be 02 1c a1 bf af eb 56 bf
       -1.1573216 -0.3836934 -1.2586672 -0.83953375
000370 66 6e f2 be 24 ae 3a bf 13 f7 ae 3e a8 92 32 3f
       -0.47349852 -0.7292197 0.34172878 0.6975503
000380 a2 e6 97 be 39 86 70 bb 15 46 35 bf 79 cd d5 bf
       -0.29668146 -0.0036701097 -0.7081006 -1.670333
000390 3b 6b 74 3e ea e2 6f 3e c2 02 3c bf f5 91 2d bf
       0.2386903 0.23426405 -0.7344171 -0.6780084
0003a0 0c cb cd 3d 13 d5 2c be 60 8c a3 bf 6b e7 75 c0
       0.10048494 -0.16878156 -1.2777214 -3.8422496
0003b0 52 cd 5a 3e 6d 0f 56 3b 3e 73 5d be df 9a fe be
       0.21367386 0.0032663003 -0.21625993 -0.49727532
0003c0 11 25 a1 3e 65 a8 85 3e dc ad 0e bf 70 c0 08 bf
       0.31473592 0.26105037 -0.5573404 -0.53418636
0003d0 22 99 04 bf a1 12 c2 be de 01 a5 3e 1a 0b 84 be
       -0.5179616 -0.37904838 0.32227987 -0.2578972
0003e0 85 fd 70 bf 38 3e b2 bf 0c d8 b7 3d 48 af 86 3f
       -0.9413684 -1.3925238 0.089767545 1.0522242
0003f0 1d 4c 04 3e d5 d4 27 bd da 4d 26 be 63 60 e9 be
       0.1291966 -0.040974457 -0.16240636 -0.4558135

lstm.weight_hh_l0 f4 [256, 64]
000000 9f 97 81 be ac ba dc 3d 4b 06 aa 3f c4 21 6f 3e
       -0.2531099 0.10777792 1.328317 0.23352724
000010 22 e4 14 bf 52 f3 0c bd 4e 7d d1 be fe fc b7 3e
       -0.58160603 -0.034411736 -0.40915912 0.35935205
000020 83 b8 9f bf a2 ff 6a bf ce a6 72 be e7 7a 89 3c
       -1.2478184 -0.91796315 -0.23696443 0.016782237
000030 ae 53 97 bf 48 9c 90 be 6f 26 02 bd ce d4 92 3f
       -1.1822412 -0.28244233 -0.031774934 1.1471193
000040 9b 10 0d 3d 38 fe 45 bc b3 85 11 3d 19 2e ed bd
       0.034439664 -0.012084536 0.035527896 -0.11581058
000050 04 7c 42 be 3d 90 49 3e a5 9a f5 3f 87 86 a4 bf
       -0.1899262 0.19683929 1.9187819 -1.2853554
000060 ed f2 81 3e 03 16 89 be 51 45 03 3d f0 e2 e9 be
       0.2538065 -0.26774606 0.032048527 -0.45680952
000070 e7 b0 ce 3b 63 c6 c8 be 74 65 b2 3f 53 76 87 3f
       0.0063077095 -0.39213857 1.3937211 1.0582985
000080 8b 78 18 3e dc ee 26 bf 7e 49 7f 3e b3 30 66 bd
       0.14889733 -0.6520822 0.24930379 -0.056198787
000090 13 21 08 40 af c0 59 3f d9 c8 27 3e 00 eb 20 bd
       2.1270187 0.85059637 0.16385211 -0.039286613
0000a0 f0 fe fa 3d 82 4f 25 bd 1f b4 40 3e ec bd a2 bf
       0.12255657 -0.040359028 0.1881871 -1.271421
0000b0 df 24 9c 3e 70 98 e1 bc 74 b9 7c 3e 58 5a 84 3f
       0.3049688 -0.027538508 0.2468012 1.0340071
0000c0 92 65 4b bf 5f 8f 75 3e e5 35 ae bf a5 3c a9 3e
       -0.7945186 0.23980473 -1.3610197 0.3305408
0000d0 c7 35 8c bd b2 e3 2b 3f 71 33 cd bf b0 49 c4 3e
       -0.06846195 0.6714431 -1.6031324 0.3833747
0000e0 fc e2 a7 3f 7e 32 98 3e 03 c0 d0 3e c7 db 3a bf
       1.3116145 0.29726022 0.40771493 -0.72991604
0000f0 c8 83 a7 bf 19 a2 95 3f 60 b2 ac 3f d1 c9 8b bf
       -1.3087091 1.1690093 1.3491936 -1.0920964
000100 6c 05 54 3f 5d ab 07 c0 05 05 91 bf 1b bc f6 3d
       0.82820773 -2.1198342 -1.1329657 0.12047597
000110 b5 be 3a 3f 72 56 eb bf 86 ba 14 3e 04 a7 fc 3e
       0.72947246 -1.8385756 0.14524278 0.49346173
000120 0d 45 cc 3f 10 af 1a bf 53 18 3f 3f 72 10 f3 3f
       1.5958573 -0.60423374 0.7464649 1.8989394
000130 57 49 c6 3e e8 c2 97 bb 4a e3 85 3e e4 af 91 bf
       0.3872783 -0.004631389 0.2614997 -1.1381803
000140 3b 22 fd 3d 3f 09 d8 be 58 45 ed bd 07 f2 18 3e
       0.123600446 -0.42194554 -0.11585492 0.14936076
000150 48 8d 59 3e 32 6c a1 be 31 f6 d5 bf 59 8d 25 3e
       0.21245301 -0.3152786 -1.6715757 0.16167201
000160 34 37 87 bf ab e8 e6 be 08 37 c6 be 98 d3 b1 3e
       -1.0563722 -0.45099387 -0.3871386 0.34731746
000170 e4 34 ad bc cd 0c f0 bc 9a db 82 bd b2 d2 a5 bd
       -0.021143384 -0.029302979 -0.06389542 -0.080968276
000180 ea c0 a0 3e 6e 57 03 3f db 2b 89 be f7 ad 88 3f
       0.31397182 0.5130528 -0.26791272 1.067809
000190 18 36 4a bf 65 0f 89 bf 25 79 aa be d4 0d 16 3f
       -0.7898879 -1.0707823 -0.3329555 0.5861485
0001a0 64 bc 45 3d 68 21 61 bf 18 7d 06 be 94 a7 08 be
       0.048275366 -0.879416 -0.13133657 -0.13345176
0001b0 44 50 0d be 5b 60 26 3f 19 86 91 3e 62 0b 35 3f
       -0.1380015 0.64990777 0.2842262 0.70720494
0001c0 89 03 37 40 eb b6 00 3f 61 cc 0c 3f 85 36 ad be
       2.8595908 0.5027911 0.5499936 -0.33830658
0001d0 c4 7a a4 be 0b 02 b9 3f 14 2c e4 3d 36 0d 12 be
       -0.32124913 1.4453748 0.1114122 -0.14262852
0001e0 73 20 b9 be 65 3d 01 be b9 83 a8 3e e4 c8 bc 3f
       -0.3615757 -0.12621076 0.32912996 1.4748807
0001f0 ed 63 a1 3f 0f ce 9f 3f ce 0c ad be 77 57 ca 3e
       1.260862 1.2484759 -0.33798832 0.39519855
000200 78 c5 6a 3d 34 1c db 3e c9 9b 85 3f 7c 9b 55 bc
       0.057317227 0.42794955 1.0438167 -0.013037559
000210 ea 04 9f be c5 bb dc 3f 59 67 a6 be f5 96 25 3d
       -0.31058437 1.7244803 -0.32500723 0.040427167
000220 4b f1 67 c0 52 ff 94 bf 9e e0 df bf 10 27 72 bf
       -3.6241024 -1.1640418 -1.7490423 -0.94590855
000230 09 58 12 bf 8f db 2c bc 46 40 ec 3c e1 a5 d8 3f
       -0.5716558 -0.010550394 0.028839242 1.6925622
000240 89 c6 27 3f 3d ac aa 3e 5d 14 23 bf ab b8 c8 3e
       0.65537316 0.33334532 -0.63702947 0.3920339
000250 87 87 bb bd f1 58 7e 3e 73 d3 d3 be d8 98 88 bf
       -0.09156709 0.24838616 -0.4137226 -1.0671644
000260 26 34 39 3f 0d db 19 bf a8 04 1c 3f cf 61 23 3e
       0.723452 -0.6009987 0.60944605 0.1595528
000270 be 6c 46 3e 32 30 c5 be 74 1d 40 3f f3 3a 44 3f
       0.1937742 -0.38513333 0.7504494 0.7665245
000280 6f 4d 22 bf fd 75 65 bf 02 a6 c6 3b f4 6e 08 bf
       -0.63399404 -0.8963316 0.00606227 -0.532943
000290 40 51 de 3e 18 77 25 3f b6 a2 00 3f f0 d7 93 3d
       0.43421364 0.6463485 0.5024828 0.07218921
0002a0 18 6c c7 bf bc c6 87 bb 3d d4 2f be 5f 49 ba bb
       -1.5579863 -0.004143564 -0.17170806 -0.005685016
0002b0 ab 3e 14 3e 0a db eb be c4 83 a0 be f0 d5 b4 3f
       0.14477031 -0.4606555 -0.3135053 1.4127789
0002c0 70 d7 19 bf cb 43 86 3e 7c 95 52 bf 9f 91 4d bd
       -0.60094357 0.26223597 -0.82259345 -0.050187703
0002d0 c0 10 00 3d 5c d9 20 3f 3f 6f ac be e6 b0 a0 bd
       0.031265974 0.62831664 -0.33678624 -0.07846241
0002e0 5d 80 83 3f c8 da 73 3e d3 3e f4 be a6 cc 47 bf
       1.0273548 0.23813927 -0.4770418 -0.78046644
0002f0 95 1b 27 bf a1 35 f1 3c 46 86 ac 3f 61 c6 59 be
       -0.6527646 0.029444518 1.3478477 -0.21267082
000300 db 62 44 be b4 36 55 bd 17 f4 4f bf 81 7b ba 3d
       -0.19178335 -0.052054122 -0.81231827 0.09105588
000310 7a 6f 0f bf 9e a4 0c 3d cd a1 03 be 65 5b fd 3d
       -0.56029475 0.03433668 -0.12854691 0.12370948
000320 52 5e 7f 3d 98 78 00 3f fd 6f 1d 3f 74 c8 3c 3d
       0.06234581 0.5018401 0.61499006 0.046089604
000330 8f 20 0c 3f d4 82 1d bf d1 fb 14 be 4d 53 c2 3e
       0.5473718 -0.6152775 -0.14549185 0.37954178
000340 ac 18 76 bd 6f 71 06 3c 2b 11 61 be f2 e0 d0 3c
       -0.060082123 0.008205756 -0.21979205 0.025497887
000350 52 63 fa be f3 b6 48 3c ac 7f 19 bd 93 17 d7 3e
       -0.489039 0.01225065 -0.037475273 0.42010173
000360 67 f4 3f bd 78 30 97 3c c1 2c 43 3e d2 6c 0a bf
       -0.04686394 0.018455729 0.19060041 -0.54072297
000370 ca de 34 be c7 1a 9e be a1 5a 02 bf 79 70 56 3e
       -0.17663112 -0.30879804 -0.5091954 0.20941342
000380 77 7f ae 3e 92 c2 1a 3f e7 bc e4 3d 8c e1 f1 bd
       0.34081623 0.6045314 0.11168843 -0.11810598
000390 15 3e 54 be e7 90 6c bb e9 f7 2d 3e 87 88 23 3d
       -0.20726807 -0.003609711 0.16989101 0.039925124
0003a0 fe b6 00 3f 47 58 59 be 0b 00 5a 3e f9 1f 1d 3e
       0.50279224 -0.21225081 0.21289079 0.15344228
0003b0 83 ab b9 3e 14 73 db be 32 a5 04 3e 9c 15 0b bf
       0.36263666 -0.42861235 0.12953642 -0.5432985
0003c0 5c 6a 2f 3b 5a 38 ca 3d a4 fc 00 3f 22 db e8 3e
       0.0026766276 0.098740295 0.503855 0.45479685
0003d0 09 0d 32 be 30 90 36 bc bf 64 ce 3e 50 30 04 3f
       -0.17387785 -0.011142775 0.40311238 0.5163622
0003e0 50 89 be be 1d 89 74 3c 68 dd d3 be 6e 2c 1f 3f
       -0.37214136 0.0149252685 -0.41379857 0.6217717
0003f0 96 4e d0 bd 70 d4 e7 be 1f 1d 86 be cc 9c e2 3d
       -0.10171239 -0.45279264 -0.26194093 0.11065063

lstm.bias_ih_l0 f4 [256]
000000 9a e9 4c bf 50 91 20 c0 3b bf ec 3f 91 52 f4 bf
       -0.8004395 -2.5088692 1.8495859 -1.9087697
000010 4a 85 d3 bf 62 5d ad bf fb e6 fb bf 55 04 e4 bf
       -1.6525052 -1.3544123 -1.9679865 -1.7813822
000020 79 46 45 40 24 1d 63 3f d8 eb 05 40 ae 38 9f bf
       3.0824263 0.8871634 2.0925198 -1.2439172
000030 c7 27 05 40 2c fe b9 bf e2 b9 fe bf 44 d6 2e 40
       2.0805528 -1.4530692 -1.9900477 2.7318277
000040 ac 88 06 c0 c2 46 d7 bf 25 00 bf bf 67 21 fc bf
       -2.1020918 -1.6818469 -1.4921919 -1.9697694
000050 52 e6 12 c0 f7 87 48 bf 56 e7 60 bf 4f 2a 09 40
       -2.2953076 -0.78332466 -0.8785299 2.1432073
000060 d3 21 6f 3f 22 9e 78 bf 74 1b f2 bf ff 25 d1 bf
       0.93410987 -0.9711629 -1.8914628 -1.633972
000070 c9 cc aa bf b6 8b 0f c0 7c ad f1 3f f2 d2 f8 bf
       -1.3343745 -2.2429023 1.8881068 -1.9439375
000080 7e a5 f6 3f 87 1f 3b 40 d1 8d f5 bf 20 9b de bf
       1.9269254 2.9237993 -1.9183904 -1.739109
000090 02 d7 46 40 90 36 e5 bf 52 98 ab bf ad cc 03 c0
       3.106873 -1.7907276 -1.340586 -2.0593674
0000a0 34 58 20 c0 c6 03 37 bf 69 09 04 c0 b9 30 41 40
       -2.5053835 -0.7149013 -2.0630744 3.0185988
0000b0 aa 46 06 c0 69 0c ce bf ad d3 fb bf 7f 15 a9 bf
       -2.098063 -1.6097537 -1.9673973 -1.3209685
0000c0 d9 f2 c6 bf 48 df b1 bf c2 7c 05 40 aa bf bf bf
       -1.5542861 -1.3896265 2.0857396 -1.4980366
0000d0 e0 b4 b1 bf b8 ca 25 3e 27 68 0c 40 aa 35 81 bf
       -1.3883324 0.16190612 2.193857 -1.0094502
0000e0 08 f0 13 40 b5 cf 05 c0 f2 ae ee bf de 31 94 3f
       2.3115253 -2.0908024 -1.8647139 1.1577718
0000f0 0c 5c aa 3f 7d dc d9 3e da 3a c8 3f b7 22 31 bf
       1.330934 0.42551032 1.564296 -0.69193596
000100 74 2f 85 bf cc 44 61 bf c0 90 52 bf 78 37 d0 be
       -1.0405107 -0.879956 -0.8225212 -0.4066732
000110 ed 11 4a bd c0 9b f1 be 6a a5 22 bf bd 61 23 bf
       -0.0493335 -0.4718914 -0.6353365 -0.6382101
000120 68 a6 13 3f 50 65 20 3e cb 79 dd 3e a0 d6 80 bf
       0.5767579 0.15663648 0.43256983 -1.0065498
000130 95 42 19 3e 7d 8a 35 bd c6 f9 15 bf fe ae 73 3f
       0.14966805 -0.044321526 -0.5858425 0.9518889
000140 c3 f4 ca be 1d d2 10 bf c5 ee c5 be 3f aa 2e bf
       -0.39639863 -0.5657061 -0.3865873 -0.68228525
000150 61 8d 3b bf 30 24 dc 3d db 82 dd bf 78 81 77 3e
       -0.732626 0.1074909 -1.7305559 0.24170482
000160 eb 76 4f bf 14 ce 04 bf 2e 01 f9 be 60 d2 af be
       -0.8104083 -0.5187695 -0.48633713 -0.3434019
000170 7b 09 72 bf 30 4d c2 3e 06 d6 c7 3e f7 36 b6 bd
       -0.94545716 0.37949514 0.39030474 -0.088972025
000180 ca e3 c3 bc 7f 45 2f 3f 60 ad 10 bf 26 4a 2c bf
       -0.02391233 0.6846542 -0.5651455 -0.6730064
000190 0b b5 94 3e 52 a0 24 bf 9d a1 19 3d 95 a7 09 bf
       0.29044375 -0.6430713 0.037507642 -0.53771335
0001a0 b1 a4 ba be ad bc c3 be 7b c8 b2 be e7 3b fb 3e
       -0.36453775 -0.38229886 -0.3491858 0.4906914
0001b0 4f 2a de be 33 97 d5 be 6a f2 08 bf e9 01 e5 3e
       -0.43391654 -0.41716918 -0.53494895 0.4472802
0001c0 19 83 63 3d 4e fe 22 bf 22 f6 fa 3c 74 0c c2 be
       0.055544946 -0.6366929 0.030634943 -0.37900126
0001d0 a2 d5 61 bd ab c5 71 bf 26 59 82 3e 1e ee a5 be
       -0.055135377 -0.9444224 0.2545864 -0.32408231
0001e0 6c af f9 bd 41 e5 9a be ae 0f 05 bf 64 7b 50 3e
       -0.12191662 -0.30253032 -0.5197705 0.2035957
0001f0 11 3c 27 bf be 72 0d 3e fc f8 97 3d 04 70 41 3e
       -0.6532603 0.13813302 0.07420537 0.18890387
000200 3d c7 ac bf f5 42 63 3f 4e 83 df 3f dc d2 a0 3c
       -1.3498303 0.88774043 1.7461946 0.019631796
000210 72 ba 81 3e e9 5d 7f 3e ec 34 de bc 4f be 5b 3f
       0.2533756 0.24938168 -0.027124844 0.8583726
000220 8f 42 0a c0 b9 81 f4 bf 29 74 ae bf 47 c3 11 bc
       -2.1603124 -1.9102088 -1.3629199 -0.008896655
000230 33 d8 ec bf df 9a 12 3e 28 f7 38 bf d3 4b ec 3f
       -1.8503479 0.14316891 -0.7225213 1.846064
000240 4c 5a ae bd 83 14 29 bf 60 0f 3b 3f e4 98 2f 3f
       -0.085133165 -0.66046923 0.73070335 0.6859267
000250 1b ec 05 bf 72 b7 14 bf e3 10 9c 3f b7 05 89 bf
       -0.52313393 -0.58092415 1.2192653 -1.0704869
000260 2a 15 95 3f 5d 60 5f bf 4e 65 6e be 6c d3 1f 3d
       1.1647084 -0.87256414 -0.23280832 0.039019987
000270 96 6b a4 3f 65 80 8a bb f8 66 b8 3f fb 43 ec 3e
       1.2845333 -0.0042267316 1.4406424 0.46145615
000280 6d 11 d3 bf 03 63 dc bf bf 53 48 3a 75 f8 6b 3e
       -1.6489693 -1.7217716 0.00076418737 0.23043998
000290 a8 31 05 40 b2 8a 1e 3f 66 73 2e 3f a2 83 2b 3e
       2.0811558 0.6193038 0.68144834 0.16749433
0002a0 a9 fe e0 bd 8b bd c6 3f 94 88 8f be 2b 21 fd be
       -0.109860726 1.5526594 -0.28033888 -0.49439368
0002b0 78 29 d8 bd 60 22 d2 be 06 71 a5 3d e7 f3 98 3f
       -0.105547845 -0.4104185 0.08078198 1.1949433
0002c0 0f fd 9a bf f5 d8 98 3f c1 bf ec bf 57 98 01 3f
       -1.2108477 1.194121 -1.8496019 0.5062308
0002d0 7c 1a e0 be 2c 70 b8 3f 9a e2 d9 bf 84 0e 86 bf
       -0.43770206 1.4409232 -1.7022278 -1.047318
0002e0 42 9e e0 3f 26 77 56 3c d2 e2 bd 3e 41 29 e9 bf
       1.7548296 0.013089931 0.37087113 -1.8215715
0002f0 57 6a c4 bf e8 7c bd 3f e4 b6 e5 3f e9 dd 94 bf
       -1.5344952 1.4803743 1.7946439 -1.1630222
000300 12 2e 57 bf 49 58 9e 3e f7 9d 0d 40 ce b7 e3 bf
       -0.8405467 0.3092673 2.2127664 -1.7790468
000310 02 54 d4 bf 23 9f a6 bf 78 e1 05 c0 9a 1e e5 bf
       -1.6588137 -1.3017315 -2.0918865 -1.7899964
000320 bc a7 e1 3e 22 08 3a be a0 f0 11 bf e1 40 8c bf
       0.44073284 -0.18167165 -0.5700779 -1.09573
000330 eb cb 18 3f aa 9b e7 bf 7c 76 eb bf cb 6c 8a be
       0.59686154 -1.809438 -1.8395534 -0.27036127
000340 fd 0c 02 c0 dd b7 e4 bf 4b 83 c3 bf f7 10 f8 bf
       -2.0320427 -1.7868611 -1.5274442 -1.9380177
000350 4c ba 07 c0 97 ba da bf 5f 7b 5b bf c0 32 25 40
       -2.1207457 -1.7088193 -0.85735124 2.5812225
000360 e4 d0 73 bf 49 fa 6a bf c7 a8 e5 bf f8 f5 02 c0
       -0.95240617 -0.91788155 -1.7942132 -2.0462627
000370 89 ec b6 bf b6 d2 f5 bf d7 25 07 40 51 42 dc bf
       -1.4290935 -1.9204929 2.1116846 -1.7207738
000380 2f cb 03 be 23 60 05 3f 4a 2e 00 c0 90 bd f9 bf
       -0.12870477 0.5209982 -2.0028253 -1.9510975
000390 7d 32 68 40 a0 5c 8f bf 1c b5 af bf da 9b fa bf
       3.6280816 -1.1200142 -1.3727145 -1.9578812
0003a0 87 a6 24 bf 39 9e a4 bf 2a af fc bf f7 8c d2 3f
       -0.643166 -1.2860786 -1.9740956 1.6449269
0003b0 fc 0e 0b c0 e0 70 e6 bf 82 90 01 c0 90 7b 25 be
       -2.1727896 -1.8003197 -2.024445 -0.16160417
0003c0 be 94 22 bf 03 fa 78 bf 86 83 21 40 2c a0 a7 bf
       -0.6350821 -0.9725649 2.5236526 -1.3095756
0003d0 67 9d de bf a9 55 a2 bf 82 c6 01 40 83 12 a8 bf
       -1.7391785 -1.2682391 2.027741 -1.3130649
0003e0 d8 79 25 40 93 7e fb bf 1a 96 0a c0 1e 43 0f 3f
       2.5855618 -1.9648002 -2.1654115 0.5596179
0003f0 ed 48 13 3e 16 99 9b bc 54 e0 e1 3f 6f 10 57 bf
       0.14383288 -0.018993896 1.7646585 -0.8400945

lstm.bias_hh_l0 f4 [256]
000000 0e 70 61 bf ca 32 29 c0 84 95 fc 3f 3a 76 f2 bf
       -0.88061607 -2.643725 1.9733129 -1.894233
000010 8d f2 c7 bf 05 df b0 bf da 8d 0b c0 d6 cf dd bf
       -1.5620896 -1.381806 -2.180533 -1.7329051
000020 4c 5b 3e 40 7d 62 82 3f 90 3f 04 40 76 11 a0 bf
       2.9743223 1.0186306 2.0663795 -1.2505329
000030 7e 2c 04 40 bb 9b cb bf ef 83 f7 bf 12 c9 33 40
       2.0652156 -1.59069 -1.9337138 2.8091474
000040 05 d2 09 c0 e2 ed e5 bf 71 e0 bf bf c5 5b f6 bf
       -2.1534436 -1.7963221 -1.4990369 -1.9246756
000050 95 53 0b c0 94 13 15 bf c7 65 8c bf 13 44 0d 40
       -2.1769764 -0.58233 -1.096856 2.20728
000060 92 08 6d 3f 73 fd 4a bf 37 60 fa bf 32 af cc bf
       0.925912 -0.7929298 -1.9560612 -1.5990965
000070 28 2c 97 bf 00 96 0a c0 12 0f f2 3f 28 d7 fb bf
       -1.181035 -2.1654053 1.8910849 -1.9675035
000080 86 3f f1 3f 27 85 36 40 6a 0f 05 c0 6d 2b e1 bf
       1.8847511 2.851877 -2.0790658 -1.7591377
000090 79 85 46 40 cf 05 c8 bf 03 4f be bf 40 0a fe bf
       3.1018965 -1.5626773 -1.4867862 -1.9846878
0000a0 c6 28 22 c0 78 55 35 bf b5 99 04 c0 81 0f 48 40
       -2.5337386 -0.7083354 -2.0718815 3.1259463
0000b0 d1 00 01 c0 de 81 d4 bf 6e bb 01 c0 18 3b 9c bf
       -2.0156748 -1.6602132 -2.0270648 -1.2205534
0000c0 bb 8a e3 bf ad f2 b1 bf 11 7e 08 40 26 36 b4 bf
       -1.7776712 -1.3902184 2.1326945 -1.4079025
0000d0 ea 93 c6 bf 1a 2c 4f 3d ec bb 0b 40 c5 4b 87 bf
       -1.551389 0.050579168 2.1833448 -1.0569998
0000e0 e0 e5 1a 40 61 39 10 c0 6b 03 06 c0 27 5d 96 3f
       2.4202805 -2.2535021 -2.0939586 1.1747178
0000f0 02 4b a8 3f 5a df 96 3e 40 98 c7 3f 96 69 36 bf
       1.314789 0.2946728 1.5593338 -0.7125486
000100 b3 8c 61 bf 6c 5c 61 bf 05 c7 49 bf 2b 78 b4 be
       -0.88105315 -0.8803165 -0.78819305 -0.3524793
000110 3e b8 2e be 44 39 27 bf f3 b9 10 bf cf 7f 22 bf
       -0.1706247 -0.65321755 -0.56533736 -0.6347627
000120 30 81 14 3f 88 76 59 3e 31 38 d4 3e 02 42 9c bf
       0.58009624 0.21236622 0.4144912 -1.2207644
000130 f4 c3 8b 3e cb 21 0c 3e 59 79 b8 be 55 8d 89 3f
       0.27297938 0.13684766 -0.3603008 1.0746256
000140 2b 07 ab be 8c 2b 48 bf 11 2a eb be 2c 37 58 bf
       -0.33403906 -0.7819145 -0.45930532 -0.84459186
000150 16 b0 1f bf 16 20 e5 3d 7a 1a c5 bf 22 48 ce 3e
       -0.6237806 0.111877605 -1.5398705 0.40289408
000160 7f aa 59 bf ab c9 0e bf af 5b 89 be 2f 27 ba be
       -0.8502578 -0.5577647 -0.26827762 -0.3635802
000170 e1 e2 5a bf a3 fd 00 3f 6c f1 11 3f 9f cb 36 bd
       -0.8550244 0.5038702 0.57009006 -0.044627782
000180 0e 24 c4 bd c9 65 19 3f cd cd 42 bf a8 fc f8 be
       -0.095771894 0.59920937 -0.7609528 -0.4863026
000190 2f 8a ac 3e b3 03 23 bf f2 10 9f bd 18 07 f6 be
       0.33699176 -0.6367752 -0.07766904 -0.48052287
0001a0 45 0b c2 be ad a0 e4 be 52 f3 d6 be 49 c7 1d 3f
       -0.37899223 -0.44653836 -0.41982514 0.6163221
0001b0 15 c7 80 be 1a 11 e7 be 47 a3 f3 be 23 7c 13 3f
       -0.25151888 -0.45130235 -0.47585508 0.5761129
0001c0 6b 03 88 3d 9a 80 4d bf 19 73 3c 3d 62 9f de be
       0.06641277 -0.80274355 0.046008203 -0.43480974
0001d0 07 ec ca 3c 5f d1 50 bf f3 86 75 3e 8e 66 86 be
       0.02477075 -0.81569475 0.2397726 -0.26250118
0001e0 83 ad d8 bc 5f 6b a5 be fe 17 f4 be ae 2d ca 3e
       -0.026449924 -0.3230848 -0.47674555 0.39487976
0001f0 98 31 13 bf fc 50 95 3e 0b c8 0f 3e 1a 22 80 3e
       -0.5749755 0.2916335 0.14041154 0.25026017
000200 67 a4 b0 bf cb a8 59 3f f2 47 ea 3f 02 3f f2 3d
       -1.3800172 0.8502318 1.8303206 0.11828424
000210 e1 cf 5e 3e 93 17 d4 3d 33 87 27 3e 05 33 2f 3f
       0.21758987 0.10356059 0.16360168 0.68437225
000220 fb 3e 04 c0 c0 ec e3 bf e4 a3 b2 bf bb 8a 16 be
       -2.066344 -1.7806625 -1.3956265 -0.14701359
000230 f0 5b ed bf b3 c2 bc 3e 5b a7 18 bf fd 11 d9 3f
       -1.8543682 0.36867294 -0.59630364 1.6958615
000240 a5 65 98 3d 55 a4 1c bf be a8 4a 3f a2 c9 2c 3f
       0.07441262 -0.6118825 0.7916373 0.6749517
000250 de 67 d3 be 54 2f 3f bf b6 59 9e 3f 13 6a 89 bf
       -0.41290182 -0.7468159 1.2371128 -1.0735496
000260 b7 0b ac 3f 19 78 84 bf 58 8b dd be 75 e1 c0 3c
       1.3441075 -1.0349151 -0.43270373 0.023545006
000270 6c be ad 3f d5 18 f8 bc 17 c3 b1 3f bf f8 25 3f
       1.3573737 -0.030285278 1.3887662 0.6483268
000280 06 94 bd bf 23 fc dd bf b9 74 cf 3d 6f 1d 85 3e
       -1.4810798 -1.7342571 0.10129685 0.2599902
000290 44 27 12 40 1b e7 fc 3e 22 8d 31 3f 59 13 2d bd
       2.2836466 0.4939507 0.69355977 -0.04225478
0002a0 c7 08 9d ba c3 c1 c1 3f b0 c4 14 be 05 7e 05 bf
       -0.0011980765 1.5137256 -0.14528155 -0.52145416
0002b0 76 30 e6 bd 3a 3e 0a bf 97 78 9a 3d ba b8 92 3f
       -0.11239712 -0.540012 0.07542532 1.1462624
0002c0 d0 2d 8e bf 3b f8 a3 3f 62 62 d7 bf c4 43 bc 3e
       -1.1107731 1.2810129 -1.6826899 0.3677045
0002d0 43 1e 09 bf c2 80 cf 3f fb b5 d2 bf 05 8d 85 bf
       -0.535618 1.6211169 -1.6461786 -1.0433661
0002e0 ba a2 d3 3f 33 65 c1 3d 8a 4a c0 3e f1 d0 ea bf
       1.6534035 0.0944313 0.3755687 -1.8345014
0002f0 9a 31 d9 bf f0 9a bb 3f 37 dc d8 3f bb e6 8c bf
       -1.6968262 1.4656658 1.6942204 -1.1007913
000300 ad 31 69 bf 13 9b eb 3e 40 81 0f 40 c3 0b ee bf
       -0.91091424 0.4601675 2.2422638 -1.8597339
000310 c9 0a f3 bf 7e 8e b9 bf 0f 17 09 c0 42 61 d0 bf
       -1.8987666 -1.449661 -2.1420324 -1.6279681
000320 6a d4 7f 3e a8 82 97 bd e9 5b 0a bf bc af 94 bf
       0.24983373 -0.073979676 -0.54046494 -1.161613
000330 00 53 13 3f dd 9e ec bf 91 5d f3 bf 62 35 2a be
       0.5754852 -1.8485981 -1.9012929 -0.16621926
000340 80 86 f9 bf 1e 78 da bf 57 2e b6 bf fa b6 01 c0
       -1.9494171 -1.7067907 -1.4232892 -2.026793
000350 41 f9 09 c0 a4 5b de bf 10 56 43 bf 7c 3a 29 40
       -2.1558383 -1.7371716 -0.76303196 2.6441946
000360 66 6f 6d bf d1 98 7f bf 8e fe e8 bf b8 68 fc bf
       -0.92748106 -0.99842554 -1.8202684 -1.9719458
000370 2e 1e ad bf 2c d0 f9 bf 28 a7 00 40 57 e2 c8 bf
       -1.3524835 -1.9516654 2.0102024 -1.5694073
000380 24 60 4c be 33 60 2e 3f ec 0a 03 c0 d0 3f f5 bf
       -0.1995855 0.6811554 -2.0475416 -1.9160099
000390 fb a2 6f 40 39 8b 90 bf 59 db a6 bf 89 13 f4 bf
       3.7443225 -1.1292487 -1.303569 -1.9068462
0003a0 ae 1b 49 bf 22 62 ba bf 6f 2b 08 c0 8d ef c1 3f
       -0.7855786 -1.4561198 -2.127651 1.515123
0003b0 36 77 01 c0 b4 6a e6 bf 32 ae e8 bf 4e 1d ac bd
       -2.022901 -1.8001313 -1.817816 -0.08404027
0003c0 6c 78 1a bf e1 1c 86 bf d0 b8 29 40 df e6 92 bf
       -0.6034 -1.0477563 2.651905 -1.1476706
0003d0 5e c3 cf bf 2d 1d aa bf d7 0a 0d 40 7e 86 a5 bf
       -1.6231496 -1.3290154 2.2037866 -1.2931669
0003e0 2c 8e 2b 40 e0 fe f9 bf 4f 58 01 c0 db de 1c 3f
       2.6805525 -1.9530907 -2.021015 0.6127755
0003f0 77 70 e9 3d 79 02 69 3c 72 b0 d4 3f ca 95 5f bf
       0.11398404 0.014221781 1.6616347 -0.87337935

lstm.weight_ih_l1 f4 [256, 64]
000000 87 c8 2c be 85 0b a3 bd 6f 90 86 bf 34 c5 75 3e
       -0.1687337 -0.079611816 -1.0512828 0.24001008
000010 37 3d 0c bf c6 34 ec be a5 1f 12 bd db 64 da be
       -0.54780906 -0.46134013 -0.03567471 -0.42655072
000020 9f da c6 3e d4 3d d0 3f 33 01 63 3f ba 7e 16 3e
       0.3883867 1.6268868 0.88673705 0.1469678
000030 41 7d 85 3f f4 da a0 bd 58 ed 69 be 4e b5 67 be
       1.042885 -0.07854262 -0.22844446 -0.22627756
000040 55 e1 2b be 2c a6 b4 3d a9 95 b8 3d a7 f2 49 be
       -0.16785176 0.08820757 0.090129204 -0.19721471
000050 3a 41 3f be 71 aa 37 3e e8 5a 58 3f a1 02 df 3f
       -0.18677226 0.17936112 0.8451371 1.7422677
000060 03 2e 3f bf 0f 4a ec 3e bb 8b 98 3e 08 6f e7 be
       -0.74679583 0.46150252 0.29794106 -0.45201898
000070 9f dc 6b be ef ec 5d be 65 71 3c bf 14 7b a8 bd
       -0.23033379 -0.21672414 -0.73610526 -0.082266
000080 31 e9 eb 3e d5 d2 78 3f 8a d8 85 3e ef 51 18 3d
       0.46076348 0.97196704 0.2614177 0.037187513
000090 1d 15 78 3e ba e3 ce 3e 30 7d 25 3e b2 6b 0b bf
       0.24226804 0.40408117 0.16161036 -0.54461205
0000a0 8d 62 23 3f cf 87 95 3e 14 34 b7 3d 34 8a 2e bd
       0.6382225 0.29205176 0.0894548 -0.04261227
0000b0 e6 b4 d6 bc 62 54 bf 3d 11 59 ca 3e f0 99 3a bf
       -0.026209306 0.093422666 0.39521077 -0.7289114
0000c0 5c dc aa 3d ea 9d 04 bf f0 2c 4a 3f 08 76 0e 3e
       0.083428115 -0.5180346 0.7897482 0.13912213
0000d0 e6 18 ba 3e bf ba 3f be 37 1e 0c 3f fa 20 c3 3e
       0.3634712 -0.18723582 0.54733604 0.38111097
0000e0 a4 23 82 bf e7 35 df bd a0 5e 42 bf a8 ab 4d 3f
       -1.0167127 -0.10898953 -0.75925636 0.8034005
0000f0 5e b9 cf be 29 0a 74 bf 01 7f d0 be 9e 71 65 3e
       -0.4057111 -0.95328003 -0.40721896 0.22406623
000100 88 90 2b 3e 15 2a c6 be da 68 97 3e 0d 1e 70 3e
       0.16754353 -0.3870398 0.29572183 0.23448963
000110 f5 c6 e9 be e4 11 e7 be f8 36 a6 3e 5b 7e b3 3d
       -0.45659605 -0.45130837 0.32463813 0.08764335
000120 d6 ee 73 3d b2 70 49 3f a7 64 39 bf 3e bb 8d bd
       0.059553944 0.78687584 -0.7241921 -0.06920479
000130 d6 cd da bd 7f 7c 87 3e 83 6d 0c bb 2c fa 6e be
       -0.10683791 0.2646217 -0.0021427579 -0.2333762
000140 b1 82 9d 3d 1d 39 e8 be a7 7e 00 3d 35 fe a7 3e
       0.07690943 -0.45356074 0.031370785 0.32811132
000150 9c dc 62 be 4b 92 8d be d0 e4 21 3f d9 3c c2 3e
       -0.22154468 -0.27650675 0.63239765 0.37937048
000160 d0 d2 79 3e b5 03 fd bd 1c d2 25 3e 52 7b 24 be
       0.24396825 -0.12354223 0.16193432 -0.16062668
000170 94 04 f6 3d 08 12 bf be 9c 5d 3f 3e f4 d6 20 3e
       0.12012592 -0.37318444 0.18688053 0.15706998
000180 ef 3c 95 bc 21 21 b8 be e6 db 63 be ba 22 bd 3e
       -0.018217532 -0.35962775 -0.22251853 0.36940557
000190 11 69 04 3f 6a 5a 41 3f d4 dc 30 3e 35 98 fc bd
       0.5172282 0.75528586 0.17271739 -0.12333719
0001a0 da 92 28 be b4 0a a1 be 22 7c 00 bf 9d 8c 9b be
       -0.1646227 -0.31453478 -0.5018941 -0.30380717
0001b0 cd a7 76 3e 94 64 fd 3c e6 93 dc bd 35 07 05 3f
       0.24087448 0.030931748 -0.10770397 0.5196412
0001c0 3b 04 fb bd c0 73 6f 3e c8 50 67 3e 01 53 66 bd
       -0.12256666 0.23383999 0.2258941 -0.056231502
0001d0 c9 c6 5a 3e 23 e8 c7 3e 79 d5 b0 be b0 1a 34 be
       0.21364893 0.39044294 -0.34537867 -0.17588305
0001e0 43 1b e8 be 97 da 74 3d 38 6d 4f 3e 77 1a 11 3f
       -0.453333 0.059778776 0.20256507 0.5668101
0001f0 29 a0 c7 be 12 3b 3e bf 33 63 aa 3c cc 8e 35 bf
       -0.3898938 -0.74308884 0.020799255 -0.70921016
000200 93 38 30 bd dd 78 52 bf 77 d7 b5 bf f3 0c d5 bb
       -0.043022703 -0.8221567 -1.420638 -0.006501788
000210 d8 de 25 bd 2e 01 02 c0 7e ca 8c 3e 11 5a fc 3d
       -0.040495723 -2.031322 0.2749824 0.12321866
000220 15 f6 a2 3f 49 db 8d 3f ad 7b 4d ba 4e f9 18 3f
       1.2731348 1.1082546 -0.00078385585 0.5975541
000230 a5 d8 74 3f ba 4b 1b 3f 11 a8 f4 bd 72 0c b8 bf
       0.95643073 0.60662425 -0.119461186 -1.4378798
000240 ac 0c a2 3e 95 7b bd bd 6c 49 2c bd 96 6c b1 3c
       0.31650293 -0.09252087 -0.042062208 0.021658223
000250 25 86 36 be c3 27 38 be ca f7 d4 be 1b ac c5 3f
       -0.1782461 -0.17983918 -0.41595298 1.5443147
000260 54 68 35 bf 46 8c 7e bd c6 ec 26 bd f2 f3 4d bd
       -0.7086232 -0.062145494 -0.04075315 -0.050281473
000270 17 d7 12 bd 78 db 00 bf 24 01 b1 3e 0a 29 8e 3e
       -0.035849657 -0.5033488 0.34571183 0.27765685
000280 17 9b 93 be 0d b6 1b 3e 48 9b 2f bf 73 68 44 3f
       -0.28829262 0.15206166 -0.68596315 0.76721877
000290 0e e7 8c bf 23 87 1f bf f5 76 dc 3e 57 a2 14 3f
       -1.1008012 -0.6231558 0.43059507 0.5806021
0002a0 bd 64 2f be 1c 7c 07 bf f4 39 e3 be ec 5f d5 bd
       -0.17128272 -0.5292375 -0.44380152 -0.10418686
0002b0 be 1f 0e 3d 57 23 c8 3e 3c 44 66 3d 97 e1 26 3d
       0.03469824 0.39089462 0.056217417 0.040742483
0002c0 a4 6d 71 3f b4 3f f9 be 3b dd b4 3e 8b 6f 22 bf
       0.94307923 -0.48681414 0.35325035 -0.6345145
0002d0 3d a9 63 3e 29 83 db 3e e7 ba 4d 3f f1 1e 8d be
       0.22232528 0.42873505 0.80363315 -0.2756267
0002e0 57 f3 fb bd f2 1c aa 3e 80 b3 6c 3f ec f0 ea 3f
       -0.12302273 0.3322521 0.92461395 1.8354774
0002f0 d4 16 49 3a be 40 2c bf f1 3e 98 be a9 27 be bc
       0.0007670943 -0.6728629 -0.2973552 -0.02321227
000300 c5 8a 22 bf a7 58 10 bf b1 d8 41 bf 80 00 16 3e
       -0.63492996 -0.5638527 -0.7572127 0.14648628
000310 d9 ce 5e be 43 30 54 bf dc 0f 81 3f 45 d1 b1 be
       -0.21758594 -0.8288614 1.0082965 -0.34729972
000320 93 4a 47 3f 34 59 f7 3f a0 d2 5d 3f 21 d0 85 3e
       0.77848166 1.9324098 0.86649513 0.26135352
000330 5e 86 f4 3e e5 69 a7 be a6 55 11 be 90 f8 5e bf
       0.47758764 -0.3269798 -0.14192829 -0.87098026
000340 a4 be 66 be c8 8f 87 be f8 e0 3d 3d 23 4a 2e be
       -0.22533661 -0.26476884 0.046357125 -0.17020468
000350 95 f1 df be 6d b4 f4 3c ad 9c 92 3f b6 ac ea 3f
       -0.43739 0.02987119 1.1454064 1.8333957
000360 fc 62 8c bf 3f 4f 30 3e a3 19 b5 3e 7e 43 e3 be
       -1.0967708 0.1721773 0.35371122 -0.4438743
000370 7e 32 d1 bd ee 51 96 3d e3 a5 47 bf 35 84 b6 3b
       -0.10214709 0.073398456 -0.779875 0.0055699595
000380 74 2c 38 3f 9f cc 1b 3f 4e f5 03 bd 3c b1 43 bd
       0.7194283 0.608591 -0.032216363 -0.047776446
000390 e6 2f b4 bd a7 8d be 3e 08 53 f8 bc 6c 10 cd be
       -0.087981984 0.37217447 -0.03031303 -0.4005159
0003a0 d2 74 47 3f 01 55 5f 3d f6 d9 d4 3d db 78 f7 3e
       0.7791263 0.054524425 0.10393135 0.48334393
0003b0 0d 1c 95 3e 0c 70 c4 bd 56 e4 99 3e f5 b6 8d bf
       0.29122964 -0.09591684 0.3005702 -1.1071459
0003c0 34 6a 00 3f 8e 51 56 be 1b 02 78 3f 26 08 97 bb
       0.50162053 -0.20929548 0.9687821 -0.0046091257
0003d0 7b b8 72 3e 77 76 76 be aa 6c 03 3f d3 d3 aa 3e
       0.23703186 -0.24068628 0.51337683 0.33364734
0003e0 8c 92 a4 bf 15 bf e3 be 61 39 69 be 45 fc 93 3e
       -1.2857223 -0.44481722 -0.22775795 0.28903404
0003f0 6f 07 13 bf 20 5b 79 bf 78 b7 fc be bb a9 82 3e
       -0.5743322 -0.9740467 -0.49358726 0.2552012

lstm.weight_hh_l1 f4 [256, 64]
000000 32 83 19 3f bd 15 2d bc a0 71 64 be 26 b3 61 be
       0.59965813 -0.010564265 -0.2230897 -0.22040996
000010 69 6e ae be 5d 14 ab be 74 9e 9b be 77 74 dd 3e
       -0.3406861 -0.33413973 -0.30394328 0.43252918
000020 bf 88 73 be d5 76 2d bf 40 62 b2 3d 07 1c 71 3d
       -0.23782633 -0.6775945 0.08710146 0.05886462
000030 fc e4 9e be 35 9f ba 3d 37 74 07 3f 21 d1 08 be
       -0.31034076 0.091123976 0.52911705 -0.13361026
000040 b1 fd 09 3e 8f d2 b7 3d 52 6e aa bd 3c 3f 1f be
       0.13475682 0.08975708 -0.08321823 -0.15551466
000050 c2 f8 b7 bd 2d c7 d5 3d f5 4b 13 bf 95 5d 72 be
       -0.08982994 0.104383804 -0.57537776 -0.23668511
000060 56 d0 95 bd 0c eb 69 3e aa a4 93 3e 2b ee f3 be
       -0.073151276 0.2284357 0.28836566 -0.47642645
000070 86 c7 a3 be 6b 8e 11 3e 3e 60 31 be 56 e4 c0 3d
       -0.31988162 0.14214484 -0.1732187 0.094185516
000080 a0 de 95 be ce 3e b0 bd 31 d7 bb bd 7d c0 8c 3e
       -0.29271412 -0.08605729 -0.09171904 0.27490607
000090 65 43 c7 3d 41 4e 93 be cf 2e 43 3e d2 b4 c5 3e
       0.09729651 -0.2877064 0.19060825 0.38614517
0000a0 08 60 bb 3d 8c ed d2 3c dd 1f 4c 3e ec f9 1a 3e
       0.09149176 0.025748037 0.1993403 0.151344
0000b0 e0 1c 00 3d f5 26 7b bb a4 7a 0d 3e f6 90 87 be
       0.031277537 -0.003832278 0.13816315 -0.26477784
0000c0 5f 8d 59 3e ae 7e c3 3d eb f2 a2 3e b8 7e a2 3e
       0.21245335 0.095456466 0.31825957 0.31737304
0000d0 9d 2b e8 bd 24 51 ca bb d5 30 c0 3d 71 2b e5 bb
       -0.113364436 -0.0061742235 0.09384314 -0.006993704
0000e0 ca 90 e7 bd 83 69 9f 3d 56 d5 69 3e 79 a5 31 be
       -0.11306913 0.07783797 0.22835287 -0.17348279
0000f0 01 62 5f 3e 3d 1e 88 3d 23 ec cc 3e 3c ae 5b 3d
       0.2181473 0.066463925 0.40023908 0.05363296
000100 2e 52 99 3d cd e8 54 3f 40 e8 36 bf 4d 97 2e 3e
       0.07486378 0.83167726 -0.71448135 0.17049904
000110 c5 7e 77 bf ed dd 13 be 08 33 2a be db fb 07 3e
       -0.9667781 -0.14440127 -0.1662103 0.13279669
000120 32 ae 59 bf ba e3 c7 be 72 f2 4f be 3d 54 27 3f
       -0.85031426 -0.3904093 -0.2030733 0.6536291
000130 03 31 84 bf 95 3e be 3d d5 03 c0 3f 2b fa 9f bd
       -1.0327457 0.0928928 1.500117 -0.07811388
000140 fa 92 14 3e ba d4 d7 3e 1d 98 bf be 7c 6e 98 3d
       0.14509192 0.42154485 -0.3742074 0.07442948
000150 3e 32 d7 be 0c ca 1a bd 95 c0 f8 be c2 1f c7 3d
       -0.4203052 -0.037790343 -0.48584428 0.09722854
000160 6a 2a 39 3e 2a ba e5 3e bf c6 ab 3e a4 e0 69 be
       0.18082586 0.44868594 0.3355007 -0.228396
000170 c2 e6 03 3d 0f 78 b8 3e 0b b5 93 be d9 13 9d 3d
       0.03220249 0.36029097 -0.28849062 0.07669801
000180 c3 9f 3a be 50 fb a6 3e 59 81 03 bf de ea 43 3e
       -0.18225007 0.3261361 -0.51369244 0.19132563
000190 f2 0b 83 be 0a 7f e4 be 94 6f 55 3f bd 10 e9 3d
       -0.2559505 -0.44628173 0.8337338 0.11380146
0001a0 05 a4 92 3e c2 90 1b be 9a e2 d8 3e cd a0 1f 3e
       0.28640762 -0.1519194 0.42360383 0.15588684
0001b0 e8 e8 84 be ee bd 43 bc 55 c0 72 be d7 40 8d be
       -0.25958943 -0.011947138 -0.23706181 -0.2758853
0001c0 23 f0 a0 3e 0d 57 79 3e 1d 1c b6 3e 42 fc 62 3f
       0.3143321 0.24349613 0.35568324 0.88666165
0001d0 fb 9b f9 be 47 03 0b be d0 01 0f 3f a6 ba 46 3e
       -0.48751816 -0.13575469 0.5586214 0.19407138
0001e0 e1 66 c8 b9 15 a4 95 3e 4e 24 77 3e f0 70 0c bf
       -0.00038223623 0.29226747 0.24134943 -0.5485983
0001f0 6e b3 35 3e 9e bc 76 be 8d d7 34 3f 7f 6a 93 be
       0.17744228 -0.24095389 0.70641404 -0.28792188
000200 48 4e b9 3e 0c b0 9d 3d de 64 d6 3e 21 50 87 be
       0.36192536 0.07699594 0.4187383 -0.2642832
000210 a0 e7 cd 3c f3 f0 86 be 85 fc 6b 3e 2a b7 66 3e
       0.025134861 -0.26355705 0.23045547 0.22530809
000220 82 b6 92 3e f7 b7 f4 be 8b 0c 90 3e 01 7e 71 be
       0.28654867 -0.47796604 0.2813457 -0.23583223
000230 67 8a 55 3e 3d 65 9d bd 71 83 c8 be 5b 94 9d be
       0.20853578 -0.07685325 -0.39162782 -0.3077725
000240 91 4c e7 be 74 24 aa be 33 13 e4 3e 4c c4 f5 3e
       -0.45175603 -0.33230937 0.44545898 0.48001325
000250 c0 6d cf be a9 14 1c be a0 2f 54 3e e4 46 cc 3d
       -0.4051342 -0.15242256 0.20721292 0.09974459
000260 79 84 67 be a2 3a 82 3e 7e cd aa 3e 42 18 38 be
       -0.22609128 0.25435358 0.33359903 -0.17978004
000270 61 6c 80 be 64 32 a7 be cd 0e e9 3d a1 91 7d be
       -0.25082687 -0.32655632 0.11379776 -0.24762584
000280 23 b0 62 3e 28 5f 50 be c9 5e 47 3e a5 9b 48 be
       0.22137503 -0.20348799 0.19469751 -0.19590624
000290 d4 99 e2 3e e7 72 5a be 68 68 c9 be 2d 26 1e be
       0.44257987 -0.21332894 -0.39337468 -0.1544425
0002a0 b1 c1 54 3c 4e 24 2f 3f c9 7c 83 be be f8 84 3e
       0.012985633 0.6841477 -0.2568114 0.25971025
0002b0 30 d8 2d be c8 2a 0b bf 32 fb 41 3d 04 5d 4e be
       -0.16977 -0.54362154 0.0473587 -0.2015267
0002c0 0a 90 d3 be 8e 72 09 bf 82 3b 80 3d 60 44 27 3d
       -0.4132083 -0.5369042 0.0626135 0.04083669
0002d0 ec 02 86 3e 05 10 4e bf 31 ec 2c 3e 58 dc bc 3e
       0.26174104 -0.80493194 0.16886975 0.3688686
0002e0 d2 6b 31 be ab 01 ba be 24 8a 85 bd f4 b7 53 3d
       -0.17326286 -0.36329398 -0.06520489 0.051689103
0002f0 a4 36 99 3e 28 1e 98 be 43 78 ff 3e 98 66 0f bf
       0.299245 -0.29710507 0.4989644 -0.5601592
000300 ea 1d d9 3e 89 76 e1 3d fd 89 56 be 9c e0 a2 be
       0.42405635 0.11008937 -0.20951076 -0.31811988
000310 64 d8 da be c5 ac 5f be 0f 9b 78 bd d3 fa 0b 3f
       -0.42743218 -0.2184325 -0.06069475 0.546796
000320 e0 ba ac 3d 4d 8f 84 bf 4e 1d 0c 3e 09 04 af 3e
       0.08434081 -1.0356232 0.13683054 0.34182766
000330 1b ed b1 be 11 42 01 be 63 3c 63 3f 69 db b0 be
       -0.3475121 -0.12622859 0.8876402 -0.34542397
000340 9b 8c d1 3d 31 03 a6 bc f8 14 81 be 99 d4 03 bd
       0.102318965 -0.020265194 -0.2521131 -0.03218517
000350 a4 f8 06 bf 4e 59 b8 bb 3e 07 cf bf 98 90 d2 3e
       -0.52723145 -0.0056258803 -1.6174085 0.4112594
000360 dc 0e ee be 8d f9 e0 3e af 4f ae 3e 18 42 1d bf
       -0.46495712 0.43940392 0.3404517 -0.61428976
000370 87 99 0c 3e 3e 6b 94 be 1c a6 f7 bd 81 2d 8f 3e
       0.13730441 -0.2898807 -0.1209223 0.27964404
000380 48 41 9c be a4 ce 56 be 9b 61 4d bd ab f8 98 bc
       -0.30518556 -0.20977265 -0.050141912 -0.018673262
000390 32 bd b5 3e 9b 8c 1d bf ff 9c 4e 3e 27 64 77 3e
       0.35495907 -0.6154267 0.20177077 0.24159299
0003a0 9d ac e5 3b 9c fa f3 bd 0b 4b 6a 3d f6 eb 7f 3e
       0.0070091025 -0.11913034 0.057200473 0.24992356
0003b0 85 75 27 3b d4 2c d1 bd 67 fe cb be d6 e5 77 3c
       0.0025552225 -0.102136284 -0.3984253 0.015130481
0003c0 33 a2 d8 3e 35 2e b6 3d c2 5d 08 3f 9c 0b d8 3e
       0.42311248 0.08895532 0.53268063 0.42196357
0003d0 d2 a0 49 3e 7f 94 8b bd 65 ff 21 3e 28 df f2 3d
       0.19690254 -0.06815433 0.15820082 0.1185897
0003e0 45 3b ca bd 9d d0 47 3f 70 9c 9f 3e b8 ea 20 bd
       -0.09874586 0.78052694 0.3117404 -0.039286345
0003f0 11 40 6c 3e 4b 1a 6d be 08 18 b5 3e ce a9 c4 bd
       0.23071314 -0.23154561 0.35369897 -0.096027

lstm.bias_ih_l1 f4 [256]
000000 5b de 22 bf 2b 7c 1e bf 3e e4 1f bf cf 68 37 bf
       -0.6362054 -0.61908215 -0.62457645 -0.716443
000010 b4 09 d3 be 35 9c a8 bf 84 98 e0 bf 3b 0b 16 bf
       -0.4121834 -1.3172671 -1.7546544 -0.58610886
000020 5f 88 ee 3e f1 42 db be 4b d0 a0 be 32 38 79 bf
       0.46588418 -0.4282451 -0.31408915 -0.9735137
000030 ff 7b d3 be 4a 58 69 bf c7 25 9f 3e 7c 12 3b bf
       -0.4130554 -0.91150343 0.3108351 -0.7307508
000040 23 91 b1 be cc e9 0a 3f 21 35 54 bf e1 2e 6f 3f
       -0.34681043 0.54262996 -0.8289357 0.93430907
000050 3d 3b ca be e4 13 10 bf 54 7a db 3e f9 8d 19 bf
       -0.3949832 -0.5628035 0.42866766 -0.5998226
000060 ec 46 c8 bf c4 ba 8b be 13 18 5d bf 97 2f 89 be
       -1.5646644 -0.27290928 -0.8636486 -0.2679412
000070 1d be fb be 62 f4 87 bf 0b 96 9d bf 15 3a 3d bf
       -0.49168482 -1.0621455 -1.2311414 -0.7391675
000080 c0 02 f0 be 4d 97 80 bf fb 8c bc bf 20 05 de be
       -0.46877098 -1.0046173 -1.4730524 -0.43363285
000090 e4 18 81 bf 2f 86 3d bf 8e 8c aa bf 6f f3 6d bf
       -1.0085721 -0.7403287 -1.3324144 -0.92949575
0000a0 aa 04 2d bf 6c 14 67 be eb 65 06 3e 15 1e 8b bf
       -0.6758524 -0.22566384 0.13124816 -1.0868555
0000b0 a5 6d dd bf 56 a2 8e be 77 17 9e bf 39 75 31 be
       -1.7299086 -0.27858227 -1.2350911 -0.17329873
0000c0 4a 1a 59 bf 45 e6 3e bf c2 51 01 bf 94 7b b6 be
       -0.8480574 -0.74570113 -0.5051538 -0.35641158
0000d0 c8 e6 55 3f 8b 98 4f 3f 5f c1 11 bf fe aa 8f bf
       0.8355527 0.8109214 -0.56935686 -1.1224058
0000e0 68 6b 3b bf 39 97 33 bf 5e 5a 33 bf 89 60 c1 3d
       -0.73210764 -0.7015262 -0.70059764 0.09442241
0000f0 33 cd a2 be 32 94 25 bf 4b 36 4e be 88 f2 8f bf
       -0.3179718 -0.64679253 -0.20137899 -1.124589
000100 7b f5 05 bf ac c6 3a 3d 82 ce c8 be 71 11 8d be
       -0.523277 0.045599625 -0.39220053 -0.2755237
000110 1a 5f cd bd ee 7c c6 be 9e e4 96 be 0c 62 4f 3d
       -0.10027905 -0.3876719 -0.29471296 0.050630614
000120 95 60 c9 be 0b 94 32 bf 0d 60 69 be bc c4 1d bf
       -0.393315 -0.69757146 -0.22790547 -0.6162832
000130 54 ec 38 bf ec 2c e1 be d1 fb 65 bf 3b ca c1 be
       -0.7223561 -0.43979585 -0.89837366 -0.37849602
000140 f5 ed 06 be c2 af 30 bf 89 32 5e be a3 8f 86 be
       -0.13176711 -0.69018185 -0.21698965 -0.2628146
000150 f1 7d 0d bf 1c 36 6a bf dc e5 03 bf e3 15 a0 be
       -0.55270296 -0.91488814 -0.5152261 -0.31266698
000160 cc 54 75 bf 0a 78 42 be 0e 45 88 be 5f f6 0d bf
       -0.95832515 -0.18991104 -0.26615185 -0.5545406
000170 e7 4b 92 be aa 46 36 bf 46 fc 39 bf c1 5b 7c be
       -0.28573534 -0.71201575 -0.72650564 -0.24644376
000180 04 64 e0 be 36 79 1f bf 42 22 29 bf c3 a8 ab 3e
       -0.43826306 -0.6229433 -0.660679 0.33527192
000190 3e 0e 97 be fb 31 f3 3e ca 3e bf 3e e4 50 1d bf
       -0.29503053 0.4749907 0.37352592 -0.61451554
0001a0 4a c0 86 be fe b1 1f 3f 43 53 02 3f c7 c7 40 bf
       -0.2631858 0.6238097 0.509083 -0.75304836
0001b0 8c 40 26 bf 2d 85 65 bd 71 d4 9f 3e 5d 29 1c 3e
       -0.6494224 -0.05603521 0.31216767 0.15250154
0001c0 16 66 04 bf 8c b3 9b be 82 cd 94 be 5d d2 dc be
       -0.5171827 -0.3041042 -0.2906304 -0.43129244
0001d0 32 7a 25 bf 0d 3d 52 3f b4 3c 32 bf ab 9e 81 be
       -0.6463958 0.82124406 -0.69623876 -0.25316367
0001e0 68 76 20 bf db f1 44 bf 11 68 1b bf cd be 6c bf
       -0.62680674 -0.7693154 -0.6070567 -0.9247864
0001f0 a6 a8 3f be 19 4a 41 bf 8a c9 09 3e 75 bf a6 be
       -0.18716678 -0.7550369 0.13455787 -0.32567945
000200 45 4e 0f 3d a8 c5 8f 3e cb 10 e4 3e 16 f7 c9 bd
       0.034986753 0.28080487 0.44544062 -0.09861581
000210 86 dd 62 be 70 70 1a 3e 1f 50 76 be aa 88 e1 be
       -0.22154817 0.15081954 -0.24054001 -0.4404958
000220 3f 7e 83 bd 49 79 92 be 9a 70 68 3d 26 e6 55 be
       -0.06420564 -0.28608158 0.05674801 -0.20888576
000230 8f 11 6f bd 98 03 c9 bd c6 34 14 3d f6 36 9d bd
       -0.058366355 -0.098151386 0.03618314 -0.076764986
000240 ee 2c 96 bd 8b 68 2c 3c be 7b c8 3e cd 53 aa 3d
       -0.073327884 0.010522972 0.39156908 0.08316765
000250 fa 7c 27 3d 21 27 46 bd 3e ac 0d 3f 85 bd 4a 3d
       0.04089067 -0.04837716 0.55340946 0.049497146
000260 15 82 18 bf 21 51 fb bd b0 c0 49 be ff 28 1e 3e
       -0.5957349 -0.122713335 -0.1970241 0.15445326
000270 f7 d4 cc bd e0 a0 64 be 90 4b a2 3d fd 6d 0b be
       -0.10001557 -0.22326994 0.07924569 -0.13616176
000280 d1 39 1d 3e 53 33 46 be 49 46 a9 3d 0c 40 d6 3c
       0.15354086 -0.19355516 0.08265359 0.026153587
000290 ec 98 f3 3d 5e 52 99 3c 2c 1a 97 3e f4 db b1 be
       0.11894402 0.018716034 0.29512155 -0.34738123
0002a0 16 9b 89 bd 7b d3 0d 3e 62 41 65 bd 4e ce 3e 3e
       -0.067190334 0.13850205 -0.055970557 0.18633386
0002b0 08 4d bc be 6f 0d 24 3d 5b 6e 29 bf c0 8d 24 3f
       -0.3677752 0.040051874 -0.66184014 0.64278793
0002c0 b4 c5 3d be 8e ec 37 be 3e 8a 39 be 8a 99 d0 3d
       -0.18532449 -0.17961332 -0.18119141 0.10185535
0002d0 fb 12 e3 bd 37 f0 8e bd 7b 50 02 bf f2 11 ce 3e
       -0.110876046 -0.06979411 -0.50904053 0.40248066
0002e0 82 8a 02 be 0e d4 ef bd 93 51 24 be 48 85 fd 3d
       -0.12748149 -0.11710368 -0.16046743 0.12378937
0002f0 af 98 ec bd f9 93 45 3e e5 03 a8 3b 47 ab 88 bd
       -0.115525596 0.19294728 0.0051274174 -0.066732936
000300 21 77 0b bf f3 f9 85 bf 66 f0 5c bf d3 63 63 bf
       -0.5447865 -1.0466903 -0.8630432 -0.88824195
000310 79 f5 25 3f 32 64 a7 bf 0c 21 bf bf a6 4e 8a bf
       0.64827687 -1.3077452 -1.493196 -1.0805252
000320 91 98 4e bf dd 8f 4e 3f 2e 21 8d be e6 37 86 bf
       -0.8070155 0.8068827 -0.27564377 -1.0485809
000330 d5 08 a0 bc 8a 87 45 bf be 0c f2 3e 14 93 3a bf
       -0.019535461 -0.7715994 0.47275347 -0.72880673
000340 90 f1 8c bf cf 24 a2 bf 45 e1 c6 bf 50 09 b1 3e
       -1.1011219 -1.2667483 -1.5537497 0.34577417
000350 c5 47 bd be 95 e1 c1 bf 9c 39 14 3f 2f 80 de be
       -0.36968818 -1.5146967 0.57900405 -0.4345717
000360 07 3e b9 bf 5d 2b 99 be 44 10 42 bf cf e6 10 bf
       -1.4472054 -0.29915896 -0.7580607 -0.56602186
000370 01 be 0a bf 41 d4 7b bf 8f ce b6 bf 35 0f 28 bf
       -0.5419617 -0.9837075 -1.4281787 -0.65648204
000380 00 01 e4 be 1d a5 98 bf ac 49 be bf 07 8e 41 bf
       -0.44532013 -1.1925389 -1.4866233 -0.7560734
000390 1d ea 8c bf 0e fb fd be 03 a5 ad bf af 6b 6a bf
       -1.1008946 -0.49605602 -1.3565983 -0.9157056
0003a0 f1 02 4d bf 98 70 7c bf fb b8 93 bf 26 ca 6b bf
       -0.80082613 -0.98609304 -1.1540827 -0.9210533
0003b0 da d1 da bf 45 95 b5 bf a1 ca c5 bf 33 fc a9 be
       -1.7095292 -1.4186178 -1.5452462 -0.33200225
0003c0 6e ef f2 be aa 14 64 bf a8 0c ff be 85 3e ef be
       -0.47448295 -0.8909403 -0.49814343 -0.46727386
0003d0 c6 4d 60 3f b4 12 55 be 64 c6 90 bf 86 24 a4 bf
       0.8761867 -0.20807916 -1.1310544 -1.2823646
0003e0 27 58 33 bf ca 2e d9 be 2a d2 1b bf 69 57 ca bf
       -0.70056385 -0.4241851 -0.6086756 -1.5807925
0003f0 30 aa 01 bf 45 62 79 3f b3 7c 36 be bd bb 63 bf
       -0.5065031 0.9741557 -0.17821006 -0.8895834
