exp/model_skewed.pth (torch, 205495 bytes, 9 tensors)

lstm.weight_ih_l0 f4 [256, 2]
00000000: 4772 b8bf 014f 22c0 e05a 72bf df1a babf
00000010: cdb6 9ebf 8f0d 1ec0 8d24 b33f 61bc 79be
00000020: 8292 d43f cf15 6ebf 0b54 19c0 a39c e1bf
00000030: f8e4 a03e f13b 3f40 5e3a fcbf 048d 15bf
00000040: 989d 90bf e178 d93f d211 e1bf f25d 29c0
00000050: 974b 923f 1fb7 3940 00ab 8dbf 7612 d5c0
00000060: cdf8 9abf 0411 5a40 0007 fdbf 688e adbf
00000070: d606 84bf f4ec ddc0 1bee e4bf b50f 25bf
00000080: 9445 01c0 c2d6 643f 2ecc adbe 720a 8440
00000090: 679e 3540 0ac3 d7bf b1d2 d73f 9836 723f
000000a0: acab 25c0 4262 0740 1c9e 04c0 4d7f 54c0
000000b0: 0739 d23f de63 d53f ce6b b4bf 0bda ab3f
000000c0: e877 c23f d480 d540 1fec 8d3f 1577 e63f
000000d0: 65bd aabf e33c 3dc0 d590 8cc0 10b0 ecbf
000000e0: 447f dbbf 0527 1ac0 3966 1ac0 9dbe 48bf
000000f0: cc70 883f 3d28 0f40 499c 2bbe ccf2 0ac1
00000100: d570 3ac0 c881 8fbf 1643 e93f 0eb0 bdbe
00000110: ca7d c9bf 21df e3bf 1796 37c0 e412 a5bf
00000120: 0e2e d7bb 6ad5 9b3e 67ac aebf 54fa debf
00000130: e6db 37bd 1297 a040 49c2 e0bf 9be2 9dbf
00000140: aaac f5bf af82 b1bf 88c4 14be d0ce 3f40
00000150: 057d 92c0 00e1 bdbf b7f6 4b3f 24d0 2ec0
00000160: 7502 0f40 adc3 2940 1b33 5cbf 93a7 68c0
00000170: 1957 cf3f 96a4 f13d a5a1 9cbf d631 89c0
00000180: f1e1 8dbf 744d 07c0 0714 18c0 4f1e 9fbf
00000190: 4dd3 0f40 5603 20c0 b614 30c0 1563 4dc0
000001a0: 736a bfbf 4b95 41bf ead5 b9bf 8b5b afbf
000001b0: 3c13 ccbf 0021 dbbf ccd0 ffbf 8565 aec0
000001c0: ffb6 dcbf aef4 6f3d 71d7 1040 edc6 00c0
000001d0: 9ff9 16c0 2372 a5be f54e 11c0 3d15 35c0
000001e0: 375d acbf 8475 873f f262 d4bf cfcb b0bf
000001f0: 03e7 48c0 3dce 3fc0 13c9 07be ea0c 893f
00000200: f635 dabf d5f7 32bf 0cfa ee3e af8e 893f
00000210: 45c8 a9bf 5265 cabe a31c a6bf 9b96 f7bf
00000220: 5fe8 85bf 37a6 3ec0 443f c3bf c547 9dbe
00000230: a551 10bf 3ee3 313f 2d6b 79bf 454c ba3e
00000240: 4a82 98bf 823f db3f 674f 41bf f5c0 7cbf
00000250: 8ff9 69bf 4b52 1b40 f945 79bf 3a0d 06c0
00000260: 0a30 d7be 68ab f83f 533d 3bbf b25b dfbd
00000270: 85e6 a1bf 45ad 4dc0 4394 bbbe 90c3 5a3f
00000280: 9e70 f2be 772b af3e 2854 f0be 2f38 0a40
00000290: cd24 373f e96b 923f cf82 fa3e 141d a93f
000002a0: e7cd e1bf 3b78 86be 043e 11c0 b28d 4cbf
000002b0: 321a 8cbe 89f2 5c3f 1617 643f 5431 3540
000002c0: 874d 1dbf 1f0f 8540 84be a4bf 0765 6ebd
000002d0: 11d1 5cbf 28b4 9dbf 7f3b 32c0 0c62 7dbe
000002e0: 7fb3 32bf e0f6 14be 96c0 fdbf d24f 98be
000002f0: a5f7 29c0 d3ad 32bf 01d6 97bf 8f9d 1ac0
00000300: d2e0 b6bf fefc 1cbe 2cb5 3e3f e61a be3e
00000310: e395 9dbf 75df 76bf 49f3 e8bf bac4 95be
00000320: ae57 c3bf 7731 65bf df6d 09bf d5b0 0ebf
00000330: 7969 febf 3522 623f f4af 80bf 6d94 0ebe
00000340: d8cf aebf 377c 82be b86a 2f3f 8286 1e40
00000350: 3d0b 2ac0 ea99 63bf e41c e6bf edac 20c0
00000360: abba 00c0 2c12 f3bf 4c66 eabf 2c2b a7bf
00000370: 6a87 e2bd 98b3 25c0 04e0 0cc0 8e3e debf
00000380: 5767 debe be81 01be c9aa 0ec0 dcfc fcbe
00000390: f564 023f 4cf0 f0bf a9f2 babf ef36 40bf
000003a0: 279e c7bf 3cbf 5a3f 0217 b1be 2697 453e
000003b0: 5c78 a5bf 9c59 01bf 0f33 d4bf 14e7 49c0
000003c0: d3d4 b9bf 92bb 0bbe 7182 483f 4131 cabf
000003d0: b751 5fbf 9c76 a83d 1a1a f8bf 8c99 8dbf
000003e0: 5d37 85bf 271e 64be 5ae6 f6be f448 583d
000003f0: c012 e6bf 873e afbf 187f 3cc0 0ffe e1be
-1.4409875 -2.536072 -0.94669914 -1.453945 -1.2399536 -2.4695776 1.399553 -0.24388267
1.6607211 -0.9300203 -2.3957546 -1.7625927 0.3142469 2.9880335 -1.9705312 -0.584183
-1.1298094 1.6990014 -1.7583563 -2.646359 1.1429318 2.9018018 -1.106781 -6.6585035
-1.2107178 3.4072886 -1.9767761 -1.3559084 -1.0314586 -6.935175 -1.7885164 -0.6447709
-2.0198717 0.89390194 -0.3394484 4.126275 2.837793 -1.6856396 1.6861173 0.94614553
-2.588603 2.1153722 -2.0721502 -3.3202698 1.6423653 1.6671102 -1.4095399 1.3425916
1.5192842 6.671976 1.1087683 1.8005091 -1.3339049 -2.9568412 -4.3926797 -1.849123
-1.7148213 -2.4086316 -2.4124892 -0.7841585 1.0659423 2.236831 -0.16758837 -8.684277
-2.9131367 -1.1211481 1.8223598 -0.37048382 -1.5741513 -1.7802469 -2.8685358 -1.289639
-0.0065667694 0.3043626 -1.3646363 -1.7420144 -0.044887446 5.018441 -1.7559291 -1.233478
-1.9193318 -1.3868006 -0.14528096 2.9969978 -4.577761 -1.483429 0.7967333 -2.731454
2.234525 2.652568 -0.8601548 -3.635228 1.6198455 0.117989704 -1.223683 -4.2873335
-1.1084577 -2.1141024 -2.3762224 -1.2431124 2.2472718 -2.5002036 -2.751264 -3.2091725
-1.4954361 -0.7561843 -1.4518406 -1.3699812 -1.594337 -1.7119446 -1.9985595 -5.4498925
-1.7243346 0.058582954 2.2631495 -2.0121415 -2.3589857 -0.32313642 -2.2704442 -2.8294213
-1.3465947 1.0582738 -1.6592696 -1.3812197 -3.1390998 -2.9969628 -0.13260297 1.0707066
-1.7047718 -0.6990941 0.46675146 1.0746669 -1.3264242 -0.39530426 -1.2977489 -1.9342836
-1.0461539 -2.978895 -1.5253682 -0.30718818 -0.5637458 0.6948737 -0.9742916 0.36386314
-1.1914761 1.7128756 -0.75511783 -0.9873193 -0.9139642 2.4268978 -0.97372395 -2.0945573
-0.42028838 1.9427309 -0.7314045 -0.10906161 -1.2648474 -3.2137005 -0.36636552 0.85454655
-0.47351545 0.3421285 -0.46939206 2.1596792 0.7154053 1.1439182 0.48927924 1.3211999
-1.7640961 -0.26263604 -2.2694101 -0.7990371 -0.27363735 0.8630758 0.89097726 2.8311357
-0.6144642 4.158096 -1.2870641 -0.058201816 -0.8625651 -1.2320604 -2.7848814 -0.24744433
-0.6980514 -0.145473 -1.9824398 -0.29748398 -2.65574 -0.69796485 -1.1862184 -2.4158666
-1.428736 -0.15330884 0.74495196 0.37129897 -1.2311367 -0.9643472 -1.8199245 -0.29251653
-1.5261133 -0.895286 -0.53683275 -0.55738574 -1.9875938 0.88333446 -1.0053697 -0.13923807
-1.3657179 -0.25485393 0.68522215 2.4769597 -2.656936 -0.8890673 -1.7977567 -2.5105546
-2.0113933 -1.8989921 -1.8312469 -1.306005 -0.110609844 -2.5890865 -2.2011728 -1.736284
-0.43438217 -0.12647149 -2.229174 -0.49411666 0.509353 -1.8823333 -1.4605304 -0.7508382
-1.5595139 0.8544805 -0.34587866 0.1929594 -1.2927356 -0.5052736 -1.6578082 -3.154729
-1.4518074 -0.13645771 0.7832404 -1.5796281 -0.8723406 0.08225748 -1.9382966 -1.1062484
-1.040752 -0.22277127 -0.4822262 0.05280395 -1.7974472 -1.3690957 -2.9452572 -0.44139144

lstm.weight_hh_l0 f4 [256, 64]
00000000: 86b8 8a3e 1a42 193f fbac 6c3f 440e 0fbf
00000010: ea0f 783f 18bf e03d 65f9 563e c7ae 3ebe
00000020: eac8 5c3f 1aa6 25bf 6446 f23d 2431 71bf
00000030: 05b7 27bf 43db e2bd c00c 163f 9c29 8f3e
00000040: ba70 b03e bd53 b7be 0ba5 02bf 010a aabf
00000050: 878a 523f 755d e23e e197 edbf 53e6 6dbe
00000060: 516a 6f3f 8086 21bf 560d e93e eb64 f2bd
00000070: 0c0a cdbe 3e41 52be 3586 88be 015e 833c
00000080: 04e1 6d3f b98d e93e ae43 3ebb b7f9 993e
00000090: 0e73 07bf 9e8f 1abe 842b 153f 5b8a 383e
000000a0: 727d 9abe 5fca 8d3e 6699 ebba 9ac9 42bf
000000b0: 43fb 08bf 7a66 c2be 0815 32bf e454 bc3e
000000c0: e6b3 c53d 5dfe ab3e d0af 493f b0f2 2e3d
000000d0: 2b1d 573d 7a5c 3abe 24ff 11bd 7781 f93e
000000e0: 95a1 033f 49b5 443f 568e e83e b8d3 0ebf
000000f0: 24ba 353f 775c 1a3d 11ff af3e fedf bbbf
00000100: 7db0 f7bc e5f8 603f 27b3 ea3e d61f edbe
00000110: 2df6 ad3f ec3f 983e fe9d 943e b308 463e
00000120: cc77 2c3f adef 72be fd5e 6e3e 090a 27bf
00000130: e1b6 43be a4c7 29bf ad1f b93f a632 29bf
00000140: 0b13 d23e 94b5 8d3b a05a f2be be3a 87be
00000150: b6d5 e53e 6de9 cf3d 7aa5 2ebe 9d22 09bd
00000160: 5888 fb3e 4358 b4bf ad6c 7d3c 32c1 0d3e
00000170: 28a8 da3e cce1 a4bd 6b44 913e 0c80 c83d
00000180: e745 573f 5a20 493e dd98 18bf f197 453e
00000190: 0893 c5be f9e3 283c 31f1 c93e 1fbd 91be
000001a0: e844 0bbf 6d32 0cbe fd66 ccbe 8041 123f
000001b0: 0ab2 05bf 5fbb 3c3e 5cab afbd ea1b 88be
000001c0: c5e1 0dbe 1e46 d03e d29d 543f a1d3 3c3e
000001d0: dde2 46be c78d ff3d 6467 053f 3970 5b3d
000001e0: ba4f 2e3e 0b08 5c3f 941e 6abd e312 bbbb
000001f0: beed 0b3f 1def d63b 3ad8 2d3d f567 4ebe
00000200: 4a94 923e 09fc 35bf 7f7b 873f 4a65 ffbf
00000210: b859 883f e5cb febe 9880 b6be 8253 a7be
00000220: 4132 9f3c 5d01 803d 7dad 29bf cfa3 24be
00000230: 4b0c f6be 65df 083f f667 f83f f90e 89bf
00000240: 524c 0d3f d0a7 173f e0b9 d2bf 3b0a 8bbf
00000250: 5720 8fbe 31ea bc3d 1e09 94bf 27e5 55bd
00000260: 431e a93e ef68 46be b363 f63e e9ea 603f
00000270: 2280 04bf b9f8 82bf 5d06 0b40 affd 5abf
00000280: 7c30 16bf 702b 9f3f 6cb0 353f 67b6 9cbe
00000290: cf8f 6bbe f7ac 16bf e896 08bf 5f8d 723d
000002a0: 2993 de3e 5907 b93f 9eed b7be 5528 433f
000002b0: 706a fbbf b6ee e8be 514d 08bf 4b44 953c
000002c0: 0d8e df3e 6605 f3be 0aa2 9f3f 7d42 76be
000002d0: 2791 cb3e a2c6 bb3e 3063 19bf 2c26 f73e
000002e0: 704c 223f c112 1d40 4439 80be a3a9 fb3e
000002f0: 677a 8d3f ab02 623e e192 2bbf edad c13e
00000300: fadc 973e 757f 09be d0fa 78bf c289 993e
00000310: 141f 70be 3ffa 143f ca08 6c3f 83d1 27bf
00000320: 4190 e7bd ea66 45bf 56db da3f 7138 183f
00000330: 119e 6fbe 1f78 14bc 28e8 21bf dd25 6abe
00000340: 3e10 453f 5735 7bbf 09fe 843f b36a 783f
00000350: e7f7 143f 27c1 c0be 10e1 a2be 362c ca3e
00000360: 99c5 b03f 1352 cfbe 6c3c cabd fac5 0bbf
00000370: c779 e03e d60f 403f d463 a4bf 2200 f33e
00000380: a3ab 0c3f 6022 5bbf 8693 c7bd a87e 013f
00000390: f0dd 923d 8155 b0be 4564 62bf f7fb eebe
000003a0: a651 03bf f7fc b4bf 43b8 8bbe 15ba a1bf
000003b0: 23d3 4b3f 09d9 f03e dc56 dfbe 5b2f 44bf
000003c0: 0d62 2ebf b3a7 7a3f a25e 83bf af93 0a3f
000003d0: 71fd d7be ef93 5abf 1fc3 d5be c3b2 603d
000003e0: be56 2ebf c46c 27bf a932 71bd ebff aebe
000003f0: ac09 d3bf a392 39bf 04cb f73d deb4 5b3f
0.27093905 0.5986649 0.9245145 -0.5588114 0.9689928 0.10973948 0.20993574 -0.1862136
0.8624407 -0.64706576 0.11829832 -0.9421561 -0.6551364 -0.11076977 0.58613205 0.27961433
0.34461004 -0.35806075 -0.51033086 -1.3284303 0.82242626 0.44211927 -1.8561975 -0.23232393
0.935216 -0.63095856 0.45517987 -0.11835655 -0.40046728 -0.205327 -0.26664892 0.016036035
0.9292147 0.45615938 -0.002903204 0.3007333 -0.52909935 -0.15093848 0.58269525 0.18021528
-0.30173832 0.2769346 -0.0017974793 -0.7608887 -0.53508395 -0.37968808 -0.6956334 0.36783516
0.096534535 0.335925 0.78783894 0.042711914 0.05251805 -0.1819934 -0.03564371 0.48731586
0.5141843 0.7683912 0.45421094 -0.5579181 0.70987153 0.037685838 0.34374288 -1.4677732
-0.030235523 0.8787978 0.45839807 -0.4631335 1.3590752 0.2973627 0.29026788 0.19339256
0.67370296 -0.23724242 0.23278423 -0.6524969 -0.19112732 -0.6632025 1.4462792 -0.6609291
0.41030154 0.0043246243 -0.47334766 -0.26412004 0.4488961 0.10151944 -0.17055312 -0.033480275
0.4912746 -1.4089435 0.015467805 0.1384323 0.42706418 -0.0805088 0.2837251 0.09790048
0.8409104 0.19641247 -0.5960825 0.19296242 -0.38588738 0.010308259 0.39441827 -0.284646
-0.5440202 -0.13691111 -0.39922324 0.57131195 -0.5222479 0.18430851 -0.08577606 -0.26583797
-0.13855655 0.40678495 0.83053315 0.18440105 -0.19422479 0.12478214 0.52110887 0.05357382
0.17022601 0.8594977 -0.057158068 -0.0057090386 0.5465964 0.0065592662 0.042442538 -0.20156844
0.2862876 -0.710877 1.0584563 -1.9952786 1.065238 -0.49764934 -0.35644984 -0.326809
0.019433143 0.0625026 -0.6628035 -0.16078113 -0.48056254 0.53465873 1.9406726 -1.0707694
0.5519458 0.59240437 -1.6462975 -1.0862497 -0.2795436 0.09224356 -1.1565282 -0.05222049
0.330309 -0.19375966 0.4812294 0.87858444 -0.51758015 -1.0232154 2.1722634 -0.8554334
-0.5866773 1.2435131 0.70972323 -0.30607912 -0.23004077 -0.58857673 -0.53355265 0.059216853
0.4347165 1.4455367 -0.35923475 0.76233417 -1.9641857 -0.45494622 -0.53242975 0.018221041
0.43663064 -0.47465056 1.2471325 -0.24048801 0.3975918 0.36674982 -0.59916973 0.4827131
0.63397884 2.4542696 -0.2504369 0.4915286 1.1052979 0.2207133 -0.67020994 0.37828007
0.2966078 -0.13427527 -0.9725771 0.29987913 -0.23449355 0.58194345 0.9220091 -0.65554065
-0.11306811 -0.7711016 1.7098186 0.5946112 -0.23400141 -0.009061842 -0.6324487 -0.22866006
0.7697791 -0.98128265 1.0390025 0.9703781 0.5819077 -0.37647364 -0.31812334 0.39486855
1.3810302 -0.40492305 -0.09874806 -0.54598963 0.4384291 0.75024164 -1.2842965 0.4746104
0.54949397 -0.8559933 -0.09744935 0.5058389 0.071712375 -0.34440234 -0.8843425 -0.4667661
-0.5129646 -1.4139699 -0.27289018 -1.2634913 0.79619044 0.47040585 -0.43620956 -0.7663476
-0.68118364 0.9791214 -1.0263255 0.541316 -0.42185548 -0.8538198 -0.41750428 0.05485798
-0.6810111 -0.6540034 -0.058886204 -0.34179625 -1.6487327 -0.72489375 0.12099269 0.85822856

lstm.bias_ih_l0 f4 [256]
00000000: d606 e7bf 8d83 c3bf 3c2d 48bf ff58 0440
00000010: 240c c43f 19b7 0cc0 0dae 83bd 4fcf 0cc0
00000020: ca4c 93bf 3426 e4bf 0bd7 163f 9e3e 87bf
00000030: d753 68bf b046 c4bf 4799 edbe c527 f3bf
00000040: 2d68 edbf b514 873c b073 5440 8a32 1040
00000050: f76b 80be 13ce b4bf d537 f63f 7ed5 bebf
00000060: 51cc eb3f fd38 a53f 0367 b4bf 7cd0 e3bf
00000070: dcad c9bf 6927 afbf fcf5 d43f 1bbc afbe
00000080: 37fd fcbf efa9 c03f d9a2 ddbf 7670 fbbf
00000090: f472 f03b d127 d8bf 4c75 f73e d69c 09c0
000000a0: 1a0a cebf 550e dc3d 4872 d8bf 20bf 0a3f
000000b0: 10f6 3b40 1ea4 5cbf ed68 0740 8cdc 47bf
000000c0: ae7e b4bf 221a f8bf 90ff 1e40 c2f3 d5bf
000000d0: 3724 c3bf 2604 d7bf 2462 d1bf 8ee8 a3bf
000000e0: 015b afbf e2fc 1640 5aca 05c0 2d0f 05c0
000000f0: 5a8f 97bf 2d78 04c0 73e9 debf 6736 0140
00000100: bb28 54bf 5c8d a93d 950e 37bf 429e 78bf
00000110: 6f6e 71bf 0500 04bf caa0 c1be d175 54bf
00000120: fbb7 3bbf 4e05 1bbf c936 8cbe 1c12 21bf
00000130: f498 813e d409 05bf 5101 a4bf da88 13bf
00000140: ea0a 0ebf 9d04 6abf 8614 c33f 42df 1e3f
00000150: 90e0 51bf a233 70bf 78da 173f a85d 7d3f
00000160: 40ab 803e a1e2 74be 6078 1bbf c782 5cbf
00000170: aa5f 0bbf 9281 49bf b77a b6bf abd5 c0bf
00000180: 7b8f e3be 0f24 523e 4840 4ebf 2498 1dbf
00000190: fc3c 53bf 5e2c 2fbf d636 76bf e7bc f5be
000001a0: cffb bebe ef0b 353f 52c7 97bf 5a64 b8bf
000001b0: 5477 09bf 0b11 8fbf b34e 73bf f32a 84bf
000001c0: 7912 05bf 48bd 17bf bd4f 983f 06e2 56bf
000001d0: 9c05 63bf dd59 bcbe f7f2 c0be 4294 7cbf
000001e0: 7c47 94bf 4add 6b3f ecea 0fbf a120 f2be
000001f0: df1f 67bf a2d4 06bf 8005 5abf 3f9d e4bf
00000200: b37d e2be ae8f 5c3e 0841 0fbf 02c3 093f
00000210: f87b 4abe 8b5b fbbc d61b 9d3f 8d5d 18be
00000220: 1334 9b3d 2b96 133d e3b2 e33f 0345 823f
00000230: ccda ccbb 963e 50be 154d 7abe bcee bbbe
00000240: edc3 bb3e 0612 dbbf c27b f63f 14b8 d63f
00000250: fcff 7e3f 68fe e8be 0fdf bc3f b39a 28bf
00000260: 62fe 06c0 4720 953f 1c25 c6be b64a 85bf
00000270: 211b 313e 3c92 6c3e 8130 19c0 d8ce 6d3f
00000280: a7ba 11be b7a9 85bf f231 613d bc35 7fbd
00000290: 7243 123f 3be7 c83e 690c eabf 6a30 20be
000002a0: 1035 713e 8ae6 b0bf 771a bebd 4786 eebf
000002b0: 8b2e 1140 e026 973f b88c cf3f 59dd aabf
000002c0: 918d cbbe eaf1 d83d 318e 8fbf 57b8 373e
000002d0: f824 63be 32fd a4be d338 49be 7491 35bf
000002e0: da80 07bf c993 f5bf 58fb 83be 3c50 f63d
000002f0: 6c1d 5cbf bd6a 69be 5bc1 393e 4612 453f
00000300: 8119 e2bf ba50 1dc0 d69f 19bf d57e 9abe
00000310: b265 babe b896 13c0 5ac1 22bf d5d7 e5bf
00000320: 10de 9abf 3f3b ebbf d320 0cbf 9a9c 52bf
00000330: ccdf a5bf 7b6c b3bf ac70 12bf 1928 cfbf
00000340: f577 ecbf 6163 8a3e 8b1b aa3f a2c3 cd3f
00000350: ce4d a3be c318 c7bf 09d3 953e 84a9 7ebf
00000360: 5141 1c3f 37cf 8c3f b398 b6bf 92f5 3ebf
00000370: eca2 a2bf 9c19 b2bf fe83 9f3f c9f5 48be
00000380: 0593 f4bf 0532 303e 1555 debf 28d3 f2bf
00000390: 4824 c0bf e87d e6bf 1306 143f d1a3 0ac0
000003a0: 32ba c9bf 3fad 81bf 8051 c8bf 0069 873e
000003b0: a875 b43f 1385 85bf 31e2 1140 d035 21bf
000003c0: 5954 b4bf 22a6 dfbf 91f6 643f 1de2 e3bf
000003d0: 6abc e5bf f18f cfbf 244e b8bf 8b8d babf
000003e0: ef8c 04c0 fc05 233f 7ced 00c0 2195 01c0
000003f0: 2092 363d d90f f1bf c029 f0bf 3b3d 1940
-1.8048961 -1.5274521 -0.7819402 2.067932 1.5316205 -2.1986754 -0.06429682 -2.200153
-1.1507809 -1.7824159 0.5892188 -1.0565984 -0.9075293 -1.5334072 -0.46406004 -1.8996512
-1.8547417 0.016489366 3.319561 2.2530847 -0.2508237 -1.4125389 1.9235789 -1.4908903
1.8421727 1.2908016 -1.4093937 -1.7797999 -1.5756183 -1.3683902 1.6637568 -0.343232
-1.9764775 1.505186 -1.7315322 -1.9643695 0.007337922 -1.6887151 0.48331678 -2.1501975
-1.6096833 0.10744921 -1.6909876 0.54197884 2.9368935 -0.8618792 2.1157792 -0.780709
-1.410116 -1.9382975 2.4843483 -1.6715014 -1.5245427 -1.6798141 -1.6358075 -1.2805345
-1.3699647 2.3591847 -2.0904756 -2.0790513 -1.1840622 -2.069835 -1.7414993 2.0189455
-0.8287465 0.08278915 -0.71506625 -0.9711648 -0.94309133 -0.5156253 -0.37817985 -0.82992274
-0.73327607 -0.6055497 -0.27385548 -0.6291826 0.25312006 -0.5196812 -1.2812902 -0.57630694
-0.55485404 -0.9141329 1.5240638 0.62059414 -0.8198328 -0.93828785 0.5931773 0.98971033
0.25130653 -0.23914577 -0.6073055 -0.8613705 -0.54442847 -0.78713334 -1.42562 -1.5065206
-0.44445404 0.20521568 -0.80566835 -0.61560273 -0.8251493 -0.68427074 -0.96177423 -0.47995684
-0.3730149 0.70721334 -1.1857703 -1.4405625 -0.53697705 -1.1177076 -0.9504196 -1.0325607
-0.5198131 -0.59273195 1.1899334 -0.83938634 -0.88680434 -0.3678731 -0.37685367 -0.98663723
-1.1584315 0.92134535 -0.5621784 -0.4729052 -0.90283006 -0.526682 -0.8516464 -1.7860488
-0.44236526 0.21539184 -0.55958605 0.53813183 -0.19773853 -0.0306833 1.227412 -0.14879437
0.07578292 0.036031883 1.7788967 1.0177311 -0.0062516686 -0.20336375 -0.24443467 -0.36705577
0.36672917 -1.7114875 1.9256518 1.6774926 0.9960935 -0.45506597 1.4755572 -0.6586105
-2.1092763 1.1650475 -0.38700187 -1.0413425 0.17295505 0.23102659 -2.3935854 0.92893744
-0.14231358 -1.0442418 0.054979272 -0.062307104 0.57134163 0.39238915 -1.8285037 -0.15643468
0.23555398 -1.3820355 -0.092823915 -1.8634728 2.2684658 1.1808739 1.6214819 -1.33488
-0.39756444 0.105930164 -1.1215268 0.17941414 -0.22182071 -0.32224423 -0.19650583 -0.7092507
-0.52930987 -1.9185725 -0.25777698 0.12027022 -0.85982394 -0.22794624 0.18140166 0.7698101
-1.7664033 -2.4580522 -0.60009515 -0.3017489 -0.36405712 -2.3060741 -0.6357628 -1.7956492
-1.2099018 -1.8377455 -0.54737586 -0.82270205 -1.2958922 -1.4017481 -0.57203174 -1.6184112
-1.8474108 0.27028945 1.3289655 1.6075327 -0.31895298 -1.5554432 0.2926257 -0.9947741
0.61037165 1.1000737 -1.426535 -0.7459346 -1.270597 -1.3914065 1.2462156 -0.1962501
-1.9107367 0.17206581 -1.7369715 -1.897069 -1.5011072 -1.8007174 0.5782177 -2.1662486
-1.5759947 -1.0130996 -1.5649872 0.26447296 1.4098406 -1.0431236 2.2794306 -0.62972736
-1.4088241 -1.7472575 0.8943873 -1.7803379 -1.7948124 -1.6215802 -1.4398847 -1.4574445
-2.071102 0.63681006 -2.014495 -2.024727 0.04457295 -1.8832961 -1.8762741 2.3943622

lstm.bias_hh_l0 f4 [256]
00000000: 1f73 d0bf 60e2 c4bf 19b9 7abf f6bd fc3f
00000010: a7bd bc3f 5a6a 13c0 9f8e e2bd 5325 0bc0
00000020: 0d86 82bf dc59 febf 3855 183f 04ea 86bf
00000030: d463 58bf 211a bbbf fc6f febe 1108 fabf
00000040: 1d54 e1bf 363d 4b3c f317 4e40 d709 1140
00000050: b6c8 82be f5c0 b3bf d796 0040 3c1b c4bf
00000060: 64bb eb3f 2b12 b03f 2f62 a7bf a0cf ebbf
00000070: f782 d9bf ea8e bdbf 516d d03f 4428 99be
00000080: ebed 00c0 2fad b63f f7df dbbf 4cad 01c0
00000090: 9206 373e 157a dcbf 2e14 ba3e e24b 00c0
000000a0: 26ea d3bf e44d 943e 84ac dcbf 5a7c da3e
000000b0: beab 3540 959e 82bf a6c9 f23f 3800 27bf
000000c0: c0d3 b5bf c1da edbf d615 2640 bcf9 d1bf
000000d0: 46c5 d2bf e40e d3bf f981 e3bf 6b40 a9bf
000000e0: 93f8 bcbf c832 1c40 2698 11c0 6c41 febf
000000f0: e31e 92bf a748 05c0 bf65 f8bf 6b11 0140
00000100: 68d3 61bf 4237 e63d 7a50 27bf 8e03 7bbf
00000110: d222 5ebf 90cf 35bf bf52 d7be 731a 60bf
00000120: 4f04 0dbf 29ec 00bf d705 d6be 96c4 27bf
00000130: 2327 593e e747 a4be 10f9 99bf c3fb bdbe
00000140: 3ae5 18bf 85cc 67bf d5ed b03f 2f6f 053f
00000150: 3c57 86bf c695 3ebf f1ca 2b3f 6642 8c3f
00000160: 1628 ac3e c347 80be 2550 febe e131 81bf
00000170: ded2 dcbe 50c5 4fbf 0ff7 b9bf 4be2 b2bf
00000180: 3036 0cbf 937d 9d3e 1714 53bf d4be 05bf
00000190: 828a 62bf a963 29bf dad6 84bf 406c 1dbf
000001a0: 7822 e1be 6070 543f 292d 96bf 2650 b0bf
000001b0: 18a2 f1be f176 84bf 0e7c 64bf 9f33 95bf
000001c0: b7ff 08bf d74b 13bf 258e a13f bccd 6cbf
000001d0: 05d9 33bf de09 b5be 77be 08bf ae7a 5cbf
000001e0: 9d28 acbf e590 5b3f e596 11bf fefa 06bf
000001f0: 3dea 8cbf 88c6 f2be d5d9 4bbf 4b05 d9bf
00000200: a508 acbe 3d36 323d fcc5 05bf 76e1 013f
00000210: 4742 58be 6acd f13c ea41 8c3f 86cb 1cbe
00000220: 14b9 6b3e d288 04be f107 f33f 667f 983f
00000230: 6743 2fbd 1936 48be de56 eabe 182a a5be
00000240: 6df1 533e 809d cebf f54b 0140 af2e e33f
00000250: 1750 963f c630 a5be 2592 cb3f 62c8 1abf
00000260: 8364 fbbf 7012 903f 8535 b4be fe86 90bf
00000270: ff34 0b3e 8488 d73e a556 0bc0 60a3 7a3f
00000280: 7aed 25be 489d 78bf b825 773e 7248 94bd
00000290: 48f9 3a3f 75ad b73e 54ee efbf cd9f 67be
000002a0: 83bc e83d ac94 b0bf 7477 c13d c90d f1bf
000002b0: 05bd 0b40 544d 903f 1f7a c83f 12d2 96bf
000002c0: d01d ccbe dc44 623c 2f9c 97bf 2d7b 3c3e
000002d0: 97ea eebd 6a18 9abe 8139 f2bd df7c 42bf
000002e0: 54d0 ebbe 3310 e3bf c1fa d6be b311 813c
000002f0: 862d 73bf cf4a 42be 102b 123e 806e 313f
00000300: 6bcc d1bf 53d4 16c0 353a 28bf a70e a7be
00000310: f464 a9be fd18 0ec0 a9cb 1bbf 1cc9 e7bf
00000320: 6b38 a6bf 34e5 f7bf d058 16bf dfc6 3ebf
00000330: 507b afbf dba4 abbf 80f3 debe 4162 cebf
00000340: 3635 fabf d50d 6f3e 79ba ab3f 5c73 c93f
00000350: a133 05bf fbf4 bdbf c432 d13e ca1e 80bf
00000360: a95f ff3e c981 a23f efa5 b3bf 7f8d 67bf
00000370: dea0 a8bf 2033 b8bf ebf7 a83f e6e1 abbe
00000380: 72e8 f3bf 4972 6a3b 86d1 dbbf b0c7 fbbf
00000390: d9fc b8bf 18b0 e6bf a72a 013f 1c5b 00c0
000003a0: b172 bcbf 4d0b 98bf 031c dcbf 2482 5d3e
000003b0: cd27 b13f b152 65bf 8dd4 0840 a39a 2fbf
000003c0: d16d a6bf 9ac5 e9bf 9a64 5c3f 5930 d6bf
000003d0: 3e2f ccbf d788 cabf 66ba b5bf 317e b1bf
000003e0: a2e6 01c0 1d22 2c3f d211 fcbf 0aff fdbf
000003f0: 842d a9bd 49ea febf 657c dfbf c53e 1940
-1.6285132 -1.5381584 -0.97938687 1.9745471 1.4745377 -2.3033662 -0.11062359 -2.174153
-1.0197159 -1.9871173 0.59505033 -1.0540166 -0.84527326 -1.4617349 -0.49694812 -1.9533712
-1.7603794 0.012404731 3.2202117 2.2662256 -0.25543755 -1.4043261 2.0092065 -1.5320811
1.8416562 1.3755544 -1.3076838 -1.8422737 -1.6993092 -1.4809239 1.6283361 -0.29913533
-2.0145214 1.4271601 -1.7177724 -2.0262022 0.178736 -1.7224756 0.3634352 -2.0046315
-1.6555831 0.28965676 -1.7240148 0.42672998 2.8386073 -1.0204645 1.8967788 -0.6523471
-1.4205246 -1.8582383 2.5950828 -1.6404338 -1.6466453 -1.6488919 -1.777404 -1.3222784
-1.4763359 2.4405994 -2.2749114 -1.9863715 -1.1415676 -2.0825593 -1.940605 2.016688
-0.88213205 0.11241008 -0.6535717 -0.980523 -0.8677188 -0.7101984 -0.42055318 -0.8754036
-0.550847 -0.5036035 -0.4180133 -0.6553434 0.21206336 -0.32086107 -1.2029133 -0.3710614
-0.5972477 -0.9054645 1.382258 0.5212278 -1.0495372 -0.74447286 0.6710654 1.0957763
0.33624333 -0.2505475 -0.4967052 -1.0093347 -0.4312963 -0.8116045 -1.4528521 -1.3975309
-0.54770184 0.30759868 -0.8245253 -0.52244306 -0.88492596 -0.66167694 -1.0378067 -0.614933
-0.4397161 0.8298397 -1.1732532 -1.3774459 -0.4719398 -1.0348798 -0.8925179 -1.1656379
-0.5351519 -0.575376 1.2621504 -0.92501426 -0.7025302 -0.3535909 -0.53415626 -0.86124694
-1.3449894 0.85767967 -0.5687087 -0.52726734 -1.1008984 -0.47417092 -0.7962926 -1.695474
-0.33600345 0.043508757 -0.52255225 0.5073465 -0.21119033 0.029516894 1.0957615 -0.15312013
0.2301982 -0.12942818 1.8986799 1.1913879 -0.04278889 -0.19551887 -0.457694 -0.32258677
0.20697565 -1.6141815 2.020261 1.7748622 1.1743191 -0.32263774 1.5903975 -0.6046201
-1.9640049 1.1255627 -0.35197082 -1.1291196 0.13594435 0.4209634 -2.1771634 0.9790554
-0.16203871 -0.9711499 0.24135482 -0.0724038 0.73036623 0.35874525 -1.8744607 -0.22619553
0.11364081 -1.3795371 0.09446612 -1.8832332 2.1834118 1.1273599 1.5662268 -1.1782858
-0.39866495 0.013810363 -1.1844538 0.18406363 -0.11665838 -0.3009675 -0.11827374 -0.7597179
-0.4605738 -1.7739319 -0.41988185 0.01575551 -0.9499134 -0.1897385 0.1427424 0.69309235
-1.6390508 -2.3567092 -0.65713817 -0.32628366 -0.33084834 -2.2202752 -0.60857636 -1.8108249
-1.2985967 -1.9366822 -0.5872927 -0.74522203 -1.3709507 -1.3409685 -0.4354515 -1.6123735
-1.9547489 0.2334512 1.3416282 1.573833 -0.52031904 -1.4840387 0.40859044 -1.0009396
0.4987767 1.2695857 -1.4035014 -0.9045028 -1.3174093 -1.4390602 1.3200659 -0.33570784
-1.9055312 0.0035773686 -1.7173316 -1.9670315 -1.4452163 -1.802249 0.5045571 -2.0055609
-1.4722501 -1.1878449 -1.7196048 0.21631676 1.3840271 -0.895793 2.137973 -0.6859533
-1.3002263 -1.8263428 0.86091006 -1.6733505 -1.5951917 -1.582301 -1.4197509 -1.3866636
-2.0297017 0.6723955 -1.9692938 -1.9843457 -0.082606345 -1.9915248 -1.7459837 2.3944561

lstm.weight_ih_l1 f4 [256, 64]
00000000: 0d87 263e 0451 68bf ebf0 173e caac 063e
00000010: 3e8b a53f cdff 293e 695f 903f ada6 363f
00000020: 8d86 703f e18d 95be 36ef ea3e 3e05 c13e
00000030: b731 563f 8244 cfbd fa2c 84bf 8b0b f23e
00000040: a82f cbbe 891e 6bbf 03e0 493e 968f 59bf
00000050: 230d 4a3f 97a5 903c 5927 e4bf dc4b fb3e
00000060: 7fc7 c73e 48ec b5bf a204 443e fd9d 4a3e
00000070: 4d1c 3cbe 3822 903d 6060 e03e d31f 603e
00000080: 93c7 583e 93b7 b73f d936 ff3d 05ea ac3e
00000090: 5081 f8bd 65e4 26bf b18b 933f 67b1 96bc
000000a0: e8ed 80be 9e39 dc3c 78e1 9ebe bce5 f4bc
000000b0: e76d 3dbf 831d 5d3e 834e 2d3e 5cbf ca3d
000000c0: 881c 15be a437 d53e dc68 0ebc 2030 a9be
000000d0: 6962 f63e 31f6 69be 761f ce3c fc4b 5c3f
000000e0: c258 473f 76ba 0cbf 6b33 b73e d746 e3bb
000000f0: d556 993f a19d 35bd 2162 a7be 920c f7bc
00000100: 3b51 3a3f 89d1 49be 6f9b 68bd 0511 4e3e
00000110: 854a 0dbe 18ce 2c3d 9ef7 e73f bcbf 853e
00000120: 4eed 05c0 70c1 3bbe afda 3540 78dc b9be
00000130: 18c1 1840 d81a 9fbd 3546 a2bf 5ae1 173e
00000140: db60 573f fefc c1be 73f3 453f 62a7 983e
00000150: c24f 4540 a90a 28bf fbd1 bcbf 5451 17be
00000160: 2df7 5cc0 412e 403f 9621 6d3e f3d7 a6bf
00000170: f7fb 4ebf d7e3 c0bd 5396 23c0 8095 74bf
00000180: f2da 52be 7496 e1bf 62c3 0f3d 5ee6 5f3e
00000190: eeb2 533f b134 8cbf cc79 83bf 6fec 48be
000001a0: 5296 d73d 1740 763f 9503 bdbe 718b 2fc0
000001b0: 3a47 983e 2a80 2b3f 878b 143f ea00 9b3d
000001c0: babb 30be bba7 f33e 4b0e b83f ece0 003e
000001d0: 6344 cbbd a255 08bf 93fc debe 19b7 ff3d
000001e0: 56c8 31bf a492 cc3e c8f9 103f 9c9b abbd
000001f0: bdd3 43c0 ef63 5cbe 8864 863e 7f54 f43e
00000200: 83ef 393e d371 04bf 7e7c fc3e cda2 c8be
00000210: 0e9d 0140 d08e a23e 621b 7f3f 8d20 983e
00000220: 5bbf 0c3f f8e9 13bf 1fc8 d83d f935 a6bf
00000230: 2574 3fbf f315 eabe 472b 693f dbac afbb
00000240: aa73 05bf cc0f 07bf b6c6 4abf 10ae aabf
00000250: aea1 963e 346f 1b3e 927d cdbf c0c7 8ebf
00000260: 1469 cb3f d221 83bf 4ca4 973e f34f e7be
00000270: e3af e8bd 2b5d b93e c721 6bbd 39b6 223e
00000280: d0e2 d93e 0a51 053f 1eca 8b3d 9537 8c3e
00000290: 81de 1ebf b867 7ebd ef88 db3e 1dd4 14bf
000002a0: ca9d abbe b778 593f 3a35 73be d787 b53e
000002b0: a9ef aabf 77da 39be b1ae aebe 221d 833d
000002c0: ce6d 36bd b523 bb3e 2b73 b83f c9f2 943e
000002d0: cd31 f73d 10c0 adbe ea3e a53e 6c5f 263f
000002e0: d1ea 133c 1e95 903f c815 b73e 8bf3 1ebe
000002f0: 6418 873f 21a8 edbe f62b f23d 75ad 7ebf
00000300: 3b71 0a3e 7cea eebd eb1b 8e3f 11fe e6be
00000310: dbf6 983f aecf 863d d3c2 c93d 9517 10be
00000320: d988 29be bdc5 e6bb 89f6 cdbf 98c4 8abe
00000330: f2d6 ddbe 04ea 05bf 5eba 00be e26d 55bd
00000340: a150 8fbe b458 02bf 3913 d0bf de57 7fbf
00000350: 7bef 41be 8b40 0a3e aaa8 2bbf 4417 02bf
00000360: 291b 0d3f 70dd 85ba a721 923e 59c1 ddbb
00000370: a262 9c3c 4d8f c3be d856 dc3e 1449 4abe
00000380: f56d 7f3e e938 523e cfda 36be 8c8e ac3b
00000390: be20 0ac0 ea5a 14be 5b52 fc3f 258d afbd
000003a0: 69ed cbbc 1f5c 253f 115c 12be b98d d43f
000003b0: e170 28c0 3fd5 37be 1f4b 68bf e152 e93d
000003c0: a227 9b3d 3ec3 dc3c 79ba 2d3f 6e63 70be
000003d0: 1d21 2d3d de47 e13d 4194 823e bb01 bd3d
000003e0: bb3c b6be cfb1 823e 58d1 523c f813 5cbe
000003f0: e592 a83f 5d8e dd3c 230a 3b3d 1473 9e3d
0.16262455 -0.9074862 0.14837997 0.13151851 1.2933118 0.16601487 1.1279117 0.7134808
0.9395531 -0.29209808 0.45885628 0.37699312 0.8366961 -0.10120489 -1.0326226 0.47274432
-0.39684796 -0.9184347 0.1971436 -0.8498472 0.78926295 0.017657084 -1.7824508 0.49081314
0.3901939 -1.4212732 0.19142392 0.1978683 -0.18370171 0.07037777 0.43823528 0.2188714
0.21169882 1.4352897 0.12461633 0.33772293 -0.121340394 -0.6519225 1.1527005 -0.018395139
-0.25181508 0.026882943 -0.31031394 -0.029894702 -0.7399582 0.21593289 0.16924481 0.0989978
-0.14561665 0.41644013 -0.008691993 -0.3304453 0.48121956 -0.22847821 0.025161486 0.8605344
0.7786981 -0.54972017 0.35781416 -0.006935935 1.1979624 -0.04433978 -0.32692054 -0.030157361
0.727802 -0.19708838 -0.056788858 0.2012368 -0.13797958 0.042188734 1.8122442 0.26122844
-2.092609 -0.1833551 2.8414724 -0.36301017 2.3867855 -0.07768792 -1.2677675 0.14832059
0.84132165 -0.3788833 0.773246 0.29815203 3.082993 -0.65641266 -1.4751581 -0.14777118
-3.4525864 0.7507058 0.23157343 -1.3034652 -0.8085322 -0.09418457 -2.55605 -0.9554062
-0.20591334 -1.762404 0.03509844 0.21865222 0.826949 -1.095358 -1.0271544 -0.19621442
0.10526718 0.96191543 -0.36916795 -2.7428858 0.29741842 0.6699244 0.580254 0.07568534
-0.17259112 0.47588906 1.4379362 0.12585801 -0.09925153 -0.53255665 -0.43552074 0.12486095
-0.69446313 0.39955628 0.56631136 -0.083792895 -3.0597985 -0.21522497 0.26248574 0.47720715
0.18157773 -0.5173618 0.4931373 -0.39186707 2.0252109 0.31749582 0.9965116 0.29712334
0.54979485 -0.57778883 0.10585045 -1.2985221 -0.747866 -0.4571987 0.9108166 -0.005361182
-0.52129614 -0.5275848 -0.7920946 -1.333437 0.29420227 0.1517914 -1.6053946 -1.1154709
1.5891442 -1.0244696 0.29617536 -0.45178184 -0.11361673 0.36203894 -0.05740526 0.15889825
0.42555857 0.5207678 0.0682566 0.27386156 -0.62058264 -0.062110633 0.4287791 -0.5813616
-0.3351882 0.8494982 -0.23750773 0.354552 -1.3354388 -0.18149744 -0.34117654 0.06402041
-0.04453831 0.3655068 1.4410146 0.2909148 0.120700456 -0.33935595 0.32274562 0.6498935
0.009028153 1.1295507 0.35758805 -0.15522592 1.0554318 -0.46417335 0.11824791 -0.99483424
0.13519756 -0.11665818 1.110227 -0.45115712 1.1950334 0.065825805 0.09851613 -0.14071496
-0.1655611 -0.007042615 -1.6090862 -0.27103114 -0.43328053 -0.52310205 -0.12571093 -0.052106746
-0.27991202 -0.509166 -1.6255866 -0.9974345 -0.18939011 0.13501184 -0.67054236 -0.5081675
0.5511957 -0.0010213088 0.285413 -0.0067674336 0.01909 -0.38195267 0.43035007 -0.1975444
0.24944289 0.20529522 -0.17856906 0.0052660163 -2.1582484 -0.14487806 1.9712633 -0.08571843
-0.02489348 0.6459369 -0.14292933 1.660575 -2.6318896 -0.1795244 -0.90739626 0.11392761
0.07575919 0.026948567 0.6786266 -0.2347543 0.042267907 0.11000036 0.25503734 0.09228846
-0.3559321 0.25526282 0.012867294 -0.21491992 1.3169829 0.027045423 0.045663964 0.07736793

lstm.weight_hh_l1 f4 [256, 64]
00000000: 23e5 08bf 6679 c43f 28c4 a43c 5a43 023f
00000010: 8a88 fdbe 5efa ccbe 9b09 36be 8224 b03e
00000020: bda7 8cbf 9899 32bf 706b 03bf 4be8 043f
00000030: c278 5f3f 14c5 d83e a057 2f3e be03 953e
00000040: 23ec a7be 3019 2abf 453d cabf f2cd a73f
00000050: b3fc 3dbe 8693 fcbe 004d abbf acb1 36bf
00000060: 3ac6 053f 9a1a 2cbf 9862 12bf eea1 d6be
00000070: d7d9 c9be 7956 f3bf 565c 0abf d5cc 19bf
00000080: f9e4 3cbf 4b53 003e 1cc7 963e 7865 dcbc
00000090: 50d7 d73f 2b11 663e f70b ebbe ec71 383d
000000a0: 5caa ea3e ae1f d23e 4d91 00bf 8cc7 8abf
000000b0: eddc 603d 9577 0abf 6c80 babe 187b b8bf
000000c0: 25c2 02c0 2c54 b63e c89d 04bf 258b 033f
000000d0: 0519 e6be bc8a 4b3e 60f1 8dbe 5349 dcbe
000000e0: 7b84 85bd 2824 83be 6bfe 48bf 665a 3cbf
000000f0: d96d 9abc be91 1a3f f55d 9abf 2a95 e7be
00000100: 5667 94be 68e4 f5be d804 7f3e dcdf 013f
00000110: 741e 723e b80f 93be 50d4 2f3e 2ead 5abf
00000120: 3a6d 093f 5822 9cbd 0d53 33be e549 983e
00000130: f348 a63e f9f2 a2bf 99b1 673e 2223 4e3e
00000140: 43ab e5bd 5c27 7cbf 9c76 a13e 7582 9b3f
00000150: 09ca 5f3d c5b3 513f b41d ef3e b6e2 00bf
00000160: 8ccf 423e face 31bf 7a10 e0be a99b 21bf
00000170: 1466 3dbe 9957 7bbf 407e abbe 84ba 5abe
00000180: 5181 3ebf 7a1c 92be 3915 113e 7061 3fbe
00000190: cac3 1cbf 870e 3b3e 2546 a5bf 0734 8fbb
000001a0: 09f1 09bf dac4 f33d 2ed1 2bbf 1d96 29bf
000001b0: 71be cbbe c466 bcbe cbea 343d 05bc e0be
000001c0: a3b4 39bd b297 823c 935a 673e d1e8 333e
000001d0: 83c3 ec3c e404 d3bd 9903 85be 50d2 2ebe
000001e0: ae76 c9bc 6eae eebe 8feb 53bf b8ac 0fbf
000001f0: f7f1 d5bc 5b02 f33d 2cae ca3c 293d 1cbc
00000200: ff1b 013f 3cdd 7cbd fe63 51be 1082 7e3f
00000210: af90 04bf 2209 f0be 62c4 d4be 531d c03e
00000220: 83f8 46be afb9 5ebf 9f81 1bbf 4cee 823f
00000230: fd33 563e af6c 4abf 353c ea3e 82a6 b83e
00000240: 4bd7 88be 32eb 7dbf 1674 323e 53c6 6f3f
00000250: fdc8 f8be 1557 83bd 46e9 d7be 399c 90be
00000260: 97a8 463f 2f46 89bf 221b 46bf 4360 4dbf
00000270: 871e b7be e577 c0bf 45e0 f3be 06cb 4fbf
00000280: a582 87bf a96e ee3d 4dc7 583e 4ba4 9cbe
00000290: 5193 c6bd 8000 c33e f308 093e e160 e4bd
000002a0: 1f63 123f 51cd b2bd 728c 89bf 1992 d2be
000002b0: 6bf7 533d e0e8 2cbf e230 73be 69c1 5abe
000002c0: 2ee1 a3bf 5aaa 973e 7325 f2be 7e2e 443f
000002d0: 4920 593f a26a 01bf fae0 f4be b86f 3dbf
000002e0: cf79 183e 0f32 61be b34a 9dbf 4636 8dbf
000002f0: 3a44 babd 1384 313f 280f 9dbe e395 d8be
00000300: 6d37 193f b683 82bd 7b46 0bbe eaef 463f
00000310: d3d6 20bd 739c 90be 61b6 e8be 5a96 9f3e
00000320: 724e 9fbf 15e3 49bf 21ed 34bf 0f62 2d3f
00000330: 28cc 043e 9315 f5be 3244 1e3e 9e0c b43e
00000340: 4318 9abe 0daf 49bf 8fee 81bd 810a 813f
00000350: a4f8 13bf 8b55 5c3f cbd2 66bf 73be f93e
00000360: 2ca8 533f f634 2bbf 0de9 1bbf ac34 17bf
00000370: 9bf7 f0be 0f13 63bf c9b6 17bf 0a0d 36bf
00000380: 2adc 2ebf 2067 d53e 4951 153f de5c 09be
00000390: 8a7d 273e eb34 9f3e 7487 59be b06c 80be
000003a0: 080c 693e 1b43 cfbe b2f3 37bf ff95 63be
000003b0: 5a53 953e 92a5 12bf 2da4 dcbe fc21 10bf
000003c0: cd21 9dbf f3a5 bb3e 13a6 67be 9d38 483f
000003d0: 9470 733f a68f 11bf d087 f2be a92f 3abf
000003e0: 8af3 413e 20b9 143e c303 6abf 1444 58bf
000003f0: a24c 583d f454 303f 4106 32bf bf5c a3be
-0.53474635 1.5349548 0.020113066 0.5088402 -0.49518234 -0.40034765 -0.17777102 0.34402853
-1.098869 -0.69765615 -0.5133581 0.5191695 0.87293637 0.4233786 0.1712327 0.29104418
-0.32797346 -0.66444683 -1.5799948 1.3109725 -0.18553428 -0.493313 -1.3382874 -0.71364856
0.52255595 -0.6722809 -0.5718169 -0.41920418 -0.3942401 -1.9010764 -0.54047143 -0.60078174
-0.73786885 0.12531774 0.29448783 -0.026903853 1.6862583 0.22467487 -0.45907566 0.04503052
0.458331 0.41039795 -0.5022171 -1.0842147 0.05489819 -0.5408872 -0.36426103 -1.4412565
-2.0430996 0.35611093 -0.51803255 0.5138419 -0.44940963 0.19877142 -0.27723217 -0.43024692
-0.06519409 -0.25613523 -0.7851321 -0.7357544 -0.018851208 0.60378635 -1.2059923 -0.4523099
-0.2898509 -0.48025823 0.24904191 0.5073221 0.2364443 -0.2872293 0.17170835 -0.854205
0.5368229 -0.07623738 -0.1751215 0.29743877 0.3247753 -1.2730399 0.22626342 0.2013059
-0.11214306 -0.9849756 0.31535804 1.2149187 0.054636035 0.8191493 0.4670235 -0.50345933
0.19024485 -0.69456446 -0.4376257 -0.63128144 -0.18495971 -0.9818054 -0.3349476 -0.21360213
-0.7441607 -0.2853735 0.14168252 -0.18689513 -0.6123625 0.1826726 -1.2912031 -0.004370216
-0.53883415 0.11902781 -0.6711606 -0.6624468 -0.39793733 -0.36797154 0.04416923 -0.43893448
-0.045338284 0.015941475 0.22593145 0.17569281 0.028901821 -0.10303667 -0.25979307 -0.17072415
-0.024592724 -0.46617454 -0.8278131 -0.5612292 -0.026116354 0.11865684 0.024741255 -0.009536066
0.50433344 -0.061734423 -0.204483 0.9941721 -0.5178327 -0.46881968 -0.41556078 0.37522373
-0.19430737 -0.8700208 -0.6074466 1.0228972 0.2091827 -0.7907209 0.4574906 0.36064535
-0.26726755 -0.99187005 0.17427096 0.93661994 -0.48590842 -0.06413094 -0.4217016 -0.28244188
0.77601 -1.0724543 -0.7738515 -0.8022501 -0.35765478 -1.5036589 -0.47632042 -0.81169164
-1.0586745 0.116422005 0.21169777 -0.30594096 -0.09696067 0.3808632 0.1338232 -0.11151291
0.57182497 -0.08730567 -1.0745986 -0.4112709 0.051749628 -0.6754284 -0.23749116 -0.21362843
-1.2803094 0.29622155 -0.47294196 0.7663344 0.8481489 -0.50553334 -0.47827893 -0.73998594
0.14890216 -0.21991752 -1.2288421 -1.1032188 -0.090950444 0.69342154 -0.30675626 -0.42301854
0.598502 -0.06372778 -0.13601105 0.7770983 -0.039267372 -0.2824436 -0.45451644 0.31169397
-1.2445815 -0.78862125 -0.7067433 0.6772775 0.12968504 -0.47868022 0.15455702 0.35165876
-0.30096635 -0.7878273 -0.063443296 1.008133 -0.5780127 0.8606803 -0.90165395 0.48778114
0.82678485 -0.66877687 -0.6090248 -0.59064746 -0.47063908 -0.88700956 -0.59263283 -0.71113646
-0.68304694 0.4168024 0.58327156 -0.13414332 0.16356483 0.3109506 -0.21243078 -0.25082922
0.22758496 -0.40480885 -0.71856225 -0.22225188 0.29165155 -0.5728389 -0.43094006 -0.56301856
-1.227594 0.36650047 -0.22621946 0.78211385 0.95093656 -0.56859815 -0.47369242 -0.72728974
0.18940559 0.14523745 -0.9141199 -0.8447888 0.052807458 0.6887963 -0.6954079 -0.31906697

lstm.bias_ih_l1 f4 [256]
00000000: 9813 20bf 892e 5abf 1625 8ebf 61a6 e2be
00000010: ca92 0cc0 d160 f5be 6970 86bf 32a4 4dbf
00000020: 2ba9 ae3e 8871 a9bf c7ed 36bf 3f19 f3be
00000030: 4bc0 b1bf 4956 58bf a52b 6dbf c7ce 38bf
00000040: 57da 52bf 713d 31be 801e f9bf c207 e63d
00000050: 1c5a 8bbf 3200 a7be c48c d9bd 3a58 aebf
00000060: e822 40bf c29c d8be d16a f9be 3549 0dbf
00000070: e8a1 b4bf 749b 0c3f dd43 11bf b22c 82bf
00000080: 9ed4 aebe 37a9 75bf 4c52 cdbf a210 6cbf
00000090: 39be e3bf 9d4a 79bf c4bc 8ebf c894 bcbf
000000a0: 4897 50bf bc3d 643f b5ff d7be c6d0 4cbf
000000b0: 0ca1 11c0 6899 4ebf 5983 92bf a094 96be
000000c0: 120a 9e3f ceaf a4bf 9f64 a0bf 1090 6ebf
000000d0: 2173 91bf b99c abbf 4a37 f1be e209 65bf
000000e0: 3939 3abf 8318 acbf 9335 90be be7f c7be
000000f0: e24c 9bbf ee5b 36bf 7efd debf 478e 49bf
00000100: d7a4 413f 1275 b1bf c264 e7be 694c 973d
00000110: 9d61 54bf 629a 57be 48c4 13bf e041 38bf
00000120: e7b9 4e3e ef39 5dbf b67e 5cbe 7376 57be
00000130: b37c 55bf 6b64 46bf 576d d5be 935d 47be
00000140: 67ee 70be a8aa 513d 43c1 27bf ac68 8cbe
00000150: 54e3 edbe 565a 2b3f 32d3 823e 08c5 90bf
00000160: 79ea 00bf 1136 7ebe decf 723d cf35 b1bd
00000170: 44f3 58bf 7f65 ae3e 6ee5 0abe a9b0 fdbe
00000180: cc5f f5bd 354c 3bbf 32e5 3ebf e02d 9fbe
00000190: 90bb 7fbf 91d5 0dbf e888 80bf b7f7 4bbf
000001a0: 51c5 24bf 4db3 b2bf 8208 a3bb 464c 403f
000001b0: 0e75 99bf b27f 8abe 9c87 a0be f33d 8dbf
000001c0: fdc6 99be 35c6 3abf 761f 75bf 6623 e9be
000001d0: 94c6 febe 0afd 22bf cd0b cdbc c1e2 d8be
000001e0: 2adf f8be 9286 8abf 1e64 183d d886 abbd
000001f0: 553a dbbe ffca ebbd bc7d 80bf ff7b 31be
00000200: b2e1 9fbe 60ba 18bf 5b1d 8b3e 2b3a 03bf
00000210: 5731 38bf 41a1 923e 1cda ab3e 5fc8 bfbe
00000220: 9178 063f c684 233e 1dd7 703e ee3b 15bf
00000230: 9ebf 00be 9be6 67be 58a2 15bf eefa 2bbe
00000240: 3eae 393d bb93 123f e61d 3bbe 4d09 323e
00000250: 8631 d43e a8a4 85bf 2543 d5be 3c6f 423e
00000260: bb26 07bf 0394 073f cddd 093f ff92 043f
00000270: 862f 73bc c9ab 243f 7787 993e 3c7b f23e
00000280: bc62 f63e 1c37 4abe 6b79 c5bd 74b8 3a3e
00000290: d4ab cc3d 0eec 04bf 7293 bcbe bc86 003f
000002a0: 81b1 96be c5cf 1ebf fbbc 043f aa66 bfbe
000002b0: 07a5 c0be d9ae d93e 2f88 9e3e 100b 21bf
000002c0: 2d14 813e 34d9 d5be f887 ec3e 3c3a 05bf
000002d0: 6a49 e0be 9b77 403d 147b 1b3f ca91 e93e
000002e0: d98d fabe 7107 2fbe bf29 ec3e fef7 1c3f
000002f0: 77b4 103f 275a 033a cf25 163f 6dd0 c13e
00000300: 7748 1cbf 1e2c 3dbf c126 a4bf edd2 06bf
00000310: 6040 84bf b22c 3cbf c15e 85bf a2b3 6abf
00000320: 53b3 57bf 975e bdbf b1e7 27bf 64b0 13bf
00000330: b3ed a8bf 66f6 b1bf a988 77bf 7de2 19bf
00000340: e04d 51bf c71f 23bf f5ba ccbf f4b7 b9bf
00000350: acf2 87bf 5661 65bf 92b0 b8bf 4d05 b7bf
00000360: 41af 76bf ed02 1bbf 5af7 fabe 2e30 0bbf
00000370: e3a5 aabf 0436 1dbc d22b 22bf 31b4 61bf
00000380: a78a 11bf 44a3 64bf ab50 b1bf 918a 60bf
00000390: c943 fdbf 8d9f 98bf 21b9 203d 37c0 babf
000003a0: b1ba 68bf 2cd1 7cbf 8a9d 0cbf b955 9abf
000003b0: c86f 0ec0 c651 32bf 4652 79bf 5408 d5bf
000003c0: 0586 683e b00e 95bf ea34 a6bf c7a7 84bf
000003d0: 9c25 8abf 504f c1bf d8b4 1ebf 4ef2 87bf
000003e0: 9306 5fbf a81f b6bf d4cb debe d232 16bf
000003f0: d281 95bf e8e9 57bf 5f09 d4bf 6b81 60bf
-0.625299 -0.85227257 -1.1105068 -0.44267562 -2.1964593 -0.47925428 -1.0503055 -0.8032867
0.3411344 -1.3237772 -0.7145657 -0.474802 -1.3886808 -0.8450666 -0.9264472 -0.7219052
-0.8236441 -0.17308594 -1.9462433 0.112319484 -1.0886874 -0.32617337 -0.10622552 -1.3620675
-0.7505326 -0.42307097 -0.48714307 -0.5518983 -1.411191 0.549247 -0.56744176 -1.016989
-0.3414659 -0.95961326 -1.604074 -0.9221288 -1.7792426 -0.97379476 -1.1151357 -1.4732904
-0.81480837 0.891567 -0.42187276 -0.80006063 -2.2754545 -0.8070283 -1.1446334 -0.29410267
1.2346823 -1.2866151 -1.2530707 -0.9318857 -1.136326 -1.3407203 -0.47112495 -0.89468205
-0.72743565 -1.344498 -0.28165874 -0.38964647 -1.2132838 -0.71234024 -1.742111 -0.78732723
0.7564215 -1.3863852 -0.4519406 0.07387621 -0.82961446 -0.21054986 -0.57721376 -0.7197552
0.20188104 -0.86416525 -0.21532711 -0.21041279 -0.833934 -0.77496976 -0.41684982 -0.1946929
-0.23528443 0.05118814 -0.6552927 -0.27423608 -0.464625 0.66934717 0.25551754 -1.1310129
-0.50357777 -0.24825312 0.05928027 -0.08652841 -0.84746194 0.3406181 -0.13564083 -0.49548844
-0.119811624 -0.7316316 -0.74568474 -0.31089687 -0.9989557 -0.55404 -1.004178 -0.7967486
-0.6436358 -1.3960968 -0.0049753794 0.75116384 -1.1988847 -0.2705055 -0.31353462 -1.103453
-0.3003463 -0.7295869 -0.9575113 -0.4553482 -0.49760878 -0.63667357 -0.025030041 -0.423605
-0.4860776 -1.0822318 0.037204854 -0.08375329 -0.4281794 -0.11513328 -1.0038371 -0.17332457
-0.3122688 -0.59659386 0.27170834 -0.5126063 -0.71950287 0.28638652 0.33564842 -0.3745756
0.5252772 0.15968618 0.23519559 -0.5829457 -0.12573096 -0.22646563 -0.5845084 -0.16794941
0.045332186 0.5725667 -0.18273124 0.1738636 0.41444033 -1.0440874 -0.4165279 0.18987745
-0.52793473 0.5296022 0.53854066 0.517868 -0.014842873 0.64324623 0.29986164 0.47359645
0.48122203 -0.19747585 -0.09642299 0.18234426 0.09993711 -0.5192269 -0.36831242 0.5020559
-0.294323 -0.6203578 0.5185086 -0.37383014 -0.37625906 0.4251621 0.30963275 -0.62907505
0.25210705 -0.41767275 0.46197486 -0.52041984 -0.4380601 0.046989065 0.6073468 0.4561904
-0.48936346 -0.17092682 0.461256 0.61315906 0.5652537 0.0005010687 0.5865144 0.3785433
-0.6104807 -0.7389544 -1.2824327 -0.526656 -1.0332146 -0.735057 -1.0419542 -0.9168035
-0.84258 -1.4794492 -0.6558791 -0.57691026 -1.319754 -1.390332 -0.966929 -0.6011122
-0.8175945 -0.63720363 -1.5994555 -1.4509263 -1.0620933 -0.8960165 -1.4428885 -1.4298493
-0.96361166 -0.6055134 -0.4901684 -0.5437039 -1.3331875 -0.009595398 -0.63348114 -0.88165575
-0.5685219 -0.89311624 -1.3852743 -0.87711436 -1.9786311 -1.1923691 0.039239053 -1.4589909
-0.9090987 -0.9875667 -0.54927886 -1.205741 -2.2255726 -0.69656026 -0.97391164 -1.6643167
0.22707374 -1.1645107 -1.2984898 -1.0363702 -1.0792727 -1.5102329 -0.61994696 -1.062082
-0.87119406 -1.4228411 -0.43514884 -0.58671296 -1.1680243 -0.8434129 -1.656536 -0.87697476

lstm.bias_hh_l1 f4 [256]
00000000: 0264 f6be 017d 45bf 07df 93bf 2fb1 01bf
00000010: 40d4 08c0 16c4 36bf 1100 83bf 7254 5abf
00000020: bdc7 f43e faa2 b7bf 8ab1 3cbf a9ac 34bf
00000030: 4ab0 a7bf ef08 67bf 9ff5 40bf 3567 0bbf
00000040: cd1e 69bf 6051 f5bd d49a e8bf ae73 0d3e
00000050: ae19 99bf ea5d 9bbe c399 87bd c8be b7bf
00000060: ebd2 5fbf 5047 eebe 7b9c bebe 09b4 dcbe
00000070: 9147 bfbf 9e05 033f b34d 14bf 4674 61bf
00000080: 7f6a 87be eac1 83bf a272 c6bf 8318 84bf
00000090: 94ec dbbf 6268 7cbf c442 87bf d555 a3bf
000000a0: 8c9c 4dbf 7262 623f 6363 c5be 13f8 78bf
000000b0: c9b1 0bc0 0d95 54bf cca4 87bf 0122 93be
000000c0: c2c0 983f b21f a8bf a922 bdbf 0b53 81bf
000000d0: 02e3 90bf 79da a8bf c281 f5be ce32 6dbf
000000e0: b477 62bf 5230 b7bf 9d5e bbbe 9bcb d8be
000000f0: a5b1 a4bf 67cc 48bf ed2e e2bf 6b82 7cbf
00000100: d56d 5b3f 9781 9fbf 0177 04bf 3abe ad3d
00000110: 0977 5abf 6a0e b4bd d317 2dbf d71d 0fbf
00000120: e8b6 0b3e ff2c 57bf 34a6 1cbe dbcd 5ebe
00000130: eebb 60bf 5bf1 57bf efe1 75be eb23 31be
00000140: 9424 9fbe 6b86 bb3c 3f22 44bf 28c8 9bbe
00000150: 1569 13bf 9ee2 083f 633e 373e ab59 99bf
00000160: 675f d7be e178 36be 364b 23be 4d1e e1bd
00000170: 250e 7abf 731c c23e 33b3 9bbe 23d4 f3be
00000180: f55b 493d 0007 39bf 9a80 3cbf a783 c7be
00000190: 0e2c 7cbf 3008 25bf d28a 7fbf 3ce0 6ebf
000001a0: 3398 22bf bc34 a5bf cb43 b6b9 27dd 183f
000001b0: 763d 95bf 53e3 6bbe f1a7 c1be a208 7ebf
000001c0: 38cd cbbe 3676 34bf 910b 83bf 8dec 05bf
000001d0: 9535 c8be d91e 3dbf a664 a7bc b87e d8be
000001e0: c50f 1fbf b535 7cbf 9e27 dc3d 7d56 52be
000001f0: d11a f1be 2d3a 0bbe 738a 5fbf 146c 84be
00000200: 7699 67be 47ed 4ebf 726a 313e 06d7 cabe
00000210: b715 2dbf a85b af3e 5bb2 e43e d8d3 babe
00000220: 52e4 203f e555 6d3e c979 703e 1e59 12bf
00000230: 0760 2cbd e9d0 1cbe c1a7 05bf d8d4 87be
00000240: d446 523e 6299 163f a536 8ebe 3ae1 573e
00000250: 640c a23e be3c 76bf effc 55be ca06 8e3e
00000260: 550f b5be 02e4 083f edb0 1e3f 75d0 063f
00000270: 4e7d 5fbd 9c88 273f ad86 c23e 55e8 a83e
00000280: db04 e03e d45d e5bd b34e d0bd 4323 883d
00000290: 4e4b 593d a22d 0cbf aeac debe d7a2 f73e
000002a0: afd6 8cbe 0d95 02bf e118 093f 3a5f e4be
000002b0: 0547 4abe 4cec ea3e 3887 e33e 2f68 25bf
000002c0: e4f4 a83e aa1f c4be 8724 d23e ace5 08bf
000002d0: cb03 bcbe 3670 783c 41b4 0c3f c711 f43e
000002e0: 11f0 16bf cd10 77be 8d27 1a3f 3509 0f3f
000002f0: 3662 1f3f ac92 48be 1f5c dd3e 3419 253e
00000300: 34ee 15bf cbc2 25bf d2e5 a2bf e42a 08bf
00000310: daf8 81bf 5d8c fdbe 1d15 8abf 1a31 69bf
00000320: feed 43bf df6c adbf 3cbc 3abf afe6 13bf
00000330: 2d63 b8bf a632 9dbf 6f13 58bf 3ad4 1cbf
00000340: f660 61bf b232 dfbe 7c86 d1bf 6e7d b0bf
00000350: 67d8 9abf 31ad 6fbf 73c0 bdbf 4ea9 a6bf
00000360: 83fa 6cbf 1f3c 14bf fb39 ebbe 040a e1be
00000370: 2e61 b1bf a52f 2c3d 1cd4 0bbf a5dc 81bf
00000380: ebc3 e0be 42e5 83bf bb15 b4bf 5bcf 75bf
00000390: 5c8f f7bf c160 84bf be00 e33d 0cb1 c3bf
000003a0: 3f6c 5abf ecbb 4abf 9370 debe 952b 8dbf
000003b0: a815 09c0 59a0 3fbf 378b 72bf 4e72 edbf
000003c0: 7c23 b23e fef0 b1bf 9548 b3bf 4779 7ebf
000003d0: 069d 8bbf 67b6 b1bf a7a9 2ebf 8cd5 5bbf
000003e0: 3b07 6abf 082c a9bf 8fa0 96be c018 02bf
000003f0: e576 a2bf d45a 52bf 4a87 ddbf e308 82bf
-0.48123175 -0.77143866 -1.1552438 -0.50660986 -2.1379547 -0.71392953 -1.0234395 -0.85285103
0.47808638 -1.4346611 -0.73708403 -0.7057596 -1.3100674 -0.90248007 -0.7537479 -0.54454356
-0.91062623 -0.11978412 -1.817225 0.1381366 -1.1960962 -0.30345088 -0.066211246 -1.4355097
-0.8743121 -0.46538782 -0.3722876 -0.43106106 -1.4943715 0.51180446 -0.5793106 -0.88068044
-0.26448438 -1.0293553 -1.5503733 -1.031998 -1.7181573 -0.98596776 -1.056725 -1.2760569
-0.80316997 0.88431466 -0.3855239 -0.9725353 -2.1827261 -0.83039933 -1.0597167 -0.2873688
1.1933825 -1.3134673 -1.4776202 -1.0103468 -1.1319277 -1.3191673 -0.4795056 -0.92655647
-0.884639 -1.4311621 -0.36595622 -0.4234284 -1.2866713 -0.78436893 -1.7670571 -0.986365
0.85714465 -1.2461423 -0.51744086 0.084835485 -0.85337883 -0.08791812 -0.6761448 -0.55904907
0.13643992 -0.84053034 -0.15297776 -0.21758215 -0.8778676 -0.84352654 -0.24011968 -0.17298858
-0.31082594 0.022891244 -0.76614755 -0.30426145 -0.5758222 0.5347079 0.17894892 -1.198049
-0.42064974 -0.17819549 -0.1594666 -0.109921075 -0.9767783 0.3791233 -0.30410156 -0.47622785
0.049159963 -0.72276306 -0.7363373 -0.3896763 -0.9850472 -0.6446562 -0.998212 -0.93310905
-0.6351349 -1.2906718 -0.00034764255 0.5971245 -1.1659381 -0.23035936 -0.37823442 -0.9923192
-0.39805007 -0.70492876 -1.0237905 -0.5231407 -0.3910338 -0.73875195 -0.020433735 -0.4228418
-0.6213344 -0.9851945 0.10749744 -0.20540805 -0.47090772 -0.13596411 -0.8732063 -0.25863707
-0.22617134 -0.80830806 0.17325762 -0.39617175 -0.6761126 0.34249616 0.44667324 -0.3648975
0.6284839 0.23177297 0.23483957 -0.5716723 -0.042083766 -0.15314068 -0.522091 -0.26529574
0.20534831 0.58827794 -0.27776065 0.21082011 0.31650078 -0.96186435 -0.20897268 0.27739555
-0.3536326 0.5347291 0.6198872 0.5266183 -0.05456286 0.65442824 0.37993374 0.32989755
0.43753704 -0.11199537 -0.10171261 0.06647351 0.05305033 -0.5475713 -0.4349112 0.48366424
-0.2750754 -0.51008683 0.5355359 -0.44603902 -0.19753654 0.45883405 0.444391 -0.64612097
0.32999337 -0.38305408 0.41043493 -0.5347545 -0.36721644 0.015163472 0.54962546 0.47669813
-0.5896006 -0.24127503 0.602166 0.55873424 0.62259233 -0.19587201 0.43234345 0.16122895
-0.58566594 -0.64750355 -1.2726386 -0.53190446 -1.0154068 -0.4952115 -1.0787693 -0.9109055
-0.7653502 -1.354885 -0.7294347 -0.5777387 -1.4405266 -1.2281082 -0.84404653 -0.6126133
-0.88038576 -0.43593365 -1.6369166 -1.3788278 -1.2097291 -0.93623644 -1.4824356 -1.3020418
-0.9256975 -0.5790424 -0.45942673 -0.43952954 -1.3857782 0.042037625 -0.5462053 -1.014546
-0.43899474 -1.0304339 -1.4069132 -0.96019524 -1.9340625 -1.0342027 0.11084126 -1.5288405
-0.8532142 -0.79192996 -0.43445262 -1.1028925 -2.1419468 -0.74854046 -0.94743675 -1.8550508
0.34792697 -1.390167 -1.4006525 -0.99403805 -1.0907295 -1.388379 -0.6822762 -0.8587272
-0.9141728 -1.3216562 -0.2941937 -0.50819016 -1.2692534 -0.8216984 -1.7306912 -1.0158962

linear.weight f4 [1, 64]
00000000: a655 003e 34cd 113f 2825 c33d 8128 edbd
00000010: bc97 e7bd e912 cf3e 5a02 8b3c cccd 5d3d
00000020: 7961 3b3d b37a b93d 18f5 843e 39ea 67be
00000030: 8efb 633d 7a3c 2c3d 7bbb 1bbe eb98 7bbe
00000040: 9e8a 173e 7670 923d 97d8 73bd 2e46 bf3c
00000050: 3986 113c 5d1e 89ba 09b8 913b b3fb 3a3d
00000060: dfca 29bd d034 ee3d e3f3 1c3e 939b 6c3e
00000070: 45bd 61be 0472 343e d7a4 c23e d6b2 203c
00000080: 5ee8 ec3d 6b2f 213e c6d5 39be 71c6 903d
00000090: a894 993d d0f2 a43d 1b3a e6bb 070e 3e3e
000000a0: abd5 58bd f8b2 913d d59a b33d 2129 223d
000000b0: b52c 343d 29eb 003e cd27 47bb 8c0a f5bc
000000c0: 5ca7 68bf 66f2 89bd 5aab b5bc f71c 1dbd
000000d0: da31 233c 14a0 1ebc 3b4c 8a3e 2c9f be3b
000000e0: 0a58 35bb aec0 1c3e bb35 a13d 809e 8c3d
000000f0: 3e31 9e3e 541a adbe e36c e1bd 7ebb 953e
0.12532672 0.5695374 0.09528571 -0.11579991 -0.11308238 0.40444115 0.016968895 0.05415134
0.045747254 0.09056606 0.25968242 -0.22647943 0.055659823 0.042049862 -0.15208237 -0.24570052
0.14798972 0.071503565 -0.059532728 0.023348894 0.008882099 -0.001046132 0.0044469875 0.045650195
-0.04145324 0.11631167 0.1532741 0.23106222 -0.22044857 0.17621619 0.38016388 0.009808263
0.11567758 0.15740745 -0.18147954 0.070691 0.07499057 0.08054125 -0.0070259697 0.18560039
-0.052938145 0.07114214 0.08769766 0.039590005 0.04398795 0.12589706 -0.0030388713 -0.029912256
-0.9088037 -0.06735687 -0.022176433 -0.0383577 0.009960616 -0.00968172 0.27011284 0.0058173146
-0.0027670884 0.15307876 0.078715764 0.06866169 0.30896944 -0.3380915 -0.110070966 0.29244608
