utils/model_mse.pth (torch, 802964 bytes, 9 tensors)

lstm.weight_ih_l0 f4 [512, 2]
000000 4e f3 10 3f db 37 06 c0 f8 16 b3 bf ed 94 74 bf
       0.56621253 -2.0971591 -1.3991385 -0.9553974
000010 fc 32 3e bf c8 bd 41 bf a0 68 13 bf ca c3 73 bf
       -0.74296546 -0.7568021 -0.5758152 -0.95220625
000020 0c e7 74 bf b3 88 4b bf 67 cc 41 3e e1 ef a1 be
       -0.9566505 -0.7950546 0.1892563 -0.31628326
000030 ec a0 9d bf 1b eb 01 c0 1d 75 a1 3d 32 5f 2e bf
       -1.2314734 -2.0299747 0.07883666 -0.68114007
000040 84 dc 0c 3d 6a 50 a3 bf a9 c6 7f 3c 69 7e f4 bf
       0.034389988 -1.2758915 0.015611329 -1.9101077
000050 d8 d5 c9 3e d3 5a ab 3f 9e ba 45 be f4 0f 83 bf
       0.39420962 1.3387092 -0.1930947 -1.0239244
000060 03 54 7f bf 4f 47 95 bf 89 6e 29 bf 92 4a 13 bf
       -0.99737567 -1.1662387 -0.6618429 -0.5753566
000070 b5 33 99 bc 4d 27 3a 3f d5 0c 67 be da 0c 8d bd
       -0.018701414 0.7271622 -0.22563489 -0.06887217
000080 ab 1a 42 bf 2a 77 bc bf c9 ec a4 bf 20 03 4b bf
       -0.7582194 -1.4723866 -1.2884761 -0.79301643
000090 8f d0 56 bf 0d 7e 96 bf 96 30 84 3e 5b 6b c3 bf
       -0.83911985 -1.1757218 0.25818318 -1.5267137
0000a0 a4 04 f0 be 3d 4f ae bf 59 15 a7 bd f2 7a 9c bf
       -0.4687854 -1.3617932 -0.081583686 -1.222502
0000b0 8c b7 3e bf 7a 6f 8e bf e7 89 38 bf 6c 30 af be
       -0.7449882 -1.112777 -0.7208542 -0.3421663
0000c0 03 56 4f bf 64 dd a3 bf bf 1a 23 bf ab 4f 9b bf
       -0.8099062 -1.2801938 -0.63712686 -1.2133688
0000d0 87 36 b1 3e 96 5c 6f bf 18 65 97 be 6f bc 4b bf
       0.34611914 -0.9350065 -0.29569316 -0.795844
0000e0 72 2f 4e bf 4a f1 c7 bf 7d 4d 1d bf b5 cc a6 3e
       -0.80541146 -1.562051 -0.6144636 0.32578054
0000f0 15 7b 10 3f 3d 70 cb bf dc 8c 8d bf 4d b7 7c bf
       0.5643781 -1.5893627 -1.1058612 -0.98717195
000100 a9 af e2 be bd af cc bf 73 d2 2d be 5c 4b eb bf
       -0.44274643 -1.5991131 -0.16974811 -1.8382373
000110 43 78 7a 3b c6 81 04 bf fb 06 88 bf 89 79 eb be
       0.0038218654 -0.5176052 -1.062713 -0.4599116
000120 c7 1b 56 bf 30 27 73 bf 81 6a dc 3e 81 ce 45 3f
       -0.83636135 -0.9498167 0.43050006 0.77268225
000130 2a ba d3 be 92 7d b0 bf ca 16 23 3f 70 c9 c8 3e
       -0.4135297 -1.3788321 0.6370665 0.39216185
000140 45 87 33 bf 7b 0d 47 bf ec 8b 88 bf 18 8a 3f bf
       -0.7012828 -0.77754945 -1.0667701 -0.7482009
000150 c0 3a 7e bf ac f6 71 bf 39 d1 64 bf 6a 54 80 3e
       -0.99308395 -0.94517016 -0.8938175 0.25064403
000160 18 b0 10 bf b2 82 81 bf 18 f3 7f bf a5 c7 8b bf
       -0.565187 -1.011801 -0.99980307 -1.0920302
000170 ff 9e 69 bf da fc 6e bf e2 07 2d bf a9 c3 12 bf
       -0.91258234 -0.9335457 -0.67590153 -0.57329804
000180 ed cc 78 bf ea b4 07 c0 b7 6b 71 bf 5c a3 5b be
       -0.9718769 -2.120417 -0.94304985 -0.21449035
000190 14 5a be bf 46 92 e5 bf a6 9b 28 bf 86 25 90 be
       -1.487124 -1.7935264 -0.658625 -0.28153628
0001a0 2a 66 31 bf df 30 64 3f 7c d9 11 bf 87 34 82 bf
       -0.69296515 0.8913707 -0.5697248 -1.017228
0001b0 45 79 f4 be 84 ef 84 bd 87 e6 d1 be 0a 9f 42 bf
       -0.4774877 -0.064909965 -0.4099619 -0.76023924
0001c0 65 e5 87 bf 69 d4 91 be c4 71 59 bf c5 00 ae bf
       -1.0616881 -0.2848237 -0.8493922 -1.3593985
0001d0 b0 bd ac be 29 9f 87 3e 37 35 4c bf 58 d9 e2 be
       -0.3373847 0.26488617 -0.797687 -0.44306445
0001e0 39 35 54 bf 18 fa 0a c0 8b 35 a6 bf a1 75 6a bf
       -0.8289371 -2.1715145 -1.298509 -0.9158574
0001f0 6a 17 45 bf f6 aa 9a be f9 1a 82 bf 9a e5 87 bf
       -0.7698885 -0.30208558 -1.0164481 -1.0616944
000200 3e 1d 3d bf a0 be d6 be 7d 80 0d bf f7 06 7b bf
       -0.73872745 -0.4194231 -0.5527418 -0.980575
000210 c1 1d c7 be 14 fc a6 bf e4 8d 91 bf 8b 90 fb bf
       -0.38889888 -1.3045678 -1.1371427 -1.9653486
000220 cb c8 aa be 0f 26 81 bf 76 f4 29 3f 9b d0 e1 bf
       -0.33356318 -1.008974 0.6638864 -1.7641786
000230 c8 98 49 bf 88 62 02 bf 0b b5 85 3e 49 52 9c bf
       -0.7874875 -0.50931597 0.26114687 -1.2212611
000240 11 30 11 bf c4 e1 03 3f 2b 59 7d bf f8 71 a7 bf
       -0.5671397 0.51516366 -0.98964185 -1.3081656
000250 89 79 57 bf 97 e7 d9 be 06 16 85 3b 4a 74 f5 bf
       -0.8416982 -0.42559502 0.0040614633 -1.9176114
000260 ef f9 85 bf 78 4e 9e bf cb 7d 71 bf 54 63 9d bf
       -1.0466899 -1.2367697 -0.9433257 -1.2295938
000270 fc 46 4e bf 38 ee 42 3e 20 de 99 bf a3 4b 26 bf
       -0.80577064 0.19036186 -1.2020912 -0.6495916
000280 62 1a 48 3f b8 c2 f9 bf e3 0a 5c bf a5 92 0d c0
       0.78165257 -1.9512548 -0.8595411 -2.2120755
000290 56 4e 1c 3e 1a 4d 66 c0 82 b3 11 bf 54 24 3e bf
       0.15264258 -3.598456 -0.5691453 -0.7427418
0002a0 d4 bb 14 bf e8 01 97 3e fd 89 4a bf ed 0b a3 bf
       -0.580991 0.29493642 -0.79116803 -1.2738014
0002b0 52 d0 96 bf 23 81 b4 be ba e4 6f bf 42 02 95 bf
       -1.1782324 -0.35254773 -0.93708384 -1.1641314
0002c0 8c 8d 91 bf c6 80 b4 be cc 26 91 bf 61 97 0e bf
       -1.1371322 -0.35254496 -1.1339965 -0.55699736
0002d0 09 22 25 3e 27 ef 10 bf f5 68 8a bf ba c1 2d bf
       0.16126265 -0.5661492 -1.081328 -0.6787373
0002e0 4c 6f ab bf b1 7a a2 bf 34 00 89 bf cf 4b 71 be
       -1.339334 -1.2693692 -1.0703187 -0.23564075
0002f0 18 d6 47 3f 33 66 dc bf d5 85 45 bf 88 77 0e 3e
       0.78061056 -1.7218689 -0.77157336 0.13912785
000300 6b a0 52 bf 68 09 21 c0 e5 e6 57 bf 43 df 1f bf
       -0.8227603 -2.516199 -0.8433669 -0.62450045
000310 f8 a4 47 bf a2 03 f4 bd 7d 4b 41 3f 8b 91 93 bf
       -0.779861 -0.119147554 0.7550581 -1.1528791
000320 64 5a c2 3e 87 2f f2 be f7 58 d7 bd 90 1a cb be
       0.37959588 -0.47301885 -0.105150156 -0.39668703
000330 fa 3d 2a bf e8 fe 80 be 08 1e 53 bf 3b dc 97 be
       -0.6650082 -0.25194478 -0.824677 -0.2966021
000340 00 ec 43 be 70 49 59 c0 45 c7 df bd cf 5c a9 bf
       -0.19132996 -3.3951073 -0.109266795 -1.3231448
000350 d3 82 61 3f 86 ef 09 bf c9 61 94 3e ce ca 81 3d
       0.88090247 -0.5388111 0.28980854 0.0633751
000360 92 ef 90 bf 81 1b 05 bf 65 91 3e 3f d9 d0 42 3f
       -1.1323111 -0.5199509 0.74440604 0.76099926
000370 f9 b8 a3 bf 39 c2 9a bf b2 35 2a bf 79 d1 d1 3e
       -1.2790824 -1.2090522 -0.6648818 0.40980127
000380 e9 4f 53 bf 77 20 84 bf 3a 76 ec be 8b 9b a2 bf
       -0.8254381 -1.0322407 -0.4618395 -1.2703718
000390 52 7a ae bf 20 97 3e bf 01 8b 26 3e 6d 8c c0 bf
       -1.3631079 -0.7444935 0.16263963 -1.5042855
0003a0 a2 39 28 3f 29 71 25 bf 80 82 21 be 78 b9 89 bf
       0.6571294 -0.64625794 -0.15772438 -1.0759726
0003b0 0e 49 f4 be d4 d0 03 bf c6 9d 46 bf e2 31 7e bf
       -0.47711986 -0.5149052 -0.77584493 -0.99294865
0003c0 00 8d c7 bc 41 54 b9 3e 9d ea 82 bf 54 38 8f 3d
       -0.024359226 0.36197093 -1.0227848 0.069931656
0003d0 44 38 89 bf 18 80 aa bf b6 52 84 bf 26 48 f6 bf
       -1.0720296 -1.3320341 -1.0337741 -1.9240768
0003e0 ca 7f 75 bf 59 2c 63 c0 81 66 45 bf bb 3b 9b bf
       -0.95898116 -3.5495818 -0.77109534 -1.2127603
0003f0 42 16 56 bf 65 ba 78 c0 be 19 95 bf 86 e8 22 bf
       -0.8362771 -3.8863766 -1.1648481 -0.6363605

lstm.weight_hh_l0 f4 [512, 128]
000000 3f 96 80 bf fb 9c df be 54 86 49 3e b3 8e c7 be
       -1.0045851 -0.43674454 0.19680148 -0.38976058
000010 10 95 e1 3d aa 6e 3a 3f 15 d5 65 3f 9d 84 16 3e
       0.110147595 0.7282511 0.8977826 0.14699025
000020 91 31 64 be c6 30 09 3f 2c ea 19 3f 74 a6 df 3e
       -0.22284533 0.5359005 0.6012294 0.4368168
000030 47 9c e2 be 96 f8 5a be 06 ac 0f bf 0c 64 3f 3f
       -0.44259855 -0.2138389 -0.5612186 0.74762034
000040 8a d1 86 3c b1 0d 06 bf 3d ae 1e be b8 0e b6 3e
       0.016457338 -0.5236464 -0.15496154 0.35558105
000050 9a ef 20 3e 04 a1 03 bf 99 88 95 3e 57 64 29 bf
       0.157164 -0.51417565 0.29205778 -0.6616873
000060 b8 38 45 bf 3d 3f 62 bf 2f 16 ff be 75 fd d0 3e
       -0.7703967 -0.88377744 -0.49821612 0.40818372
000070 7f 4e c3 3e 87 56 cf be b9 1d 1f bf ec be 77 bd
       0.38145825 -0.40495703 -0.6215473 -0.06048481
000080 8d 3b 7b 3e 71 e0 83 be 5e 44 79 be fc 29 f3 3d
       0.24534436 -0.25757173 -0.24342486 0.11873242
000090 d3 cc 43 bf 3d 97 c5 be 0a ad 66 be ee ad 25 3f
       -0.7648441 -0.38591948 -0.22526947 0.6471852
0000a0 42 99 3a 3f 1d e8 c4 3e 6a d1 0f bf e0 0f 08 bf
       0.728901 0.38458338 -0.56178916 -0.53149223
0000b0 7d f5 68 be 65 70 ae 3e a4 8f c3 3e 4a a6 57 bf
       -0.22749896 0.34070125 0.38195527 -0.8423811
0000c0 17 3f 8a 3f 19 c1 76 bc 66 de ed bd 50 ac 6e bf
       1.0800503 -0.0150606865 -0.11614685 -0.9323168
0000d0 e5 e6 8a 3e d6 30 07 bf a1 89 b1 be 31 50 61 be
       0.27129284 -0.5280889 -0.34675315 -0.22003247
0000e0 75 33 7e bf 67 f1 fd 3d b2 e5 76 3e 27 1a 51 3f
       -0.9929727 0.123995595 0.2411106 0.8168053
0000f0 a4 32 30 3f f9 bc 5c 3e 10 b6 62 3f 8c b5 eb 3e
       0.6882727 0.21556462 0.88559055 0.46036947
000100 0e 1a 2c 3f 81 6f d3 be 64 e0 66 bd c0 71 30 3f
       0.67227256 -0.41296008 -0.05636634 0.6892357
000110 d4 c6 0b 3e d7 28 72 3e 8b 55 7d bf d0 b8 e4 3e
       0.13650066 0.23648392 -0.98958653 0.4467225
000120 d9 27 40 be 6c 7e ba 3e 42 5b e4 be 8d fd 6e 3e
       -0.187652 0.36424577 -0.44600874 0.2333891
000130 5b 38 f9 3e 7e 7e ab be 55 73 1b 3e 3c 91 9e be
       0.48675808 -0.33494943 0.15180714 -0.3097018
000140 36 0a 99 3f 72 3b 45 bf bb 23 7b 3f 2e 41 47 3e
       1.1956241 -0.7704383 0.98101395 0.19458458
000150 9f f7 59 3c 1e 39 18 bf 89 7b 22 be b6 ae 6d 3e
       0.013303666 -0.59462154 -0.15867437 0.23211178
000160 18 6b 71 bc da c9 28 bf 8a de 01 bf 05 a0 b5 3e
       -0.014735006 -0.65933 -0.5073019 0.35473648
000170 cf 23 e4 3e c3 d1 17 bf 77 a8 37 bf 84 b5 33 3f
       0.4455857 -0.59304446 -0.7174143 0.70198846
000180 74 2c 56 bf 55 28 62 3e e6 0d 36 be 83 03 5d bd
       -0.8366158 0.22085698 -0.1777874 -0.053958427
000190 fd 2c cb be ee 77 47 3e f3 6b fe be c4 c7 14 3f
       -0.3968276 0.19479343 -0.49691734 0.5811732
0001a0 9e 48 00 bf d6 79 6d bd f2 d9 ed be c1 f2 9b bc
       -0.50110805 -0.05797752 -0.46455342 -0.019036653
0001b0 3e 90 56 3f fd 40 00 3f 68 ea ed 3d f2 ac 7f 3e
       0.83813846 0.50099164 0.11616975 0.24968317
0001c0 80 ab 4f be 1a c9 0c bf 98 fc 79 bd 69 8f 90 be
       -0.20280266 -0.54994357 -0.061031908 -0.28234413
0001d0 15 dd 03 bf 57 75 ab bd 38 52 ab be c1 63 12 3f
       -0.5150922 -0.0837199 -0.33461165 0.5718346
0001e0 9e 6a b5 3e aa 3c 64 bf bb 37 00 bf 61 ef 3b bf
       0.35432905 -0.89155066 -0.5008504 -0.7341214
0001f0 25 66 2d be 4a ae 9d bf 54 ca 19 3d 98 25 85 3d
       -0.16933496 -1.2318814 0.03754647 0.06501311
000200 d2 20 1a 3f 03 b9 a4 bd 4e 01 3f be ac a8 48 3e
       0.6020633 -0.08043101 -0.18652841 0.19595593
000210 8b f4 04 3e 81 e1 5f be d5 ac 15 be 6c 20 82 3e
       0.1298391 -0.21863367 -0.14616711 0.2541536
000220 42 b7 34 3f 6f 16 2c bf 36 52 ba be b0 6e 2d 3e
       0.7059213 -0.6722173 -0.36390847 0.16936755
000230 0d cb dc 3d ac f8 52 3d e9 1a 2c be 34 71 15 3e
       0.10780916 0.051506683 -0.1680714 0.14593965
000240 7a 70 84 3d 86 78 a1 3c 4f 94 8c 3e 1e f8 43 be
       0.06466766 0.01971079 0.274569 -0.19137618
000250 f9 04 b4 be 10 14 e7 3e e9 15 a5 be 0f 8a 50 be
       -0.35160044 0.45132494 -0.3224328 -0.20365165
000260 06 b2 e5 bc b9 d1 d9 bd ac 78 83 3e 58 0b 55 be
       -0.02803899 -0.106357045 0.25678003 -0.20805109
000270 d0 f2 a1 3e 51 08 0c 3c bb 5f 37 3e 16 aa 3f bd
       0.31630564 0.008546905 0.17907612 -0.046793066
000280 ac 87 6d 3d 8a b4 dc 3e d3 a5 a3 3e d9 f7 15 3d
       0.057990715 0.4310649 0.3196245 0.03661332
000290 77 e1 47 3e 47 45 00 3e 67 74 ec 3e 0b 05 6a be
       0.19519602 0.12526427 0.46182558 -0.22853486
0002a0 5d 39 9e bd 39 6c 12 bd 27 27 8e be 1c 1b d2 3e
       -0.07725785 -0.03574774 -0.27764246 0.41036308
0002b0 a0 87 c3 3d df 75 2f be 87 a1 c1 3e ac 9b 11 be
       0.09547353 -0.17134808 0.37818548 -0.1421954
0002c0 50 f0 03 3d 78 72 12 3e 55 68 6a 3e 9c 83 0c 3e
       0.0322116 0.14301479 0.22891362 0.1372208
0002d0 56 1f 8d be 60 44 39 3e 3d 57 ba 3e d4 20 21 3f
       -0.2756297 0.18092489 0.36394683 0.62940717
0002e0 ff 61 2d 3c 60 59 71 be 56 8b f2 be 63 2c 16 3e
       0.010582446 -0.2356925 -0.4737193 0.1466537
0002f0 ee c8 ef be 01 50 66 3c eb 5a 1b be ff b7 d3 bd
       -0.46832985 0.01405716 -0.15171401 -0.10337829
000300 86 b9 cd 3d eb 1f 74 3e 94 05 22 3f d8 00 50 be
       0.100451514 0.238403 0.6328976 -0.20312822
000310 3c 97 e6 be db 72 4e be 2b d6 82 be 81 2c c4 be
       -0.45037258 -0.20161001 -0.25554022 -0.38315204
000320 e6 eb 9f be c6 1b 39 3c 20 7d 07 be 5e 92 9e be
       -0.31234664 0.011298126 -0.13231325 -0.30971044
000330 7c aa 08 3e b5 1c 0b be 94 23 c1 3e 62 58 72 3e
       0.13346285 -0.1358517 0.37722456 0.23666528
000340 20 cd a1 be 99 4c 1c 3e 65 35 26 bf 03 5e 0b bf
       -0.3160181 0.15263595 -0.64925224 -0.54440325
000350 34 db 57 3e 31 53 ac 3d 16 e6 b0 bd 57 d5 a5 bd
       0.21079713 0.08414305 -0.086376354 -0.08097332
000360 3c c4 17 3e f5 22 29 3d 75 87 e2 3e 8a fe 1a bb
       0.14820951 0.041293103 0.4424397 -0.0023650252
000370 c3 ff fc bc 93 e9 19 be 6a e9 56 bc b4 b7 da bd
       -0.030883675 -0.15030508 -0.013117174 -0.1067957
000380 73 29 74 3e 21 25 6a 3d 63 67 2b 3e bc 38 f0 bd
       0.23843937 0.057164315 0.16738658 -0.11729571
000390 6a ee 09 3e 14 c4 9b be bd e3 1c 3d 45 6e d8 bb
       0.13469854 -0.30423033 0.038303126 -0.006604942
0003a0 22 8c 7c 3e f1 73 df 3e 44 22 76 3e 3f 32 8b 3e
       0.24662831 0.43643144 0.24036509 0.27186772
0003b0 48 9c e6 3d ae d8 c7 be 05 37 39 3e 61 a6 a2 3e
       0.11260277 -0.390325 0.18087395 0.31767562
0003c0 ed 0c d7 3d cb 93 49 3e 3d e3 27 bc 66 a5 56 3f
       0.10500512 0.19685285 -0.010247049 0.8384613
0003d0 8b 2b 11 3e 3f 69 02 3f d3 51 8e 3e 89 c8 fe 3e
       0.14176767 0.5094184 0.27796802 0.4976237
0003e0 9b 62 1b bf 54 40 0f be b7 3c a9 3d 85 3e 9f bc
       -0.60697335 -0.13989383 0.082635336 -0.019438991
0003f0 aa b9 23 3f 4c 9e 8b bd bf 1b e2 3d 7c 61 01 3e
       0.63955176 -0.06817302 0.110404484 0.12634844

lstm.bias_ih_l0 f4 [512]
000000 76 72 8b 3f ee dd 9a bf 5f 9b 23 bf 96 f5 1f bf
       1.0894306 -1.2098978 -0.6390895 -0.6248411
000010 6e d9 7f bf e1 1b b2 3e b0 c6 3e bf e1 62 44 bd
       -0.99941146 0.34786895 -0.74521923 -0.04794586
000020 39 8b 43 3c 37 b8 cb 3e c0 7d ee 3e 92 67 a9 be
       0.011935049 0.39788982 0.46580315 -0.3308683
000030 81 9b 6a bf cd a7 42 bf ba 91 ad 3e ca 69 14 be
       -0.9164353 -0.76037294 0.33900243 -0.1449348
000040 a7 af 5d bf 7f 31 99 bf 2b 17 53 bf 04 68 ca 3e
       -0.8659615 -1.196823 -0.82457227 0.39532483
000050 66 64 81 be e1 6d 9f 3d 9a 7a 10 bf 25 19 3e bf
       -0.2527191 0.077846296 -0.56437075 -0.7425712
000060 0c 77 69 bf 03 c6 1f bf fe 07 de 3e 27 ec 0f bf
       -0.91197276 -0.62411517 0.43365473 -0.56219715
000070 da 37 45 bf 05 22 02 bf 6e 53 4a 3f 32 9b 86 bf
       -0.7703835 -0.5083316 0.79033554 -1.0516112
000080 80 ba 22 bf 46 eb f0 bd 17 32 0a 3a 2e a9 80 bf
       -0.63565826 -0.11763625 0.0005271746 -1.005163
000090 96 25 65 bf 8c 1f 4f 3f fe 3e fc be 06 67 51 3f
       -0.89510477 0.8090751 -0.4926681 0.81797826
0000a0 95 cb 38 bf 22 6d 88 bf 5b fc 5c bf 88 54 06 bf
       -0.7218564 -1.0658305 -0.86322564 -0.52472734
0000b0 1f f6 2b bf 06 7e 84 bf cc fb 54 bf 95 3a 21 bf
       -0.67172426 -1.0350959 -0.8319671 -0.62980014
0000c0 0e d3 41 bf df be 2b bf 2d d6 73 bf 4a 69 ef be
       -0.7571267 -0.6708812 -0.9524868 -0.46760017
0000d0 aa 8b 29 bf ac 88 16 bf 67 27 0f bf 1e b0 e5 be
       -0.66228735 -0.58802295 -0.559195 -0.4486093
0000e0 63 34 6a bf 27 89 2b bf 7f 72 c7 be 58 5b 27 bf
       -0.91486186 -0.6700615 -0.3895454 -0.65373755
0000f0 96 af 40 bf 90 13 96 bf 2a 9c 3f bf f9 1d 7e bf
       -0.7526792 -1.172472 -0.7484766 -0.99264485
000100 34 c7 28 bf dd 11 14 bf 17 8a ed be c0 11 81 bf
       -0.6592896 -0.5783976 -0.46394417 -1.0083542
000110 9a 77 9a be 8d b4 7e 3f b3 b0 3e bf c2 1f 07 3f
       -0.30169374 0.9949425 -0.7448837 0.52782834
000120 fa 8f 02 bf 05 5b 37 bf 62 d5 5a bf 31 05 f2 3d
       -0.5100094 -0.7162326 -0.85481846 0.118173964
000130 4b 27 81 bf fb 4c 59 bf 24 d7 4b bf c0 2c 8c bf
       -1.0090116 -0.8488309 -0.79625154 -1.0951157
000140 66 95 b8 3f 43 e7 54 bf 0a e9 9b 3e ce b4 1a bf
       1.4420593 -0.8316538 0.30451232 -0.60432136
000150 74 ec 25 bf ba a0 50 bf c1 9c 7a bf cd 54 7f bf
       -0.64813924 -0.8149525 -0.9789544 -0.9973877
000160 dd 66 89 bf 08 4b 84 bf 4d 0e bc 3e 31 73 83 bf
       -1.0734516 -1.0335398 0.3672966 -1.0269529
000170 1d 35 89 bf 31 29 6f bf cb 02 b2 3f 42 bb 1c bf
       -1.0719334 -0.9342223 1.3907102 -0.6122323
000180 15 7d 49 bf 2f df 3a bf 35 a0 33 bf 50 74 66 3f
       -0.78706485 -0.729968 -0.7016633 0.9002123
000190 84 2c 1e 3f a3 77 f5 bd 11 60 2e bf 22 fd 51 bf
       0.61786675 -0.119857095 -0.68115336 -0.82026875
0001a0 82 7b 41 3e 1c 56 93 bc 71 f6 ac 3f 4c 25 8f 3e
       0.1889477 -0.017985396 1.3512708 0.27958143
0001b0 5b c1 53 bf f5 f4 56 3f 7a 99 8c bf 56 d7 19 bf
       -0.8271691 0.83967525 -1.0984337 -0.600942
0001c0 f9 cd 73 bf 22 3d eb be 2e ae 8b bf 9c a7 0b 3e
       -0.95236164 -0.45945078 -1.091253 0.13638157
0001d0 93 cb 83 3f 5c 73 07 be bd a7 0d bf 66 2d 20 bf
       1.0296501 -0.132276 -0.55334073 -0.6256927
0001e0 4a b1 13 3e 9a 86 29 bf 6b 4d 61 bf b3 eb 8d bf
       0.14423099 -0.6622101 -0.88008755 -1.1087555
0001f0 fe ba 06 bf 71 16 1c bf 60 43 34 bf 5f 96 62 bf
       -0.5262908 -0.6097174 -0.70415306 -0.885107
000200 13 82 be bd bf d7 03 bf c0 db 61 be e9 b3 01 bf
       -0.093021534 -0.5150108 -0.22056484 -0.50665146
000210 d1 75 e1 be b8 4d 2e 3e da 86 f8 be 03 da 61 bd
       -0.440352 0.17021835 -0.48540384 -0.055139553
000220 b5 2d 8d 3d e4 ff d3 b9 03 63 61 bf 44 be d1 be
       0.068934835 -0.0004043571 -0.88041705 -0.40965474
000230 14 eb f3 be 09 d3 b3 be 98 dc 9b 3c 91 aa 20 bf
       -0.47640288 -0.35121945 0.019026086 -0.62760264
000240 bf be 00 bf e5 2d d0 be f6 c3 f4 be b5 a3 8f bd
       -0.50291055 -0.40660015 -0.47805756 -0.070136465
000250 30 7e 25 be c9 a6 32 3f d6 e7 27 be 53 3f b6 be
       -0.16161418 0.69785744 -0.16397032 -0.35595188
000260 af d0 fa be 70 05 ea be 64 a4 3e 3e c8 52 cd be
       -0.48987338 -0.45707273 0.18617398 -0.4010222
000270 73 2e a7 bc 3c 1b a8 be fa 1e 43 3e 98 71 18 bf
       -0.02040789 -0.32833278 0.19054785 -0.5954833
000280 47 f6 d8 be 81 91 92 bd 8c 0a b8 3c 8a 87 d8 be
       -0.42375395 -0.07156659 0.022465967 -0.42290908
000290 64 3e 04 bf e2 d4 06 be 87 ea d3 bd e7 6b fe bc
       -0.516577 -0.13167146 -0.10347467 -0.031057311
0002a0 53 a3 87 be 04 ef 06 bf db 98 db be e7 f5 8c 3e
       -0.26491794 -0.5270846 -0.42890057 0.2753136
0002b0 ed 08 d2 be d7 1d 17 bf 13 9d ac be 8c c1 7b be
       -0.41022435 -0.59029907 -0.33713588 -0.24585551
0002c0 b6 16 08 bf 82 a0 8a be 7c 57 d6 be b5 58 39 bf
       -0.53159654 -0.27075583 -0.4186362 -0.7240098
0002d0 b1 68 eb bd 79 b7 bb be 12 0f a8 bb 5b bc 97 3c
       -0.11494578 -0.36663416 -0.0051287496 0.018522432
0002e0 14 6c d2 be 49 8a 87 bd 8d d0 85 3e 42 8c 92 be
       -0.41098082 -0.06618173 0.26135674 -0.28622633
0002f0 3e 13 ce be b4 97 0d bf ef 2d 0e bf f2 f4 d3 be
       -0.40249056 -0.55309606 -0.5553884 -0.41397816
000300 68 2b cc be ac bb f7 be 21 18 68 bd 1e 5c 18 bf
       -0.39876866 -0.4838537 -0.056663636 -0.5951556
000310 b1 d3 9d bd 3e 82 ba bd 48 19 52 be a0 85 c8 bd
       -0.077063926 -0.09106873 -0.20517457 -0.09791112
000320 03 cf b0 be be b6 bf be b5 7c b2 be 70 7c 26 3c
       -0.34532937 -0.3744411 -0.3486077 0.010161504
000330 82 a6 32 be a9 6d 93 be 2e bc dd be 7d 35 c7 be
       -0.1744633 -0.28794602 -0.43307632 -0.38907996
000340 c6 6c 62 3d a7 ef d0 be e3 08 ad be da d2 c9 bd
       0.055279516 -0.4080784 -0.33795843 -0.0985467
000350 04 e1 38 bf c1 3e ce be 11 df 3d bf 07 24 d3 be
       -0.72218347 -0.40282252 -0.741685 -0.41238424
000360 94 9d 11 bf 38 7d ff be 8a eb ea 3d c0 7d ee be
       -0.5688107 -0.49900222 0.11470707 -0.46580315
000370 b7 aa 2b bf 4f a2 0e bf bd c0 76 3e 89 5f 0f bf
       -0.67057365 -0.55716413 0.24096961 -0.5600515
000380 c9 16 35 bf 7b f2 a6 be 36 b6 d0 be ce 78 1a be
       -0.7073789 -0.32606873 -0.40764016 -0.15085146
000390 07 5a cd bd 7e e3 db bb 56 2d a5 be ba 17 fe be
       -0.10026937 -0.006710469 -0.3226115 -0.49627477
0003a0 2e fa 03 be 94 82 77 3e 66 7f dd 3d 31 e9 b4 3c
       -0.12888405 0.24170905 0.10815315 0.02208385
0003b0 52 dc f1 be bb 16 a7 3d 85 af e4 be 4d 5f cb be
       -0.47238404 0.08158632 -0.4466516 -0.39721146
0003c0 a2 16 a3 be 94 41 cd be f1 bd 93 be c8 9c 47 3e
       -0.31853205 -0.40089095 -0.2885585 0.19493401
0003d0 89 a8 24 3d 04 25 4d bd f7 52 f7 3c 11 9f f6 bd
       0.04019979 -0.05008413 0.030190928 -0.12042058
0003e0 07 dd 1c 3e a2 8f 0e bf 0d d4 02 bf 63 b3 0f bf
       0.1531869 -0.55687916 -0.51104814 -0.561331
0003f0 36 3b 28 bf e5 a2 c1 be cb 94 15 bf 44 e1 b4 be
       -0.6571535 -0.3781959 -0.58430165 -0.35328114

lstm.bias_hh_l0 f4 [512]
000000 79 ea 83 3f f7 28 85 bf 00 d5 fe be fc 03 33 bf
       1.030593 -1.0403126 -0.4977188 -0.69927955
000010 20 c2 7e bf 95 78 d7 3e 4f 68 36 bf e9 78 fa 3c
       -0.9951496 0.42084184 -0.7125291 0.030575233
000020 34 09 0c bd 2e 6b 80 3e f4 44 e5 3e 64 77 95 be
       -0.034188464 0.25081772 0.4477917 -0.2919265
000030 07 df 71 bf 65 cf 24 bf cf f7 8a 3e 2b 58 58 bd
       -0.9448094 -0.6437896 0.27142188 -0.05281846
000040 c7 56 64 bf 19 78 88 bf a5 58 3c bf 70 b3 8e 3e
       -0.8919491 -1.0661651 -0.7357276 0.27871275
000050 06 a7 b1 be 51 d0 41 3e 42 5a 14 bf 13 41 64 bf
       -0.3469774 0.18927123 -0.5795022 -0.89161795
000060 ba cb 68 bf fe 6a 14 bf 9e 94 b6 3e 01 01 d7 be
       -0.9093586 -0.5797576 0.3566026 -0.41992953
000070 56 b8 32 bf d4 9b d3 be 04 54 4d 3f b5 c6 73 bf
       -0.69812524 -0.41329825 0.8020632 -0.9522508
000080 28 ed 22 bf 0f 54 a6 bd b7 5e 3a 3d 91 1f 79 bf
       -0.6364312 -0.08121502 0.045500483 -0.9731379
000090 83 a7 54 bf 2b 9a 32 3f 47 30 c7 be ec 17 50 3f
       -0.830681 0.6976649 -0.3890402 0.812865
0000a0 d0 f8 1d bf 55 f1 84 bf 6f 11 69 bf 56 5b 06 bf
       -0.6170778 -1.0386149 -0.91042227 -0.5248312
0000b0 bf b6 3b bf d7 d1 67 bf fc a4 41 bf 6d ce 11 bf
       -0.73325723 -0.90554565 -0.7564237 -0.56955606
0000c0 48 99 34 bf 74 95 23 bf 27 90 7c bf 83 ea 0a bf
       -0.7054639 -0.6389992 -0.9865746 -0.54264086
0000d0 92 f0 1d bf 9e 49 1b bf e4 dd fd be ff 18 db be
       -0.61695206 -0.60659206 -0.49583352 -0.42792508
0000e0 9d 85 5a bf d1 cc 2d bf 7c a5 7a be 46 5f 36 bf
       -0.8536013 -0.6789065 -0.2447719 -0.71239126
0000f0 36 96 54 bf 8c e6 97 bf 6e 29 45 bf 83 9f 75 bf
       -0.83041704 -1.1867232 -0.7701634 -0.9594652
000100 c7 f2 36 bf f5 39 05 bf cb 7b a9 be f4 af 7c bf
       -0.714642 -0.5204156 -0.3310226 -0.98705983
000110 a5 57 8f be 39 ec 7a 3f fa ad 51 bf d8 5e d9 3e
       -0.27996555 0.980167 -0.8190609 0.42455173
000120 ac 3d 0c bf 89 57 40 bf 02 1d 4f bf 72 aa 83 3e
       -0.54781604 -0.7513357 -0.8090364 0.25715977
000130 47 c1 85 bf 01 67 57 bf 73 97 31 bf a4 c0 8c bf
       -1.0449609 -0.84141546 -0.6937172 -1.0996289
000140 1c ac b1 3f 81 74 54 bf ed c6 97 3e 4a d4 f7 be
       1.3880649 -0.8299027 0.29643956 -0.4840415
000150 b4 7a 0a bf b2 0d 50 bf a4 88 7c bf c4 c9 81 bf
       -0.5409348 -0.812709 -0.98646 -1.0139699
000160 fa 7b 83 bf bb e4 85 bf 5d 09 93 3e 4e 14 7f bf
       -1.027221 -1.0460428 0.2871808 -0.9964036
000170 15 41 97 bf 17 22 5a bf b1 b1 a8 3f 7a 46 1a bf
       -1.1816736 -0.85208267 1.3179227 -0.6026379
000180 66 9a 3b bf 59 8e 55 bf bb 32 2b bf d3 b6 58 3f
       -0.7328247 -0.8342033 -0.66874284 0.8465397
000190 ce 85 20 3f 2b d3 29 be 55 a3 18 bf 60 29 34 bf
       0.6270417 -0.1658446 -0.59624225 -0.70375633
0001a0 d4 a5 0e 3e 9f 48 8d 3c 1b aa bb 3f 58 d3 28 3e
       0.13930446 0.017246542 1.4661287 0.16486871
0001b0 41 70 4b bf 53 3c 6f 3f 55 f2 95 bf e3 e0 f6 be
       -0.7946816 0.9345142 -1.1714579 -0.4821845
0001c0 4f 35 5d bf 0c fb b2 be 4d 70 72 bf 1e 2c 35 3e
       -0.8640947 -0.3495716 -0.9470261 0.1769261
0001d0 83 95 78 3f c4 2a 12 be cc d1 04 bf 6a b2 31 bf
       0.97103137 -0.14274126 -0.51882625 -0.69412863
0001e0 7c a8 04 3e b3 7e 45 bf 75 08 5e bf 31 98 7b bf
       0.12954897 -0.7714645 -0.86731654 -0.982791
0001f0 58 39 0e bf d4 7d 24 bf ac 5b 3f bf 6b b0 6c bf
       -0.5555625 -0.642545 -0.74749255 -0.9245669
000200 a4 e0 73 be c5 f8 bd be 26 dc 6f be 5e 91 0a bf
       -0.23816162 -0.3710386 -0.23423824 -0.5412806
000210 c7 21 bc be d8 6e 54 3e 77 66 04 bf 0e 86 c1 bc
       -0.3674452 0.20745409 -0.5171885 -0.023623493
000220 d5 79 30 3e 92 85 ec bc 1f a5 3c bf e6 a2 d2 be
       0.17233975 -0.028872285 -0.73689455 -0.41139907
000230 9e 8e c3 be 0d f6 c9 be c7 1d 3a bc f9 e9 14 bf
       -0.38194746 -0.39445534 -0.011359639 -0.58169514
000240 9b a7 d2 be 9b 54 d9 be ea 0d 06 bf 3b a3 25 be
       -0.41143498 -0.4244736 -0.5236498 -0.16175549
000250 4f 9a 87 be 56 5d 34 3f 1c d3 5c be 0e e0 89 be
       -0.26484916 0.7045492 -0.21564907 -0.26928753
000260 83 75 dc be 0a e3 08 bf 0f db 71 3e a0 50 c5 be
       -0.43058404 -0.53471434 0.2361872 -0.38538074
000270 1c e3 68 bd 66 32 a6 be 7b f4 fd 3d 6f 96 01 bf
       -0.056857213 -0.32460326 0.124001466 -0.5062017
000280 e3 78 b9 be 34 c5 86 bc 9c a6 a3 3d 1c 9e e3 be
       -0.36225042 -0.016451456 0.079907626 -0.44456565
000290 f4 52 25 bf 78 fa df bc b6 47 89 bd 10 9f 4c 3d
       -0.645797 -0.027341112 -0.06703131 0.04995638
0002a0 7d 7d d0 be e4 1a 0d bf 53 bc d9 be 77 24 8f 3e
       -0.4072074 -0.55119157 -0.42526492 0.27957508
0002b0 35 50 ff be af fa 0b bf f9 be ac be 62 3d 63 be
       -0.4986588 -0.5467939 -0.3373945 -0.22191384
0002c0 40 80 ec be 61 6a 8c be d6 e3 c1 be 66 5c 40 bf
       -0.46191597 -0.2742491 -0.37869138 -0.7514099
0002d0 d3 11 c8 bd 3f d1 93 be 69 bd 8d bc 4b 43 ef bd
       -0.09769025 -0.2887058 -0.017302232 -0.11682757
0002e0 7a 62 cb be 39 7c 27 3d ab ad 70 3e cb 6b 2a be
       -0.3972357 0.040889952 0.23503749 -0.16642682
0002f0 72 c7 db be 2e b4 02 bf ba ac ec be 4d 65 9b be
       -0.42925602 -0.5105618 -0.4622553 -0.30350724
000300 ec 09 00 bf 15 74 06 bf 59 6e fe 3b de a2 e2 be
       -0.5001514 -0.5252088 0.0077646193 -0.44264883
000310 e9 d2 3a bd 56 c9 02 be dc 05 77 be 39 55 80 bd
       -0.045611296 -0.12772116 -0.24123329 -0.06266255
000320 be b8 e8 be e4 6a e2 be c7 f2 6f be 73 61 c3 3d
       -0.45453447 -0.44222176 -0.23432456 0.09540071
000330 7a 13 90 be ca 51 8b be 7c 7f 86 be 01 df cb be
       -0.2813986 -0.27210838 -0.26269138 -0.39818576
000340 e1 90 e6 3d 8a 59 a1 be 60 8c 67 be c2 9e 8c bd
       0.11258102 -0.31513625 -0.22612143 -0.06866218
000350 84 93 39 bf c7 ff ca be 7b c1 2f bf 21 69 e7 be
       -0.72490716 -0.39648268 -0.686546 -0.45197394
000360 58 8e 11 bf c0 f0 fa be 3e f5 0d 3e 33 f0 00 bf
       -0.56857824 -0.49011803 0.13863084 -0.50366515
000370 17 e0 2b bf 85 ac 2a bf 12 52 45 3e af 0d 17 bf
       -0.6713881 -0.66669494 0.19269589 -0.59005255
000380 eb 35 27 bf c9 d5 a3 be 84 bd ae be 85 d8 06 be
       -0.6531665 -0.31999043 -0.34128964 -0.13168533
000390 0a ab 12 be 4f 5b fd bd 1f f0 6d be a7 13 1b bf
       -0.14323059 -0.12370931 -0.2323613 -0.6057686
0003a0 17 37 66 be 92 68 54 3e 04 f1 11 3d c9 1c 1c 3e
       -0.22481953 0.20743015 0.03563024 0.15245356
0003b0 6a b3 e7 be 7b 72 31 3e 13 57 a1 be bb 38 c0 be
       -0.4525407 0.17328827 -0.31511745 -0.37543282
0003c0 ca c2 d0 be 1d 56 8d be b2 7a b6 be b2 74 12 3e
       -0.40773612 -0.27604762 -0.35640484 0.14302328
0003d0 26 cd 8e bd 89 c9 01 bd 93 96 aa 3d 33 63 f0 bd
       -0.06972723 -0.03168634 0.08329501 -0.11737671
0003e0 b9 f3 ae 3d 02 83 04 bf 88 32 e2 be a7 fd f5 be
       0.0854258 -0.517624 -0.44179177 -0.48045084
0003f0 d6 dc 13 bf 0f 77 ec be 92 21 0b bf d4 00 a6 be
       -0.57758844 -0.46184584 -0.543481 -0.32422507

lstm.weight_ih_l1 f4 [512, 128]
000000 c4 50 ce be 40 43 de be c9 77 3d 3e 7a a0 83 3e
       -0.40295994 -0.43410683 0.18502726 0.2570837
000010 b0 e0 b6 3e 0a d5 97 bf 03 79 ed be 39 c9 b6 3e
       0.35718298 -1.1861889 -0.46381387 0.35700396
000020 c7 89 5a 3f 3f 5e 8a bf cd 54 b9 bf 19 25 78 3e
       0.8536648 -1.0810012 -1.4479004 0.24232902
000030 eb 4f ce 3e 7c 15 f4 3e 0a 44 3d be 80 25 d8 bf
       0.40295348 0.4767264 -0.18482986 -1.6886444
000040 73 44 c0 3d 57 42 94 3d a4 f5 60 bc a5 79 86 3e
       0.09388056 0.07239216 -0.01373044 0.26264682
000050 15 61 66 bf 2c 92 1b 3f 8f 1e 6d bf 46 d4 ca 3d
       -0.89991885 0.60769916 -0.92624754 0.09903769
000060 52 58 91 bb 6e 33 ac 3e c6 c6 17 3f ed 6c 98 bd
       -0.0044355774 0.33632988 0.5928768 -0.07442651
000070 bd 04 06 3f a9 63 4c 3e b4 8b 5a 3d fd f5 fb 3d
       0.5235098 0.19959892 0.053355888 0.12302778
000080 88 2a b3 bd ab 82 18 3f db 8c 2b 3f ff cd 47 be
       -0.087483466 0.59574383 0.67011803 -0.19512175
000090 96 37 d6 bd 21 7f 8a 3e 12 38 9c 3f dd 8c 37 bf
       -0.10459821 0.27050117 1.2204611 -0.71699315
0000a0 11 c1 30 be 97 72 b5 be 1a 8a dc be d8 fc 19 3f
       -0.17261149 -0.35438988 -0.43074113 0.60151434
0000b0 fe 2a bd 3d 46 33 54 bf 40 0d e3 3d 65 1c 54 be
       0.09236716 -0.8289074 0.110865116 -0.20713957
0000c0 9b e6 06 bf 0e c3 69 3e f5 7a ed 3d e5 78 b3 bd
       -0.52695626 0.22828314 0.11595718 -0.08763293
0000d0 3a 83 11 3e e6 f7 c3 be 9c 90 5f 3f 91 52 8f 3f
       0.14210215 -0.3827507 0.8733003 1.1197072
0000e0 5b b1 2f 3e 71 7d 15 be f7 3c 1a 3e 66 fd 30 3f
       0.171575 -0.14598633 0.15062319 0.69136655
0000f0 d4 2a 82 bc f8 61 20 ba 26 b8 f8 be 3b 40 be be
       -0.015889563 -0.0006118114 -0.48577994 -0.3715838
000100 0f 9f a4 be b8 c9 7a 3f cd 20 93 3f c1 4a cb be
       -0.32152602 0.9796405 1.1494385 -0.3970547
000110 f4 08 9c bf 57 68 07 be 6b bd 03 3e 80 b1 64 bf
       -1.2190232 -0.13223396 0.12865226 -0.89333344
000120 68 46 27 3e 7a 6b 2e bf b1 78 a0 be f1 fd 99 be
       0.16335452 -0.68132746 -0.3134208 -0.30076554
000130 8d 76 ac 3e 2f 39 0b be 1c ff b9 bc 47 a5 3f be
       0.33684197 -0.13596033 -0.022704653 -0.18715392
000140 8c f4 23 bf e9 47 3e 3f a9 3c 25 bf c2 31 b1 bf
       -0.64045024 0.74328476 -0.64545685 -1.384331
000150 d3 26 a6 3f fb a4 eb 3c 2b 7d 29 3f 73 05 c9 3d
       1.2980598 0.028765192 0.66206616 0.098154925
000160 37 91 a2 3e dc e8 0a 3f a8 74 dd 3f e6 da 13 bf
       0.31751415 0.54261565 1.7301226 -0.5775589
000170 86 45 c0 3e 95 bd df 3e f8 7e 18 be 78 2c 00 bf
       0.37553042 0.43699327 -0.14892185 -0.50067854
000180 91 89 07 3f 0b b7 15 bf 71 07 26 be dd f9 f4 3d
       0.52944285 -0.58482426 -0.16213776 0.1196172
000190 3d 2e a6 3e 21 ca 31 bf 16 46 69 3e 80 d2 5d be
       0.32457152 -0.6944905 0.22780642 -0.2166233
0001a0 5e fe 83 3f 31 99 45 3f 28 0d fe 3c 4d 82 8e 3e
       1.0312002 0.77186877 0.031012133 0.27833787
0001b0 e2 62 f9 be 62 c9 81 bf df b7 2b 3f 58 67 05 bf
       -0.48708254 -1.0139582 0.6707744 -0.52110815
0001c0 2f ad 06 3f 19 b2 26 3c 2b 04 19 3c 81 4f 7c 3f
       0.5260801 0.010174298 0.009339373 0.98558813
0001d0 01 50 05 3e 44 ce 06 3f a9 43 8b 3f 51 34 3e 3f
       0.130188 0.52658486 1.0880023 0.7429858
0001e0 4d 1c a2 bf a9 0f c1 be 26 67 7b 3e a3 47 84 be
       -1.2664887 -0.3770726 0.24551067 -0.25835904
0001f0 63 5a 83 3f 7a 7d 4a 3e 04 72 a4 bd ab 57 4d 3f
       1.0261959 0.19774428 -0.08029559 0.80211896
000200 c1 70 f5 bf 71 53 29 bd 0d 97 9f 3e 17 3c 54 be
       -1.9175035 -0.04133934 0.3116993 -0.20726047
000210 dc b3 fb be 93 09 c3 be d9 79 ca 3e b8 51 90 3e
       -0.4916066 -0.38093242 0.39546087 0.28187346
000220 8e aa 85 3f 80 cd cd be 5a e5 e8 3c cf 0f ae bc
       1.0442674 -0.40195847 0.028429676 -0.021247772
000230 3c 95 25 be 54 8d 90 be e3 f5 9c 3e f0 b9 d8 3f
       -0.1617021 -0.28232825 0.30656347 1.6931744
000240 9d 07 18 3e cc 95 15 be 1c 22 81 bf 04 7e 85 3e
       0.14846654 -0.14607924 -1.0088534 0.26072705
000250 45 49 82 3e b0 10 1e 3f 4f af 34 3f 02 62 03 be
       0.25446525 0.61744213 0.7058 -0.12830356
000260 0c 0b 64 bd 2b d1 11 bf c7 e2 0d 3f 28 6a d7 3e
       -0.055674598 -0.5695979 0.5542416 0.42073178
000270 bd 6e 84 3f 00 a2 2e 3d b2 7b 0b bf a6 a4 7f 3e
       1.0346295 0.042634964 -0.5448562 0.24965152
000280 2e 8f 7d 3e 89 ab 57 3f 21 b2 b3 3d e1 a9 bf 3e
       0.2476165 0.84246117 0.0877421 0.37434295
000290 aa 53 99 be 5c b7 46 be ec e4 2d 3f f0 4e aa 3e
       -0.29946643 -0.19405884 0.6792743 0.3326335
0002a0 5c a8 a1 3e ac cf b8 3d a8 e0 d5 bd c8 28 26 3e
       0.3157376 0.09023985 -0.104432404 0.16226494
0002b0 b8 2b 37 be 51 69 40 3f 4f a7 9d 3e 07 ab a7 be
       -0.17887771 0.751607 0.3079171 -0.3274767
0002c0 e5 f3 73 3e 42 88 f9 3d 69 40 6c be 2f 10 96 bf
       0.23823507 0.12184192 -0.23071446 -1.1723689
0002d0 3e f9 29 bf 57 58 4d bf eb a5 22 3f d2 a8 40 3f
       -0.6639594 -0.8021292 0.6353442 0.752576
0002e0 2a c7 9e bd 79 c2 fc be ee f4 21 bc 1a b8 b7 3e
       -0.07752831 -0.4936712 -0.009885056 0.35882646
0002f0 af b7 f7 3d d2 78 04 3e 83 d2 e1 3e be 08 eb 3d
       0.12095582 0.12936714 0.4410592 0.11476277
000300 e6 73 81 3e f8 59 3b bf 0b ff 9c 3f 60 09 14 3e
       0.25283736 -0.73184156 1.2265333 0.14456701
000310 66 ed 2f bf 23 bd a0 bd 86 ef fd bc 62 ea cf bd
       -0.68721616 -0.07848575 -0.030998003 -0.10152127
000320 f4 03 32 be 06 a8 1f 3f d9 0e d8 be 10 a3 7a be
       -0.1738432 0.6236576 -0.42198828 -0.24476266
000330 12 b0 2b be 1c 68 8e 3e e3 ce 7e 3d 62 da 4d bd
       -0.16766384 0.27813804 0.06220902 -0.050257094
000340 94 5f a1 3e 63 ad fa 3e 18 8f 01 3d 29 27 33 bf
       0.31518233 0.4896041 0.031630605 -0.6998163
000350 60 36 f5 be 48 ee b3 bd 09 24 47 be 7b 09 19 3f
       -0.47893047 -0.08785683 -0.1944734 0.5978009
000360 40 fc be bd 83 92 fb be ac 5c a4 3e f9 c1 c9 3e
       -0.093254566 -0.49135217 0.32101953 0.39405802
000370 e4 d0 75 bd b7 f1 f3 be 98 28 9c be b0 d5 00 3f
       -0.060013667 -0.4764535 -0.3049972 0.5032606
000380 56 e5 81 bf 58 9c 86 3d 8f ac 2e be c4 5a 30 bf
       -1.0148113 0.06572789 -0.17058013 -0.688885
000390 8d 7d 10 be 10 01 e0 be fd e0 38 be f6 15 d5 3f
       -0.14110394 -0.4375081 -0.18054576 1.6647327
0003a0 26 d8 a7 3f fe f1 8c 3f 7e 23 de be eb e2 b3 3e
       1.3112838 1.101135 -0.43386453 0.35134062
0003b0 60 ac 3a 3f f3 91 d2 be e3 b1 0f be 0d c0 96 3d
       0.72919273 -0.41126975 -0.14032702 0.073608495
0003c0 7e 75 0e be 03 e3 84 be b6 36 a4 bd 91 a5 6d 3f
       -0.13912007 -0.25954446 -0.08018248 0.9283076
0003d0 a8 47 25 be a7 50 0b 3f 17 2e 87 3f 3d cb 40 3e
       -0.16140616 0.5441994 1.056094 0.18827529
0003e0 c6 6d 49 bf 70 fd 42 be 05 cf 90 be 61 08 3b bf
       -0.78683126 -0.19041991 -0.28282943 -0.7305966
0003f0 cd 4d 6d 3f 3e 49 17 3e a1 23 57 be 3b 7d 84 bd
       0.9269684 0.14774033 -0.21009685 -0.06469198

lstm.weight_hh_l1 f4 [512, 128]
000000 ed 54 ab bd fa 03 3b bf cd 45 1e 3d ab f1 37 be
       -0.08365808 -0.7305294 0.038640786 -0.17963283
000010 4e 7e 1c 3f d1 44 2c be ba f9 a4 3e d8 6f 11 3e
       0.61130226 -0.16823126 0.32221776 0.14202821
000020 66 7d 1d bf d5 83 4b be 13 b0 18 bf 2a 87 44 be
       -0.6151947 -0.19874509 -0.5964367 -0.19192186
000030 a7 8e 81 3e cf ee 92 bf 85 88 c2 be 02 9b b6 bd
       0.25304148 -1.1479129 -0.3799478 -0.08916284
000040 dd ca 22 bf 19 c3 56 be e1 4b 82 3e 11 50 61 3e
       -0.63590795 -0.20972861 0.25448516 0.22003199
000050 61 5a 91 38 8a 49 04 3f 86 db 20 3f 4d a2 86 be
       6.930973e-05 0.5167471 0.62834966 -0.262957
000060 fd 69 b7 3e a7 7b 8c 3e e8 48 09 bf 42 9e 4b 3e
       0.3582305 0.2743809 -0.5362687 0.1988459
000070 45 24 37 be 61 03 8b 3e 80 12 e9 3d 34 7e 86 3e
       -0.1788493 0.27151015 0.11380482 0.2626816
000080 a4 33 e8 3d 25 51 85 bc d8 33 b8 3e 43 61 07 3d
       0.11337975 -0.016274044 0.35977054 0.03305174
000090 94 20 d9 3e d0 44 79 be 56 f7 79 3e 5f 85 d5 3e
       0.42407668 -0.24342656 0.24410757 0.41703317
0000a0 bf c4 3a 3f 46 b1 de 3e 83 f4 bd 3e 03 19 97 be
       0.7295646 0.43494624 0.3710061 -0.2951127
0000b0 2a f5 c4 3d 19 d4 94 3f 74 30 ff 3d 66 d6 0d 3f
       0.09617074 1.1627227 0.124604136 0.5540527
0000c0 b5 e6 11 bf 1a 86 0d bf 95 b3 cf be c3 4b 4d 3e
       -0.56992656 -0.5528275 -0.40566698 0.20048432
0000d0 ba 63 8a 3e 1a c0 d3 3d 89 48 55 3e 80 b0 db be
       0.2702921 0.10339375 0.20828451 -0.42908096
0000e0 ed ea ae 3d e3 1e 27 be 22 b4 20 bf 00 33 08 3f
       0.08540902 -0.16320376 -0.6277486 0.5320282
0000f0 1d 16 90 3e bd ca c8 be 38 f2 08 3f a4 b7 ac be
       0.2814187 -0.39217177 0.53494596 -0.33733857
000100 c2 ee c7 3e e3 22 a7 be ce fe ca 3d be ef 93 bd
       0.39049345 -0.32643804 0.099118814 -0.072234616
000110 cf 4a f5 be d0 43 a3 be 64 51 b1 3e 0c d3 8c 3e
       -0.47908637 -0.31887674 0.3463241 0.27504766
000120 39 6b bc 3d 6a b5 4c bc 3a f9 c5 3e 82 51 47 3f
       0.092001386 -0.012494424 0.38666707 0.77858746
000130 5a db 33 3f f3 93 20 3f 17 15 e6 3e b7 44 0e 3f
       0.7025658 0.6272575 0.44937965 0.555736
000140 1e 38 a4 be a2 52 38 bf 22 c9 fa bd 7b 6e 46 3f
       -0.32074064 -0.7200109 -0.12245394 0.7751233
000150 dd 5e a3 be 17 ca d0 be c9 c8 2c bf d7 e2 44 be
       -0.31908312 -0.40779182 -0.67493874 -0.19227158
000160 a2 e3 3b bf 92 eb d3 bd aa 0d b8 be fe f8 95 be
       -0.73394215 -0.10347666 -0.35947925 -0.29291528
000170 1c b2 82 be b6 e5 09 3f fa fe f3 3e 83 34 c2 be
       -0.25526512 0.53866136 0.4765547 -0.37930688
000180 6b e0 3a be 60 f3 f5 3d d4 4e 01 3f 4f 8d 3c 3e
       -0.18249671 0.12009311 0.5051091 0.1841328
000190 69 78 a6 3e af 9b 3c bd a2 cd 7f be 31 86 43 3e
       0.3251374 -0.04604691 -0.24980786 0.19094159
0001a0 39 df 07 bf d4 a1 d3 3e 4b 1e ca be 27 d8 b4 bd
       -0.53074986 0.41334403 -0.39476237 -0.0883029
0001b0 68 de 06 3f 93 39 5f 3d 0b 18 2e 3f 4d ea c2 3e
       0.52683115 0.054498266 0.68005437 0.38069382
0001c0 bc 90 0d 3d 41 fb 88 3e c5 cc 08 3f c6 d1 86 bd
       0.034561858 0.26754192 0.53437454 -0.0658298
0001d0 05 92 15 3c b6 e5 f7 be 40 39 b6 3e c6 07 88 3e
       0.009129052 -0.48417443 0.35590553 0.2656843
0001e0 f8 a7 bd be 28 1f d9 bd 5a 58 88 3e af 35 85 be
       -0.37042212 -0.10601646 0.26629907 -0.2601752
0001f0 69 70 c7 3e 46 29 c4 be 4a c4 be 3d 3b 29 12 3f
       0.3895295 -0.3831274 0.09314783 0.5709416
000200 64 99 f0 be 77 8d 79 bd 0c cd 99 3e 05 b1 4f 3d
       -0.46992028 -0.060925927 0.3003925 0.05070593
000210 f0 c1 f5 3d b9 e5 52 be 51 9f 0c be c6 b6 5e be
       0.11999881 -0.20595445 -0.1373265 -0.2174941
000220 02 1f 16 bf c5 60 f9 3c 74 8a 7a 3e fb 5b 6e 3d
       -0.58641064 0.030441651 0.24466878 0.05819319
000230 78 c5 e4 be 59 fc 41 bf 5a c9 35 3e d6 b3 74 bc
       -0.44681907 -0.75775677 0.17752591 -0.014935454
000240 cd dd 24 be f0 13 0b bf b9 0e a8 3d dd c5 96 bd
       -0.16100235 -0.543273 0.08205933 -0.07361958
000250 22 32 75 bf 93 5c ae 3e ef 56 b5 bd 1d 77 21 be
       -0.9577962 0.34055004 -0.08854472 -0.15768094
000260 b7 db 7b bd c0 a8 76 3e ac dc 06 be ba e6 8b be
       -0.061488833 0.2408781 -0.13170117 -0.27324468
000270 0f c7 2a be 5a 88 d5 be 02 5c f9 be 3b be 33 bf
       -0.16677497 -0.4170559 -0.4870301 -0.70212144
000280 09 13 ee bd 0e 88 2a bd 08 f4 86 be f4 48 51 3e
       -0.116247244 -0.041633658 -0.26358056 0.20437986
000290 05 9d bc 3f b8 21 40 3e ed 4f 02 bf 84 94 a0 bd
       1.4735419 0.18762863 -0.5090321 -0.07840827
0002a0 cc b8 5a 3e 16 49 00 3e 32 cf 41 be e5 f2 a0 3e
       0.21359557 0.1252788 -0.18926695 0.31435314
0002b0 4d 9a 34 bf 9d 56 89 3f 57 f0 c7 be 73 04 e6 be
       -0.70547944 1.0729557 -0.39050552 -0.4492527
0002c0 d9 a5 a3 3d d5 dc a8 3e 7a b1 0a be e4 06 16 3e
       0.07990617 0.3298098 -0.13544264 0.14651066
0002d0 81 5c c7 3e 23 ff e0 3c 38 6a ca bd 4c 5f 0f bf
       0.38937762 0.027465409 -0.09883541 -0.56004786
0002e0 c0 7c f2 3e 9e b8 66 bf 74 03 ae bd a7 5b d3 be
       0.47360802 -0.90125453 -0.084967524 -0.41280863
0002f0 f4 f2 0b 3f 83 26 71 bc 81 20 ad be 52 70 57 3e
       0.5466759 -0.014718655 -0.3381386 0.2103894
000300 8d 38 62 be a2 82 48 be 9e 1a ef 3e 76 c7 e0 3c
       -0.22091885 -0.19581082 0.46699995 0.02743886
000310 20 84 e1 be a6 28 b8 be ca 41 09 3f 14 57 97 be
       -0.44046116 -0.35968512 0.5361601 -0.29558623
000320 fb eb f1 3c ec f3 14 3f b6 31 97 3d 6a ad 21 3f
       0.02953147 0.58184695 0.073825285 0.63155234
000330 7b e7 f0 3f d7 92 65 be 5e ba 9d 3e 48 e6 9a 3e
       1.8820642 -0.22419296 0.3080625 0.30253816
000340 2a 7d 37 3e e0 d4 68 bc e8 f7 05 3e 1e bf 37 be
       0.1791884 -0.01421091 0.1308285 -0.17943999
000350 d3 08 40 bd dc 2c 04 be b6 3d bc 3b 46 94 2e bf
       -0.046883415 -0.12907737 0.005744661 -0.68195
000360 46 f8 73 bf 72 2f c8 3e bd 9f 40 3e 4a 5b f0 3d
       -0.9530071 0.39098698 0.18810935 0.11736162
000370 e9 a2 14 be 68 57 49 be 21 65 9d bd a1 18 13 be
       -0.1451527 -0.19662249 -0.076853044 -0.14364864
000380 4b 60 07 bf 24 29 42 3e da 01 f2 be bf ec 9a 3e
       -0.52881306 0.18961006 -0.47267038 0.30258748
000390 6b 9c 81 3b 33 5c 20 3e 08 61 81 3e f1 e8 0e bf
       0.003955414 0.15660171 0.2526934 -0.5582419
0003a0 4b 63 8d 3e 0f c6 e2 bd 50 a3 db 3e 6a e0 a8 bd
       0.27614817 -0.11072933 0.42898035 -0.082459286
0003b0 a1 8a 66 be 69 c2 64 3e 7b 43 a6 be 4e e2 c7 3d
       -0.2251382 0.22339787 -0.3247336 0.09759961
0003c0 6b 6f 3f be 5c 86 52 3e b8 c9 90 3e 14 c0 00 3d
       -0.18694846 0.20559067 0.282789 0.03143318
0003d0 ea db bd 3e 26 0f 7a bf d4 f6 8d 3a 45 6a 43 3e
       0.37081844 -0.97679365 0.0010831007 0.19083507
0003e0 6d d0 58 be 96 ca 3b be 40 75 26 bf 71 a5 e7 3e
       -0.21173258 -0.18338999 -0.6502266 0.4524341
0003f0 d7 15 ac 3d a5 d9 a2 3e e5 78 3f bf dd 1e 7b be
       0.08402603 0.31806675 -0.74793845 -0.24523492

lstm.bias_ih_l1 f4 [512]
000000 0c 86 8c be 73 87 36 3d ff ea 10 bf 17 3b 0d bf
       -0.2744602 0.04456277 -0.56608576 -0.5516829
000010 d5 4f a2 be bc 15 3f bf 89 99 2e bf d7 3e 34 bf
       -0.31701532 -0.7464254 -0.68203026 -0.70408386
000020 0d 54 03 bf b3 d7 00 bf ca 3f 10 bf 54 1b ca be
       -0.51300126 -0.5032913 -0.56347334 -0.39473975
000030 b8 77 f5 be cd 3b 62 3e de 6e 1d bf 21 d4 f5 be
       -0.479429 0.22093125 -0.61497295 -0.48013404
000040 da ed d7 be 43 b0 2c bf d8 1c 64 bf 96 48 ff be
       -0.42173654 -0.67456454 -0.8910651 -0.49860066
000050 18 e4 5c 3b 79 f9 27 bf 78 97 47 bf 3e 3c 29 bf
       0.003370529 -0.6561504 -0.779655 -0.6610755
000060 86 08 02 bf c4 56 8e bd 00 82 26 bf 34 25 1e bf
       -0.50794256 -0.06950143 -0.65042114 -0.6177552
000070 ea 40 02 bf ac e8 f6 be 07 cc 4e bf b5 0b c7 be
       -0.508803 -0.4822439 -0.8078007 -0.3887612
000080 54 fd 29 bf 96 36 01 bf 4c d0 17 bf 8c 20 33 bf
       -0.66402173 -0.50473917 -0.5930221 -0.6997154
000090 16 7c 8b be a4 ea 38 bf c4 03 20 bf fa 3f bb be
       -0.27243108 -0.72233033 -0.62505746 -0.36572248
0000a0 1e 4a 19 bf 97 94 3d bf 6a ea 0b bf 7a e9 1a bf
       -0.5987872 -0.74054855 -0.5465456 -0.60512507
0000b0 8e 50 3d bf 99 1c 1d 3d 64 06 83 bf 89 71 32 bf
       -0.7395104 0.03835735 -1.0236325 -0.6970449
0000c0 be 4f 1c bf 0e ce f9 be 92 36 ee be bd 98 19 bf
       -0.61059177 -0.4879002 -0.4652601 -0.59998685
0000d0 04 ea c0 be a1 37 32 bf ef 4a be be b8 5d c7 be
       -0.3767854 -0.6961613 -0.37166545 -0.3893869
0000e0 f6 b0 33 bf a3 44 7d bf 33 82 02 3d 90 49 28 bf
       -0.70191896 -0.98932856 0.03186245 -0.6573725
0000f0 93 8d e7 be b1 af f1 be 1a c4 e3 be 60 d5 03 bf
       -0.452252 -0.47204354 -0.4448555 -0.5149746
000100 8a 47 61 bf 36 8b 34 bf 42 0b 2b bf dc bf 3f bf
       -0.87999785 -0.7052492 -0.66814053 -0.7490213
000110 22 e6 c1 be a3 7d f6 be 72 bd ea be 20 1d 91 be
       -0.3787089 -0.48142728 -0.4584766 -0.28342533
000120 67 6b bf 3c f6 6f c7 be 14 64 28 bf 6b 15 af be
       0.023366643 -0.38952607 -0.6577771 -0.34196028
000130 04 8e cf be 23 63 0f bf 60 e0 1d bf fd 56 cb bd
       -0.40538037 -0.56010646 -0.61670494 -0.09928701
000140 a7 f6 89 be 29 51 4e bf a0 36 2b bf fd 69 fb bd
       -0.26945993 -0.8059259 -0.66880226 -0.12276075
000150 ed 75 29 bf f0 fd 16 bf 98 f0 03 bf 7a 5b 87 be
       -0.66195565 -0.5898123 -0.5153899 -0.2643698
000160 53 a6 64 be ee ad 2d bf 1e a7 6c be 95 e8 00 bf
       -0.22329073 -0.6784352 -0.23110625 -0.5035489
000170 0a 3f 00 bf 48 4b 2c bf 4f 8e 50 bf a2 53 33 bf
       -0.5009619 -0.6730237 -0.81467146 -0.7004949
000180 e4 67 d0 be ef 80 aa 3c 34 2e 05 bf db 15 4f bf
       -0.40704262 0.020813433 -0.52023625 -0.80892724
000190 ea 01 08 bf f1 c4 bb be 37 6c 15 bf 03 b8 af be
       -0.5312792 -0.36673692 -0.5836825 -0.34320077
0001a0 03 34 da be 3e 9a 68 bf 03 b2 25 bf f9 80 3e bf
       -0.42617807 -0.90860355 -0.6472475 -0.74415547
0001b0 49 30 a1 be c6 81 19 bf 6c fe 47 bf b3 c4 bf 3e
       -0.3148215 -0.59963644 -0.7812259 0.37454757
0001c0 52 42 1d bf 16 b9 51 3c 8f 44 57 3e 86 89 41 bf
       -0.6142932 0.012800476 0.21022247 -0.7560047
0001d0 7c a8 94 be 23 90 1d be 06 f5 51 3c 52 f7 11 bf
       -0.29034793 -0.15387015 0.012814766 -0.57018006
0001e0 f3 d3 f6 be 40 27 14 bf cd 00 e2 be 43 fc f4 be
       -0.4820858 -0.5787239 -0.44141236 -0.4784871
0001f0 d3 10 2b bf 0e 1d 16 bf 7c f5 46 bf 36 f4 5d be
       -0.66822547 -0.58638084 -0.7771833 -0.2167519
000200 e4 c7 ba be 7e ab 77 3e b9 22 41 be 8c 97 f1 be
       -0.3648063 0.24186513 -0.18860902 -0.47185934
000210 5a e5 22 be 70 f9 ab be 4c 17 b3 be 0d f3 b5 be
       -0.15907803 -0.33588743 -0.34978712 -0.35536996
000220 52 6c d6 be de 7d 8d be 9c 82 c9 be 7f 82 3b be
       -0.41879517 -0.27635092 -0.3935746 -0.18311499
000230 84 3f 97 be db be 45 3d bc 3b 93 be 80 b7 a8 be
       -0.29540646 0.048277717 -0.2875651 -0.329525
000240 c7 5c af be e8 31 b3 be 19 a3 48 bd 5c 8b 34 3c
       -0.3425047 -0.34999013 -0.048983667 0.011019554
000250 ca 3c 88 bc ff d3 9f be 6c ca c5 be 7a d5 97 be
       -0.016630549 -0.31216428 -0.38630998 -0.29655057
000260 4f 80 8a bd 6c 04 b2 be 38 77 55 be 53 c9 6c be
       -0.06762754 -0.34769 -0.2084626 -0.23123674
000270 fd af d3 be 1f e7 c2 be 70 5f af be 10 90 2b be
       -0.41345206 -0.38066956 -0.342525 -0.16754174
000280 13 76 e4 be 69 df 6c be a0 a2 09 bf c4 ae a4 be
       -0.44621333 -0.23132099 -0.5376377 -0.32164586
000290 20 e2 50 be d4 e0 af be 09 01 e2 be b4 bc 8c be
       -0.2039876 -0.34351218 -0.44141415 -0.2748772
0002a0 dd 46 b6 be 18 16 d4 be 11 f4 b5 be 11 eb cd be
       -0.3560094 -0.41423106 -0.3553777 -0.40218404
0002b0 5c 4e bb be f3 b3 86 bd b9 b5 f3 be 92 2d ae be
       -0.3658322 -0.06577291 -0.4759958 -0.34019142
0002c0 35 5b aa be 96 37 3e be 3c 02 85 be fd 3a 11 bf
       -0.3327271 -0.18575892 -0.25978267 -0.56730634
0002d0 c0 00 29 bf 83 dd e3 be 4d bd 69 be f7 0e 6e be
       -0.6601677 -0.44504938 -0.22826119 -0.23247896
0002e0 17 e2 ef be d5 98 01 bf 5a ee 0c be ff 90 96 be
       -0.4685218 -0.5062383 -0.13762799 -0.29407498
0002f0 d9 8e a6 be a8 3d de be f2 81 5d bd 9a 92 4e be
       -0.3253086 -0.43406415 -0.054079004 -0.20173112
000300 8a 3e ad be 8f f3 e4 be c8 a0 81 be 3f 33 9a be
       -0.33836776 -0.4471707 -0.2531798 -0.30117223
000310 b2 e8 8a be 48 06 4f be 11 7b 9e be a6 c8 9d bd
       -0.27130657 -0.2021724 -0.30953267 -0.07704286
000320 79 7d 7d 3f 9a 70 8e be 80 0d c0 be 8b a0 dd be
       0.9901958 -0.27820283 -0.375103 -0.43286547
000330 c1 c0 81 3c 09 0b ba be e8 5f d9 be 9f d2 b2 3e
       0.015838983 -0.36336544 -0.42455983 0.34926316
000340 d7 36 8b bd bf 96 9a be 3f db 91 be 64 5d 4b bd
       -0.06797569 -0.30193135 -0.28487584 -0.04964961
000350 ad 3e d6 be c8 d7 54 be 11 86 6f be 86 cc 8b be
       -0.41844693 -0.20785439 -0.23390986 -0.27304476
000360 62 3e f4 be 35 d7 70 be b9 2f 43 3e 73 5e de bd
       -0.47703844 -0.23519595 0.19061173 -0.108578585
000370 f0 b0 80 be 5a 86 a9 be fd d8 ab be a8 0d a5 be
       -0.25134993 -0.33110315 -0.33563986 -0.3223698
000380 38 71 66 be c0 7a cd be ea f9 c7 be 02 b7 e8 be
       -0.22504127 -0.40132713 -0.39057857 -0.45452124
000390 f5 a3 ad be 64 6c b9 be e3 38 2e be ab 12 ed be
       -0.33914152 -0.36215508 -0.17013888 -0.46303305
0003a0 04 c2 9a be 54 20 b1 be d0 66 d5 be 13 54 a2 be
       -0.30226147 -0.34594977 -0.41680002 -0.3170477
0003b0 27 93 70 be e6 34 1a bf a7 fb a1 be 57 48 12 3f
       -0.23493634 -0.60236967 -0.31637308 0.5714163
0003c0 90 38 b3 bc 35 9b fc 3d 1c 6f 43 3f 43 9b 90 be
       -0.021877557 0.12334291 0.76341414 -0.28243455
0003d0 49 ab 00 be 21 c3 df be fc ce 95 3e c0 65 85 be
       -0.1256534 -0.4370356 0.2925948 -0.26054192
0003e0 a2 40 a4 be 2b 4a 2a be 83 6c c0 3e 38 93 b9 be
       -0.3208056 -0.16629855 0.37582788 -0.36245131
0003f0 d9 ef bb be 09 67 c1 be be 5d 03 bf 4e 68 84 bd
       -0.36706427 -0.37773922 -0.51314914 -0.06465207
