utils/model_skewed.pth (torch, 801719 bytes, 9 tensors)

lstm.weight_ih_l0 f4 [512, 2]
0	0xbf831f71	-1.024397
1	0xbfbdf2f6	-1.4839771
2	0xbfab6889	-1.3391277
3	0xbfaa3962	-1.3298762
4	0xbfaf4268	-1.369214
5	0xbfd686c5	-1.6759878
6	0xbe9e78a7	-0.30951425
7	0xbf8ce338	-1.1006842
8	0xbfa0f60f	-1.2575091
9	0xbfb7065f	-1.4298819
10	0x3e9c6066	0.30542296
11	0xbf6c0e42	-0.92209256
12	0xbf4c9985	-0.7992175
13	0xbf9dbf4a	-1.2324002
14	0xbf9172a5	-1.1363112
15	0xbf96ad92	-1.177172
16	0xbfcb4d5d	-1.5882984
17	0xbfa9c576	-1.3263385
18	0xbf1761d7	-0.59133667
19	0xbf42c8e1	-0.76087767
20	0xbfa35008	-1.2758799
21	0xbfac7840	-1.3474197
22	0x3f61f979	0.8827129
23	0x3fd17007	1.6362313
24	0xbf9f1991	-1.2429677
25	0xbf9f39da	-1.243953
26	0xbf928a73	-1.1448501
27	0xbf9d278d	-1.2277695
28	0xbebbaacc	-0.36653745
29	0xbec2a0db	-0.38013348
30	0xbf79e311	-0.976121
31	0xbfb928f4	-1.4465623
32	0xbf8fa940	-1.1223526
33	0xbf89de38	-1.0770941
34	0xbf336588	-0.700768
35	0xbf96b0ca	-1.1772702
36	0xbe1ce05a	-0.15319958
37	0x3ddb9e5d	0.10723565
38	0xbf856a88	-1.0423136
39	0xc015ef9a	-2.342749
40	0xbebc3cb9	-0.36765078
41	0x3fb6126c	1.4224372
42	0xbf968f26	-1.1762435
43	0xc0099d60	-2.1502304
44	0xbe7b8216	-0.24561343
45	0xc0136526	-2.3030486
46	0xbfbc15fa	-1.4694207
47	0xc0042da1	-2.065285
48	0x3edbd5d0	0.42936563
49	0x3ff91bb6	1.9461582
50	0xbfa3985f	-1.2780875
51	0xbfce533c	-1.6119151
52	0xbf8f3fb9	-1.1191322
53	0xc0235d16	-2.5525565
54	0xbf57e98c	-0.8434074
55	0xbfa0944a	-1.2545254
56	0x3dc06afc	0.09395406
57	0xc0150981	-2.328705
58	0x3f34087c	0.70325446
59	0xbf985e20	-1.1903725
60	0xbf70a558	-0.94002295
61	0xbf9c4a1d	-1.2210118
62	0xbfa6a793	-1.301989
63	0xbfbf8c97	-1.496478
64	0xbf5f4461	-0.8721371
65	0xc00e8c7d	-2.2273247
66	0xbe13d27d	-0.14435764
67	0x3f9ac3c6	1.2090995
68	0xbf87b143	-1.0600971
69	0xbfe77c13	-1.808474
70	0xbf5c5d36	-0.8607973
71	0xbfc497f6	-1.5358875
72	0xbe2008e1	-0.15628387
73	0xbfff1591	-1.9928457
74	0xbfb0d209	-1.3814098
75	0xbfc30d26	-1.5238388
76	0xbf4238f4	-0.75868154
77	0xbf96bae9	-1.177579
78	0xbfd0b29a	-1.6304505
79	0xbfae308f	-1.3608569
80	0xbf95b926	-1.1697128
81	0xbfed2a96	-1.8528621
82	0xbf9f5a6d	-1.2449471
83	0xbfe96b14	-1.8235803
84	0xbfc6400f	-1.5488299
85	0xbfc4283f	-1.5324782
86	0x3edb7980	0.42866135
87	0xbf2d2747	-0.6763806
88	0xbd0de586	-0.03464272
89	0xbf64392f	-0.89149755
90	0x3f39a284	0.72513604
91	0x3f991873	1.1960586
92	0xbf63918f	-0.8889398
93	0xbfe6cf5a	-1.8032029
94	0xbefa739d	-0.4891633
95	0x40440a39	3.063124
96	0xbf218028	-0.63086176
97	0xc04e12db	-3.2199008
98	0xbf66df14	-0.9018414
99	0xbfa1742c	-1.2613578
100	0xbfa63000	-1.2983398
101	0xbf87914c	-1.0591216
102	0xbfa1e95a	-1.2649338
103	0xbfd6a578	-1.6769247
104	0x3f159476	0.5842966
105	0xbc5907eb	-0.013246517
106	0xbf885636	-1.065131
107	0xbface8b3	-1.3508514
108	0xbfd36fe1	-1.6518518
109	0xbfcac197	-1.5840329
110	0xbf3a76f7	-0.72837776
111	0xbf8d916f	-1.1060008
112	0xbfb46370	-1.4092846
113	0xbf756300	-0.95854187
114	0xbf938bb8	-1.1527014
115	0xbf9eb46d	-1.2398812
116	0xbfa6a6ae	-1.3019617
117	0xbf8def0f	-1.108858
118	0x3d3033c4	0.043018118
119	0x3e9bfc02	0.30465704
120	0xbf837fe8	-1.0273409
121	0xbfbbe451	-1.4679052
122	0xbe5dc37d	-0.21656604
123	0x3e137103	0.1439858
124	0xbf69c313	-0.91313285
125	0xbfb6e4da	-1.428859
126	0xbf5d47da	-0.8643776
127	0xbfc88c82	-1.566788
128	0xbf1288d3	-0.5724003
129	0xbf4e2ba6	-0.8053535
130	0x3c55870d	0.013032687
131	0xbf0c9f0c	-0.54930186
132	0xbf9fbaa8	-1.2478838
133	0xbfdc927b	-1.7232202
134	0x3dd40e65	0.10354308
135	0x3f89a7b7	1.0754308
136	0x3f64f988	0.89443254
137	0x3e6aeddb	0.22942297
138	0xbf95420e	-1.1660783
139	0xbfaa8f1b	-1.3324922
140	0xbf886bd8	-1.0657911
141	0xbfa8845a	-1.316539
142	0xbf8391a4	-1.0278821
143	0xbfa9f647	-1.3278283
144	0xbfa47ec2	-1.2851183
145	0xbfa43756	-1.2829387
146	0xbf99d4a7	-1.2018021
147	0xbfb38980	-1.4026337
148	0xbf901cca	-1.1258786
149	0xbf63c47b	-0.8897168
150	0xbf7dddb9	-0.99166447
151	0xbf8b8a36	-1.0901554
152	0xbfa86660	-1.3156242
153	0xbfcdaa0f	-1.6067523
154	0xbf9881c9	-1.1914607
155	0xbf726a8f	-0.94693846
156	0xbfb0eb00	-1.3821716
157	0xbec821dd	-0.39088336
158	0x3e8dc173	0.27686653
159	0xbfe2c325	-1.7715803
160	0xbf9aacf7	-1.2084035
161	0xbf8c0de7	-1.0941743
162	0x3f5ee194	0.87062955
163	0xbcbd79e7	-0.023129417
164	0xbf69372c	-0.9109981
165	0xbfdaae68	-1.7084475
166	0xbf940047	-1.1562585
167	0xbf833ea3	-1.025349
168	0x3d3cebb1	0.04612321
169	0xc014718c	-2.3194304
170	0xbf46adbe	-0.7760886
171	0xbfb0fd26	-1.3827255
172	0xbfacf068	-1.3510866
173	0xbfcf9886	-1.6218421
174	0xbf44a2f4	-0.76811147
175	0x3d057373	0.032580804
176	0x3f09f3ee	0.5388783
177	0xbf88c299	-1.0684386
178	0xbfb3e786	-1.405503
179	0xbfb99ac2	-1.4500353
180	0xbfbeb0c5	-1.4897696
181	0xbfbc46de	-1.4709127
182	0x3efe2422	0.49636942
183	0x3f6402dc	0.89066863
184	0x3f5181b1	0.8183852
185	0xbf14b20e	-0.5808419
186	0xbf2eb230	-0.6824064
187	0xbf8ebda7	-1.1151627
188	0xbf9c72b0	-1.22225
189	0xbfeed1c3	-1.8657764
190	0xbe257330	-0.16157222
191	0xc011fce0	-2.2810593
192	0xbf173073	-0.590583
193	0xc03c61e3	-2.9434745
194	0xbf36ab45	-0.71355087
195	0xc02bd6e4	-2.684991
196	0xbf86cfee	-1.0532205
197	0xbff81371	-1.9380933
198	0xbd814eb8	-0.063138425
199	0xc01decab	-2.46757
200	0x3ed88337	0.4228761
201	0x3f5b623a	0.85696757
202	0xbcd957c4	-0.026531108
203	0xbf696fb7	-0.9118609
204	0xbf2aed5b	-0.66768426
205	0xc02d5f9e	-2.708961
206	0xbf891958	-1.0710859
207	0xbeba73cb	-0.36416468
208	0xbfddb893	-1.7321953
209	0xbf9678dc	-1.1755633
210	0xbf4f610e	-0.8100747
211	0xc0051031	-2.0791132
212	0xbf8fe3d4	-1.1241403
213	0xc019b447	-2.4016283
214	0xbfc142aa	-1.5098469
215	0xbf5389c7	-0.82632107
216	0xbf94de8e	-1.1630418
217	0xbfbed846	-1.4909751
218	0xbea4be56	-0.32176465
219	0xbfbe8257	-1.4883527
220	0xbfa99314	-1.324801
221	0xbfce1909	-1.610139
222	0xbf5896bd	-0.8460501
223	0xbfc2117d	-1.5161587
224	0xbf8d2b1d	-1.1028782
225	0xc002bd48	-2.0428028
226	0xbf9ce946	-1.2258689
227	0xbf1287c8	-0.57238436
228	0x3e3f6797	0.1869186
229	0x3f341627	0.703463
230	0x3f5d1360	0.8635769
231	0x3f8c95de	1.0983236
232	0xbf67a6c8	-0.90488863
233	0xbf92b736	-1.1462162
234	0xbfc26396	-1.5186641
235	0xbfb15826	-1.3855026
236	0x3e9672c1	0.29384425
237	0xbf29f32c	-0.66386676
238	0xbf9a85ee	-1.2072122
239	0xbf87b0e5	-1.0600859
240	0xbfc6e147	-1.5537499
241	0xbfa7ab65	-1.309918
242	0xbf942a66	-1.1575439
243	0xbfd755dd	-1.6823078
244	0xbf77bdbe	-0.967739
245	0xbf804bcc	-1.0023131
246	0xbf0aee91	-0.54270273
247	0xbf8f672d	-1.1203362
248	0xbf9cfc00	-1.2264404
249	0xbfbc4a91	-1.4710256
250	0xbfb97e0a	-1.4491589
251	0xbfa1d5aa	-1.264333
252	0xbf6d21d7	-0.9262976
253	0xbfa631b0	-1.2983913
254	0xbf4323d6	-0.76226556
255	0xbf5c7873	-0.8612129

lstm.weight_hh_l0 f4 [512, 128]
0	0x3eb3cd3c	0.3511752
1	0x3d2a10e6	0.04152002
2	0xbed8efe8	-0.42370534
3	0xbf4c1f96	-0.79735696
4	0xbe565982	-0.20932582
5	0xbf00405d	-0.5009821
6	0x3e52d4d7	0.20589004
7	0xbe051ea7	-0.12999974
8	0xbdb880b0	-0.0900892
9	0xbeb76752	-0.35821015
10	0x3f27eb17	0.65593094
11	0x3ed3b43c	0.41348445
12	0x3ddd9f2e	0.10821377
13	0xbd1fde89	-0.039030585
14	0xbcad5bcb	-0.021161934
15	0xbebc2876	-0.3674962
16	0x3e38b45f	0.18037556
17	0x3dfa6d59	0.12227888
18	0xbeeb5ff8	-0.45971656
19	0xbdf68ef0	-0.12038982
20	0xbeca79e8	-0.39546132
21	0xbef925be	-0.48661608
22	0x3f08891d	0.5333422
23	0xbce1deec	-0.027572118
24	0x3f34f780	0.70690155
25	0xbebd3a51	-0.36958554
26	0xbe94dc49	-0.29074314
27	0xbe922161	-0.2854109
28	0x3f2666f2	0.6500083
29	0xbf9a4678	-1.2052755
30	0xbeff5fd4	-0.498778
31	0xbe482e3e	-0.1954889
32	0xbe164189	-0.14673437
33	0x3ec2fdd8	0.38084292
34	0xbdeb6dcb	-0.11495551
35	0x3ddaf3c0	0.10691023
36	0xbe13f5c5	-0.14449222
37	0x3ef7ff0b	0.4843677
38	0xbdf83646	-0.12119727
39	0xbe42ca02	-0.19022372
40	0x3e84c2b9	0.25929812
41	0xbd47b9c1	-0.048761133
42	0x3e297444	0.16548258
43	0xbec4c6d7	-0.38432953
44	0xbc68b6e2	-0.014203759
45	0xbf2c9dc7	-0.6742825
46	0x3edff450	0.43741083
47	0xbeb1e48f	-0.3474469
48	0x3f500f54	0.8127339
49	0xbeda8b5a	-0.42684442
50	0x3e04f8de	0.1298556
51	0x3c1dede3	0.009639236
52	0x3f6061ae	0.8764905
53	0x3db3fc4d	0.08788357
54	0x3e3cd661	0.18441154
55	0xbeb8ba3a	-0.3607958
56	0xbe875c83	-0.26437768
57	0xbd5cc9a7	-0.05390325
58	0xbc54c7e5	-0.012987112
59	0xbe1fcdfb	-0.15605919
60	0x3ec9f74b	0.39446482
61	0xbf187daa	-0.5956675
62	0x3d16df25	0.0368339
63	0x3e179e2e	0.14806435
64	0xbe54ab7a	-0.20768538
65	0xbdc7e88f	-0.09761154
66	0xbf1597a5	-0.58434516
67	0x3f31cf83	0.6945726
68	0x3f5878cd	0.8455933
69	0xbd8d7ecb	-0.069089495
70	0x3ed1f9e6	0.4101097
71	0x3ededb50	0.43526697
72	0xbd7cca62	-0.061716445
73	0xbd8459f1	-0.064624675
74	0x3e85dca7	0.26144907
75	0xbf0a545a	-0.5403496
76	0x3ec2a577	0.38016865
77	0xbe985bad	-0.29757443
78	0xbdc50dd3	-0.096217774
79	0xbf1989e0	-0.59976006
80	0xbe5f9e06	-0.21837625
81	0x3dda931e	0.106725916
82	0x3e080500	0.13283157
83	0xbbb4f0b6	-0.005521859
84	0xbf2a0b7d	-0.6642378
85	0xbea8c8ec	-0.3296579
86	0xbdf9965f	-0.12186884
87	0xbefeff51	-0.49804166
88	0xbf5cb0a9	-0.8620706
89	0xbdf8f697	-0.12156408
90	0x3de064f5	0.10956756
91	0xbef253c2	-0.47329527
92	0xbdd55fed	-0.10418687
93	0xbec5026d	-0.38478413
94	0xbebc0b7a	-0.36727506
95	0xbf04c95d	-0.51869756
96	0x3e29dbe3	0.16587786
97	0xbedfbb40	-0.43697548
98	0x3e74ec9d	0.23918386
99	0x3f39d582	0.7259141
100	0xbd218d97	-0.03944167
101	0x3ef1a9f6	0.47199982
102	0xbee2e360	-0.44314098
103	0x3e81f696	0.25383443
104	0xbcef27b4	-0.029193737
105	0xbe556687	-0.20839892
106	0xbe0f3b3f	-0.13987444
107	0x3df7667b	0.120800935
108	0x3d10e6f8	0.03537652
109	0x3f38d8f3	0.7220604
110	0x3de59c47	0.11211448
111	0x3ebbba5a	0.36665612
112	0x3de1fe47	0.11034828
113	0x3edc6123	0.4304286
114	0x3f3f0be9	0.7462755
115	0xbebf3a4f	-0.37349173
116	0x3ca04191	0.019562514
117	0xbebc2607	-0.36747763
118	0xbf915657	-1.1354474
119	0xbe1fe868	-0.15616
120	0xbe4a41dc	-0.19751686
121	0x3ecf756d	0.40519276
122	0x3dca31b9	0.09872765
123	0x3eca681f	0.39532563
124	0x3c5ef8da	0.0136091355
125	0xbe51aeb3	-0.20476799
126	0xbde5927f	-0.112095825
127	0x3dabe4dd	0.083932616
128	0x3e107bd3	0.14109735
129	0x3d57332a	0.05253903
130	0xbd2f1f18	-0.042754263
131	0xbe591a7b	-0.21201508
132	0xbe327ae4	-0.17429692
133	0x3f00f913	0.5038006
134	0x3eac137c	0.33608615
135	0x3d6c8f33	0.057753753
136	0xbdb6d7ba	-0.08927865
137	0x3e3649ab	0.1780154
138	0x3f434f26	0.76292646
139	0x3edf5814	0.43621886
140	0xbdcf89d2	-0.10133709
141	0x3c9fac13	0.019491231
142	0x3dfcac5a	0.12337561
143	0xbec72198	-0.38892817
144	0x3e76e047	0.24108993
145	0x3d273ecf	0.040831383
146	0xbf35c530	-0.7100401
147	0xbe77a6b9	-0.24184693
148	0xbed802b1	-0.42189553
149	0xbed024fa	-0.4065321
150	0x3f3f252f	0.7466611
151	0xbc29c597	-0.0103620505
152	0x3f32fc9d	0.6991671
153	0xbe99fcb7	-0.3007562
154	0xbe98bdd5	-0.2983233
155	0xbe19ddca	-0.15026012
156	0x3f16fcc2	0.5897943
157	0xbf2c2477	-0.6724314
158	0xbedfb3d5	-0.43691888
159	0x3e34a518	0.17641103
160	0xbe91b4cc	-0.2845825
161	0x3f01e50e	0.50740135
162	0xbeb39e28	-0.350816
163	0x3e515208	0.20441449
164	0xbec57d40	-0.3857212
165	0x3ecf0b6e	0.40438408
166	0xbe3b493b	-0.18289654
167	0xbd5dc6d0	-0.05414468
168	0x3e140e06	0.14458475
169	0x3d122ba7	0.03568616
170	0x3dd64f47	0.1046434
171	0xbf2a7f8d	-0.6660088
172	0xbf0cd82c	-0.5501735
173	0xbf2f21c0	-0.68410873
174	0x3e8d04ee	0.27542824
175	0xbe4a2d5d	-0.19743867
176	0x3f84c026	1.0371139
177	0x3d8db619	0.06919498
178	0xbd8f0c77	-0.06984799
179	0x3e7abfb2	0.24487188
180	0x3eeea601	0.46611026
181	0xbd4279de	-0.047479503
182	0x3e4d66f4	0.20058805
183	0xbdccfdd3	-0.10009351
184	0xbe17efaa	-0.14837518
185	0xbe4619a8	-0.19345725
186	0xbe47b79f	-0.1950364
187	0xbdc15fbf	-0.0944209
188	0x3ed58bff	0.4170837
189	0xbeac082a	-0.3359998
190	0x3e04119c	0.12897342
191	0x3c5aa3b7	0.013344697
192	0xbbbd07b8	-0.0057687424
193	0x3ed252eb	0.41078886
194	0xbecb8cb6	-0.3975579
195	0x3f13da86	0.57755315
196	0x3f5764a9	0.8413797
197	0xbe39dcc9	-0.18150629
198	0x3e8b8d89	0.2725642
199	0x3e744bca	0.23857036
200	0x3d01d683	0.031698715
201	0xbe8d305b	-0.27575955
202	0xbd0c07af	-0.034187015
203	0xbeaad216	-0.33363408
204	0x3e3b4e55	0.182916
205	0xbeb3d3d8	-0.3512256
206	0xbe91b7df	-0.28460595
207	0xbf5d0bfb	-0.86346406
208	0xbc577a5d	-0.013151732
209	0x3f81f5c9	1.0153133
210	0x3e397bea	0.18113676
211	0xbca9e649	-0.020739691
212	0xbf1a17d5	-0.60192615
213	0xbea1b1b6	-0.31580895
214	0xbd7802ae	-0.06054943
215	0x3ce3d921	0.027813496
216	0xbf24196d	-0.64101297
217	0x3d1dba48	0.03850773
218	0x3d2e0d0c	0.04249291
219	0xbeb8d4a2	-0.36099726
220	0xbe6774a3	-0.22603087
221	0xbd5d4fa3	-0.054031026
222	0x3dc85a0e	0.097828016
223	0xbf56ab0f	-0.83854765
224	0x3f11f3c8	0.57012606
225	0xbf0a8ae2	-0.5411817
226	0x3f25b151	0.6472369
227	0x3f9378d0	1.1521244
228	0xbec658d8	-0.38739657
229	0x3f0f62fb	0.5601041
230	0xbed712da	-0.4200657
231	0x3e386f8c	0.18011302
232	0xbda25f8b	-0.079283796
233	0xbecfbbe1	-0.40573028
234	0xbe328aa9	-0.17435707
235	0x3e55ef4e	0.20892069
236	0x3e434f27	0.19073163
237	0x3f0c922d	0.54910547
238	0x3e03bebf	0.12865733
239	0x3dbff0bd	0.09372089
240	0xbda89e40	-0.08233309
241	0xbcad1bbb	-0.021131387
242	0x3f0828bf	0.53187174
243	0xbf1d9f4b	-0.61571187
244	0xbeba462b	-0.3638166
245	0xbe81a3be	-0.25320238
246	0xbf8240ca	-1.0176022
247	0xbdc5300c	-0.09628305
248	0xbe4ffa94	-0.20310432
249	0x3f0ec217	0.5576491
250	0x3de71ba5	0.1128457
251	0x3e811587	0.25211737
252	0xbe1c6b89	-0.15275396
253	0xbd1d0a22	-0.03833974
254	0xbdb5ba8a	-0.0887347
255	0x3e55bac1	0.20872022

lstm.bias_ih_l0 f4 [512]
0	0xbf8892af	-1.0669764
1	0xbf8470fd	-1.0346981
2	0xbf84e171	-1.0381299
3	0xbef3ce59	-0.47618368
4	0xbfaefc47	-1.3670739
5	0xbe7245ca	-0.23659435
6	0xbf6f2131	-0.9341002
7	0xbf80fc37	-1.007697
8	0xbf847e09	-1.0350963
9	0xbefffc5c	-0.49997222
10	0xbf90f8ce	-1.1325929
11	0x3f488929	0.7833429
12	0xbf7ad43c	-0.97980094
13	0xbf8d3773	-1.1032547
14	0x3e50bdc9	0.20384897
15	0xbf5b787d	-0.85730726
16	0xbf5c6547	-0.86092037
17	0xbf54a404	-0.8306277
18	0xbdd74172	-0.105105296
19	0xbf7a2ba1	-0.9772282
20	0xbf057423	-0.52130336
21	0xbf7ad522	-0.97981465
22	0x3d23057e	0.03980016
23	0xbf902550	-1.1261387
24	0x3ed2c10b	0.41162905
25	0xbf656ec1	-0.8962212
26	0xbf6e5637	-0.93100303
27	0xbf8207ac	-1.0158591
28	0x3ed4e295	0.41579118
29	0x3fa418ce	1.282007
30	0xbf5fef48	-0.8747449
31	0xbf9c7909	-1.2224437
32	0xbf24835c	-0.6426294
33	0xbed97638	-0.42473006
34	0xbf86147f	-1.0475005
35	0xbf5da890	-0.8658533
36	0xbf57ba3c	-0.84268546
37	0xbf982593	-1.1886467
38	0xbe95f8ec	-0.29291475
39	0xbf949661	-1.1608392
40	0xbf94e106	-1.1631172
41	0xbf9b8657	-1.2150372
42	0xbf9cca2f	-1.2249202
43	0x3efbb248	0.49159455
44	0x3b14cbbe	0.0022704448
45	0x3e7dab7c	0.24772447
46	0xbf1ce050	-0.61279774
47	0xbf0276e0	-0.5096264
48	0xbea230ca	-0.31677848
49	0xbf87cbe3	-1.0609096
50	0xbf8940d6	-1.0722911
51	0xbf9df20c	-1.2339492
52	0x3f425fd6	0.75927484
53	0xbf9b55e2	-1.2135584
54	0xbf794735	-0.9737428
55	0xbf4af16b	-0.79274625
56	0xbf80c926	-1.0061386
57	0xbf9ae2c8	-1.2100458
58	0xbf8ecc04	-1.1156011
59	0x3dc1c4b5	0.09461347
60	0xbf385bd3	-0.7201511
61	0x3e2a8de6	0.16655692
62	0xbf89b388	-1.0757914
63	0xbf5680ab	-0.8379008
64	0xbe6c199c	-0.23056644
65	0xbe80e4df	-0.25174615
66	0xbf754544	-0.95808816
67	0xbdf07765	-0.11741523
68	0x3ff2fd48	1.8983545
69	0xbf87eaf9	-1.0618583
70	0xbf6f72f5	-0.93534786
71	0xbf7f7a94	-0.99796414
72	0xbf93bcde	-1.1542013
73	0xbf4bcd07	-0.7960972
74	0xbf7f4b16	-0.9972395
75	0xbf6122f9	-0.8794399
76	0xbf0e60f6	-0.556167
77	0xbf6e3e0b	-0.9306342
78	0xbf68a77e	-0.9088057
79	0x3e6d792f	0.23190759
80	0xbf924c68	-1.1429567
81	0x3ea76fe8	0.32702565
82	0xbf810d81	-1.0082246
83	0xbfa80ff6	-1.3129871
84	0x3dd560d5	0.1041886
85	0xbead1010	-0.33801317
86	0xbf8caa66	-1.0989501
87	0xbf4022fe	-0.75053394
88	0x3f22489b	0.6339204
89	0xbf9e65d1	-1.2374822
90	0xbf6e5bdb	-0.9310891
91	0xbe30b773	-0.1725748
92	0x3f4d991f	0.8031177
93	0xbf571cc6	-0.8402828
94	0xbf99607a	-1.1982567
95	0x3dd2b45e	0.102883086
96	0xbf526d59	-0.821981
97	0xbf2768ec	-0.65394473
98	0xbf555ffc	-0.83349586
99	0x3bbdb3d8	0.0057892613
100	0x3f353214	0.7077954
101	0x3e85f87a	0.26166135
102	0xbf2428a5	-0.6412452
103	0xbe91ed19	-0.28501204
104	0xbf9335c2	-1.150078
105	0xbf768bd0	-0.96307087
106	0xbf84e1de	-1.0381429
107	0xbf949137	-1.1606816
108	0xbf5f7946	-0.87294424
109	0xbe222fc6	-0.15838537
110	0xbf90cafb	-1.1311945
111	0xbf418091	-0.755868
112	0xbf6790cd	-0.90455323
113	0xbfb0d98c	-1.381639
114	0x3eb5eaf4	0.35530818
115	0x3f39593d	0.7240179
116	0xbf37df76	-0.7182535
117	0xbf8535f8	-1.0407095
118	0x3f856cbe	1.042381
119	0xbf73f063	-0.95288676
120	0xbfc0fc11	-1.5076925
121	0xbf2d9cb1	-0.6781722
122	0xbf0f1384	-0.55889153
123	0xbf21e2a4	-0.6323645
124	0xbfaeb6aa	-1.3649495
125	0xbfa45f23	-1.2841533
126	0xbf54e74e	-0.8316544
127	0xbf7f69a7	-0.9977059
128	0xbf24bd76	-0.64351594
129	0xbf1f08c3	-0.62122744
130	0xbf0e69d5	-0.55630237
131	0x3e522901	0.20523454
132	0xbf1b57e7	-0.60681003
133	0xbf47b25e	-0.7800654
134	0xbf125651	-0.5716296
135	0xbf1d4472	-0.61432564
136	0xbf2c735c	-0.67363524
137	0xbf2bf73e	-0.67174137
138	0xbf0f2dff	-0.5592956
139	0x3f060e1d	0.52365285
140	0xbf1161e6	-0.56790006
141	0xbf16b99c	-0.5887697
142	0x3f6802e7	0.9062943
143	0xbf310685	-0.69150573
144	0xbe9cad3f	-0.30600926
145	0xbf019cfa	-0.5063015
146	0xbef79e35	-0.4836289
147	0xbf35061f	-0.70712465
148	0xbe9b79e8	-0.30366445
149	0xbede7d33	-0.43454894
150	0xbf0ccdd0	-0.55001545
151	0xbef3f92f	-0.4765105
152	0xbefb1e1e	-0.49046415
153	0xbf33ae0a	-0.7018744
154	0xbf1516e4	-0.58238053
155	0xbf2165c5	-0.63045913
156	0xbe0b9f4f	-0.1363499
157	0x3f197883	0.5994951
158	0xbf03ca5b	-0.51480645
159	0xbf0f7de9	-0.560515
160	0xbf36aad4	-0.71354413
161	0x3d84b62a	0.064800575
162	0xbf025f1f	-0.50926393
163	0xbf368253	-0.7129261
164	0xbf21d739	-0.6321903
165	0xbf0387ce	-0.51379097
166	0xbee08079	-0.43848017
167	0xbec4c0f5	-0.38428465
168	0xbf327bde	-0.69720256
169	0xbf7ceb52	-0.9879657
170	0xbefeb42c	-0.49746835
171	0x3d395fe6	0.04525747
172	0xbf903b3f	-1.126808
173	0xbeaeafca	-0.3411849
174	0xbebfbeee	-0.37450355
175	0xbec31f5f	-0.38109872
176	0xbe8ea9ea	-0.2786401
177	0xbef8cf48	-0.48595643
178	0xbf0a16c5	-0.53940994
179	0xbf37b0ab	-0.7175395
180	0xbd8ce3ff	-0.06879424
181	0xbf0eface	-0.5585145
182	0xbf0e3506	-0.5554966
183	0xbf4b2ab9	-0.79362065
184	0xbed79f97	-0.42113945
185	0xbf517fd0	-0.8183565
186	0xbe86eb5c	-0.2635144
187	0x3efa1504	0.4884416
188	0xbf2a3923	-0.66493434
189	0xbde6f9ba	-0.112781
190	0xbeeb5ae7	-0.4596779
191	0xbd232d8d	-0.039838362
192	0xbeb9d8b8	-0.36298156
193	0x3ef069c8	0.46955705
194	0xbf25303d	-0.6452673
195	0xbf13abcc	-0.57684016
196	0xbc17b871	-0.009260283
197	0xbefc5213	-0.49281368
198	0xbf2f4d51	-0.6847735
199	0xbefa2e6c	-0.48863542
200	0xbea98c8c	-0.3311504
201	0xbec5bd62	-0.3862105
202	0xbea7f3c3	-0.32803163
203	0xbec19c29	-0.37814453
204	0xbecc1da8	-0.39866376
205	0xbf028342	-0.50981534
206	0xbf385a6d	-0.7201298
207	0xbecdc7c7	-0.4019148
208	0xbee68284	-0.4502145
209	0xbf30dece	-0.6908997
210	0xbf0323a7	-0.51226276
211	0xbefc9f7b	-0.49340424
212	0xbe985577	-0.29752705
213	0xbf56b2d6	-0.8386663
214	0xbf04f457	-0.51935333
215	0xbf21af62	-0.6315824
216	0x3ec66a7b	0.38753113
217	0xbecaa6a6	-0.39580268
218	0xbf31a75c	-0.69395995
219	0xbe0200f4	-0.12695676
220	0x3eb8d0b6	0.36096734
221	0xbeb8a6ce	-0.36064762
222	0xbf25945c	-0.64679503
223	0x3dd562ed	0.10419259
224	0xbf38ad4f	-0.7213945
225	0xbf4537bc	-0.7703817
226	0xbf13654a	-0.5757643
227	0xbdaec170	-0.08532989
228	0x3e0b86ea	0.13625684
229	0x3da1bc31	0.07897223
230	0xbe8bbae2	-0.27291018
231	0x3e16456d	0.14674921
232	0xbec91952	-0.3927713
233	0xbf31374d	-0.6922501
234	0xbf586db0	-0.8454237
235	0xbf292143	-0.6606638
236	0xbeaab7fc	-0.33343494
237	0xbf1f98f4	-0.6234276
238	0xbf1ff174	-0.62477803
239	0xbf0f2b5c	-0.55925536
240	0xbf2f4f39	-0.6848026
241	0xbee855c3	-0.4537793
242	0x3e20c5bb	0.15700428
243	0x3f2be28f	0.67142576
244	0xbf499ba4	-0.78753114
245	0xbf2cfc16	-0.6757215
246	0x3ed1e58a	0.40995437
247	0xbf30cab7	-0.6905932
248	0xbf05d6e1	-0.52281004
249	0xbf01fb62	-0.50774205
250	0xbf84938b	-1.0357527
251	0xbf16a1cd	-0.5884064
252	0xbf03714b	-0.51344746
253	0xbec11dde	-0.377181
254	0xbec6538b	-0.38735613
255	0xbf44a587	-0.76815075

lstm.bias_hh_l0 f4 [512]
0	0xbf70e168	-0.9409394
1	0xbf75520c	-0.9582832
2	0xbf94ef4a	-1.1635525
3	0xbec23688	-0.3793223
4	0xbfb1341e	-1.384403
5	0xbe2edf15	-0.17077287
6	0xbf73e363	-0.9526884
7	0xbf71547e	-0.9426955
8	0xbf74d10a	-0.9563147
9	0xbedc415f	-0.43018624
10	0xbf9bc6ee	-1.2170084
11	0x3f4e4694	0.80576444
12	0xbf816024	-1.0107465
13	0xbf8b7636	-1.089545
14	0x3de8cb62	0.11366917
15	0xbf742b89	-0.9537893
16	0xbf451137	-0.7697939
17	0xbf44efd2	-0.76928437
18	0xbd7587cf	-0.05994397
19	0xbf5cb67c	-0.8621595
20	0xbf0423a1	-0.51616865
21	0xbf6914c7	-0.9104733
22	0x3df6b706	0.12046628
23	0xbf95cfd2	-1.1704047
24	0x3ea2f49b	0.31827244
25	0xbf770e8c	-0.9650657
26	0xbf87647d	-1.0577542
27	0xbf7c1045	-0.98462325
28	0x3ed2d708	0.4117968
29	0x3f994361	1.1973687
30	0xbf6b42e2	-0.9189893
31	0xbfa127f7	-1.2590321
32	0xbf163674	-0.5867684
33	0xbea13080	-0.31482315
34	0xbf821d5c	-1.016521
35	0xbf57aa16	-0.84243906
36	0xbf6b9489	-0.9202352
37	0xbf9c68a1	-1.221943
38	0xbebf8e7b	-0.3741339
39	0xbf9503a5	-1.1641737
40	0xbf9a9059	-1.2075301
41	0xbfa9a3bc	-1.3253093
42	0xbf9e1b04	-1.2351995
43	0x3ee84091	0.4536176
44	0xbd6cf4d1	-0.057850663
45	0x3eafcea6	0.34337348
46	0xbf014d58	-0.5050864
47	0xbecf41fb	-0.40480027
48	0xbe549f13	-0.20763807
49	0xbf924ca3	-1.1429638
50	0xbf7d3183	-0.98903674
51	0xbfa3c60c	-1.2794814
52	0x3f5a1bb2	0.8519851
53	0xbf911320	-1.1333961
54	0xbf8d7df9	-1.1054069
55	0xbf5ef439	-0.87091404
56	0xbf8597d9	-1.0436965
57	0xbf9d4dc1	-1.2289354
58	0xbf8b8356	-1.0899456
59	0x3dfc13da	0.12308474
60	0xbf4ed2c7	-0.8079037
61	0x3e2e50ad	0.17022963
62	0xbf83e280	-1.0303497
63	0xbf4d096a	-0.8009249
64	0xbe4cd49e	-0.20002982
65	0xbe5f69db	-0.21817724
66	0xbf6fe67a	-0.93711054
67	0xbe147473	-0.14497547
68	0x3fe03e03	1.7518924
69	0xbf928380	-1.1446381
70	0xbf88e0e2	-1.0693629
71	0xbf68e3da	-0.90972674
72	0xbf8cd764	-1.1003232
73	0xbf6be9f1	-0.9215384
74	0xbf79ce25	-0.97580177
75	0xbf496123	-0.78663844
76	0xbf12af34	-0.5729859
77	0xbf82b8ef	-1.0212687
78	0xbf68d3fe	-0.90948474
79	0x3e2ae304	0.16688162
80	0xbf88a1bd	-1.0674359
81	0x3ee1c7cb	0.44097742
82	0xbf73006a	-0.94922507
83	0xbf9a3842	-1.2048419
84	0x3d24c080	0.040222645
85	0xbebce51a	-0.3689354
86	0xbf8d650d	-1.1046463
87	0xbf16fdc3	-0.5898096
88	0x3f0e11d2	0.5549594
89	0xbf9e924f	-1.23884
90	0xbf7d434b	-0.98930806
91	0xbe5f1e45	-0.2178889
92	0x3f5ea8fb	0.86976594
93	0xbf489a3c	-0.7836034
94	0xbf98142a	-1.1881154
95	0x3def1203	0.11673357
96	0xbf406439	-0.7515293
97	0xbf51f2d8	-0.82011175
98	0xbf49372a	-0.785998
99	0xbd8fc89d	-0.07020686
100	0x3f2be25e	0.67142284
101	0x3eaf6db0	0.34263372
102	0xbf2d25bc	-0.67635703
103	0xbe618445	-0.22023113
104	0xbf9b363f	-1.212593
105	0xbf6d9fca	-0.92821944
106	0xbf7ce3b3	-0.9878494
107	0xbf969b25	-1.1766096
108	0xbf60f59c	-0.8787477
109	0xbe1b2d08	-0.15153897
110	0xbf8841a6	-1.0645034
111	0xbf522c4a	-0.8209883
112	0xbf5e95a6	-0.86947095
113	0xbfa9b857	-1.3259381
114	0x3eb6d2be	0.3570766
115	0x3f3ab216	0.7292799
116	0xbf49c88f	-0.78821653
117	0xbf8a2762	-1.0793269
118	0x3f8b8b0f	1.0901812
119	0xbf7d9930	-0.9906187
120	0xbfc2c019	-1.5214874
121	0xbf33d155	-0.7024129
122	0xbf27b0d4	-0.65504193
123	0xbf21fc9a	-0.63276064
124	0xbfa08890	-1.2541676
125	0xbf9417e5	-1.1569792
126	0xbf5a95c7	-0.8538479
127	0xbf7d73a4	-0.9900458
128	0xbf27ed05	-0.6559604
129	0xbf14ecdd	-0.58173925
130	0xbf1c8cff	-0.6115264
131	0x3e84cc68	0.259372
132	0xbf198536	-0.5996889
133	0xbf5649e9	-0.8370653
134	0xbf200205	-0.6250308
135	0xbf0bee65	-0.54660636
136	0xbf37ae12	-0.71749985
137	0xbf12a07b	-0.57276124
138	0xbeff15b3	-0.49821243
139	0x3f0bbbf1	0.5458365
140	0xbefba820	-0.49151707
141	0xbf265f9b	-0.6498963
142	0x3f4fd791	0.81188303
143	0xbf4e3869	-0.80554825
144	0xbe98bb33	-0.29830322
145	0xbf18e863	-0.59729594
146	0xbf086100	-0.5327301
147	0xbf15aeee	-0.58470047
148	0xbe9fc087	-0.31201574
149	0xbef807d5	-0.48443475
150	0xbed3c377	-0.41360065
151	0xbef4912d	-0.4776701
152	0xbf0b26b1	-0.54355913
153	0xbf2bafa5	-0.6706489
154	0xbf18ff71	-0.5976477
155	0xbef30127	-0.47461817
156	0xbe66693d	-0.22501083
157	0x3f1cffb5	0.6132768
158	0xbf1c7279	-0.6111217
159	0xbf05bf5b	-0.5224511
160	0xbf57c79d	-0.8428896
161	0xbdb6b4bd	-0.08921192
162	0xbf270851	-0.65247065
163	0xbf3f24bf	-0.74665445
164	0xbf368677	-0.7129893
165	0xbf010508	-0.503983
166	0xbef9ad56	-0.48765057
167	0xbf055616	-0.5208448
168	0xbf1e7123	-0.6189138
169	0xbf8ad7b3	-1.0847076
170	0xbf0a73b4	-0.540828
171	0x3e5de9c3	0.21671204
172	0xbf8fa391	-1.1221792
173	0xbe7a78c1	-0.24460126
174	0xbeaf56ed	-0.34246007
175	0xbe6f1c79	-0.23350705
176	0xbe8c65cb	-0.27421412
177	0xbf0c8544	-0.5489085
178	0xbf2be3f9	-0.67144734
179	0xbf44c08a	-0.7685629
180	0xbdabd541	-0.08390284
181	0xbf12f679	-0.5740734
182	0xbef91a27	-0.48652765
183	0xbf2dc416	-0.6787733
184	0xbec99a04	-0.39375317
185	0xbf3aa316	-0.729051
186	0xbe9f5367	-0.31118318
187	0x3eb9e229	0.3630536
188	0xbf3428c6	-0.70374715
189	0xbd343327	-0.043994095
190	0xbf15942c	-0.5842922
191	0xbdcbdc0e	-0.099540815
192	0xbebdac7c	-0.37045658
193	0x3eed0229	0.4629071
194	0xbf3e24b7	-0.7427477
195	0xbf01c646	-0.50693166
196	0x3d2e2518	0.042515844
197	0xbed7ad99	-0.42124632
198	0xbf0be82b	-0.54651135
199	0xbee63fb3	-0.44970474
200	0xbea3ef46	-0.3201849
201	0xbef4952b	-0.47770056
202	0xbecb96ca	-0.3976348
203	0xbedf2376	-0.43581742
204	0xbeb8f777	-0.361263
205	0xbf075654	-0.528661
206	0xbf196142	-0.5991403
207	0xbf013d95	-0.5048459
208	0xbed95cd8	-0.42453647
209	0xbf35fb21	-0.7108632
210	0xbf116836	-0.5679964
211	0xbf09fa87	-0.538979
212	0xbe71776a	-0.23580709
213	0xbf597628	-0.8494592
214	0xbf21eb4e	-0.6324967
215	0xbf0e69a9	-0.55629975
216	0x3eedc077	0.46435902
217	0xbf044a66	-0.51676023
218	0xbf108f9a	-0.5646912
219	0xbe3d9397	-0.18513332
220	0x3e6764bf	0.22597025
221	0xbeeba846	-0.4602682
222	0xbf2ab01f	-0.6667499
223	0x3e163c78	0.14671504
224	0xbf4001dc	-0.7500284
225	0xbf53c59c	-0.827234
226	0xbf013f35	-0.5048707
227	0xbd6d25e1	-0.057897452
228	0x3d69c694	0.057074144
229	0x3df212d4	0.118199974
230	0xbe4279c5	-0.18991764
231	0x3e24d6b1	0.16097523
232	0xbed8490a	-0.42243224
233	0xbf329d55	-0.6977132
234	0xbf544e0d	-0.82931596
235	0xbf1489e6	-0.58022916
236	0xbea4c99c	-0.32185066
237	0xbf2be7e9	-0.6715074
238	0xbf1d6a64	-0.61490464
239	0xbf28a10a	-0.65870726
240	0xbf3c3069	-0.7351137
241	0xbf05f3e1	-0.52325255
242	0x3e1c6361	0.15272285
243	0x3f394f0d	0.72386247
244	0xbf348637	-0.70517296
245	0xbf2de0f2	-0.67921364
246	0x3ed4bd8a	0.41550857
247	0xbf322044	-0.69580483
248	0xbf13aced	-0.5768574
249	0xbf122917	-0.5709395
250	0xbf7de0d2	-0.99171174
251	0xbf2eaf11	-0.6823588
252	0xbf1df3a9	-0.6169992
253	0xbec062db	-0.3757542
254	0xbed4fcfe	-0.41599268
255	0xbf49c7b2	-0.78820336

lstm.weight_ih_l1 f4 [512, 128]
0	0x3df3ee94	0.119107395
1	0x3c5331e3	0.012890312
2	0xbd1510a5	-0.036392827
3	0x3dca9341	0.09891368
4	0x3c59bc0e	0.013289465
5	0x3f8e36d1	1.1110479
6	0x3dfd305d	0.1236274
7	0x3ea79831	0.327333
8	0x3e912051	0.28344968
9	0x3e2cd5a4	0.16878372
10	0x3cd8f7a1	0.026485266
11	0x3f4f8eaf	0.8107709
12	0xbde46369	-0.111517735
13	0xbe36185f	-0.17782734
14	0xbe867946	-0.262644
15	0xbe240d53	-0.16020708
16	0x3e896e71	0.26842073
17	0xbeb7e2f2	-0.35915333
18	0xbec21279	-0.3790472
19	0xbc87110b	-0.016487619
20	0x3e52dd8e	0.20592329
21	0x3d8c3226	0.068455026
22	0xbeed437a	-0.46340543
23	0x3e350368	0.1767708
24	0x3edcc105	0.43116012
25	0xbe16af5e	-0.14715335
26	0x3e2546f7	0.16140352
27	0x3da77f2d	0.08178554
28	0x3e99d77d	0.30047217
29	0x3e114dd7	0.1418985
30	0x3e1e6b16	0.15470538
31	0xbe658224	-0.22412926
32	0xbe1c9b73	-0.15293674
33	0x3f25774a	0.64635146
34	0x3e983d89	0.29734448
35	0xbdd4d332	-0.10391845
36	0xbeede951	-0.4646707
37	0xbdf5a82b	-0.11994966
38	0xbe8bef87	-0.27331182
39	0xbb6338a3	-0.003467121
40	0xbdb1bfd5	-0.08679167
41	0xbe585088	-0.2112447
42	0x3cf41441	0.029794814
43	0xbfe9bb62	-1.826031
44	0xbf581411	-0.8440562
45	0xbe698b29	-0.22806992
46	0x3d8bbf75	0.06823627
47	0x3f6fe905	0.93714935
48	0xbeac5b95	-0.33663622
49	0x3da7acfb	0.0818729
50	0xbe9a2f07	-0.30114004
51	0x3d91b598	0.071147144
52	0xbd6ef4cf	-0.058338936
53	0x3e3f0050	0.18652463
54	0xbda0ebce	-0.07857476
55	0x3d83cffb	0.064361535
56	0xbdf0a5de	-0.11750387
57	0xbe8f75a5	-0.28019443
58	0xbe0ddc8a	-0.1385366
59	0x3e5110c8	0.20416558
60	0xbdd35eab	-0.10320791
61	0x3ddd3501	0.10801125
62	0x3db180dd	0.08667157
63	0x3f1988e4	0.59974504
64	0xbeff7f59	-0.49901846
65	0x3e8224f0	0.25418806
66	0x3ec47f5d	0.3837842
67	0x3f6cf327	0.9255852
68	0x3e6c7f9d	0.23095556
69	0xbcac5911	-0.021038564
70	0xbe985014	-0.29748595
71	0xbd84c936	-0.064836904
72	0x3e94a472	0.29031712
73	0xbd9c0c5d	-0.076195456
74	0x3e15e571	0.14638306
75	0xbe9bffd3	-0.30468616
76	0xbd908934	-0.070574194
77	0x3d2cc8b0	0.042183578
78	0xbea63ece	-0.3246979
79	0xbb914497	-0.0044332254
80	0x3ed1d85b	0.4098538
81	0xbf4e4a15	-0.8058179
82	0xbeb52ba3	-0.35384855
83	0xbd938c48	-0.07204491
84	0x3f0b4645	0.544041
85	0x3eb2487e	0.34820932
86	0xbe308e6b	-0.17241828
87	0x3b580c88	0.0032966454
88	0x3d876ca8	0.066125214
89	0x3df90a4a	0.121601656
90	0xbe655622	-0.22396138
91	0xbfc8b083	-1.5678867
92	0xbeec943c	-0.46206844
93	0x3e283159	0.16425075
94	0xbb623e06	-0.0034521832
95	0x3e950c58	0.2911098
96	0xbdac20e7	-0.08404713
97	0xbfa1c1c0	-1.2637253
98	0xbea492c0	-0.3214321
99	0x3fd319b3	1.6492218
100	0xbefba218	-0.49147105
101	0xbde4eb96	-0.11177747
102	0x3e8531c8	0.26014543
103	0x3f099e98	0.5375762
104	0x3da98478	0.082772195
105	0xbe5e3d12	-0.21702984
106	0xbd5f763d	-0.05455612
107	0x3eaca3fe	0.33718866
108	0xbd2ade83	-0.04171611
109	0xbe361958	-0.17783105
110	0xbe3f1bea	-0.18662992
111	0x3d5ff455	0.054676373
112	0x3e9b3daa	0.30320483
113	0x3e1f9521	0.15584232
114	0x3f264a47	0.6495709
115	0x3d8c04b5	0.06836835
116	0x3d6bfe75	0.057615716
117	0xbe230db3	-0.15923195
118	0x3e07bdc1	0.13255979
119	0xbe9d3f2a	-0.30712253
120	0x3d596983	0.05307914
121	0xbe72892d	-0.23685141
122	0x3e67a2d1	0.22620703
123	0x3f05eaea	0.52311575
124	0xbdabe45d	-0.08393166
125	0xbde728ee	-0.112871036
126	0x3d658d40	0.05604291
127	0xbea40d0c	-0.32041204
128	0x3e0d3bb5	0.13792308
129	0xbdee078e	-0.11622535
130	0xbcf14315	-0.029450933
131	0x3ea35c98	0.3190658
132	0x3cd224d5	0.025652329
133	0xbf9d8f3d	-1.2309338
134	0xbea00a19	-0.31257704
135	0x3ef674ef	0.48136088
136	0x3deabb53	0.114615105
137	0x3e921b01	0.28536227
138	0xbdff4bb1	-0.12465609
139	0x3e5e964e	0.21737024
140	0xbeab103c	-0.33410823
141	0xbe2a4454	-0.16627628
142	0x3e8d7327	0.27626917
143	0x3ed9f09b	0.4256638
144	0x3e3513ec	0.17683381
145	0xbefd052c	-0.49418008
146	0xbea926d5	-0.3303744
147	0xbc133e0a	-0.008986959
148	0x3f688ee4	0.90843034
149	0xbeb07805	-0.34466568
150	0x3cf43a02	0.029812817
151	0xbe532f1a	-0.20623437
152	0xbeb9c441	-0.36282542
153	0xbf302a4a	-0.6881453
154	0x3ed1b94e	0.4096169
155	0xbea27a02	-0.3173371
156	0x3ecebbae	0.40377563
157	0xbd3ebbb2	-0.04656572
158	0x3e225c04	0.15855414
159	0xbd304145	-0.043030996
160	0x3f58d69a	0.84702456
161	0xbf600c92	-0.8751918
162	0xbe86be29	-0.26316956
163	0xbf18e766	-0.59728086
164	0xbf49d470	-0.7883978
165	0x3e52ef4a	0.20599094
166	0x3f2f2ea7	0.6843056
167	0xbd7fb3ae	-0.062427215
168	0xbe40c113	-0.18823652
169	0xbdf203ce	-0.11817132
170	0xbdc7e0bd	-0.09759662
171	0xbf597d0a	-0.8495642
172	0x3f1bf317	0.609178
173	0xbd28b445	-0.041187543
174	0xbf518475	-0.8184274
175	0xbf4a3205	-0.78982574
176	0x3f2b7db0	0.6698866
177	0x3e0f2a4f	0.13980983
178	0xbe007dae	-0.12547943
179	0x3e0ec4af	0.13942216
180	0x3e29b5e4	0.16573292
181	0x3d6c9e0c	0.057767913
182	0x3e3b0345	0.18262966
183	0xbcc42ba4	-0.02394659
184	0xbed8fc6d	-0.42380086
185	0xbed40cad	-0.4141592
186	0xbf303bad	-0.6884106
187	0x3f0e14be	0.555004
188	0x3e81b677	0.25334522
189	0xbf396a2e	-0.7242764
190	0x3e87528b	0.26430163
191	0x3ee6810b	0.45020327
192	0x3f049a45	0.51797897
193	0x3e9c7059	0.30554464
194	0x3dd2b5d0	0.10288584
195	0x3c9b4a10	0.018956214
196	0xbdb4c22d	-0.088260986
197	0xbec7d57c	-0.39030063
198	0xbdf2c235	-0.11853448
199	0x3eace615	0.3376929
200	0x3f5e62d0	0.86869526
201	0xbf027002	-0.5095216
202	0x3e5f0ede	0.21783015
203	0x3da8c74d	0.082411386
204	0x3fbf5724	1.4948468
205	0xbecb0ff5	-0.39660612
206	0xbed6e99e	-0.4197511
207	0xbf110e04	-0.5666201
208	0x3ede86cb	0.43462214
209	0xc0188c3f	-2.38356
210	0x3d84e275	0.06488506
211	0xbed0f013	-0.40808162
212	0x3ef1110f	0.47083327
213	0xbe6d1948	-0.23154175
214	0xbedab507	-0.42716238
215	0xbef4d3d0	-0.4781785
216	0xbecaeb2c	-0.39632547
217	0xbe9d2b2b	-0.30696997
218	0xbf05e751	-0.52306086
219	0xbdb1c0d6	-0.08679359
220	0x3f99d6b1	1.2018644
221	0x3cd3e582	0.025866274
222	0x3e8ee803	0.27911386
223	0xbea7173e	-0.3263492
224	0xbf28175d	-0.6566065
225	0xbeeb17a6	-0.4591648
226	0xbf642a45	-0.89127
227	0x3f00ea31	0.5035735
228	0x3f2bfe71	0.6718512
229	0x3f19855a	0.59969103
230	0x3f2c2f60	0.6725979
231	0xbf74bd56	-0.95601404
232	0xbe179557	-0.14803062
233	0xbf16a60f	-0.58847135
234	0x3f807594	1.0035882
235	0x3ebe3ede	0.3715734
236	0x3e3f498b	0.18680398
237	0x3eb7c9e0	0.35896206
238	0xbecd0507	-0.40042898
239	0x3eb36468	0.3503754
240	0xbeb2f74d	-0.349543
241	0x3f441738	0.7659793
242	0x3ef3d162	0.47620684
243	0xbefc7afa	-0.49312574
244	0xbd388974	-0.04505296
245	0x3d55fe67	0.05224457
246	0x3f1c4997	0.6104979
247	0x3e8ff1dd	0.28114215
248	0x3e8ac77a	0.27105314
249	0x3ca5ed76	0.020254832
250	0xbf165d46	-0.58736074
251	0x3f2f9a22	0.68594563
252	0x3e0f9c61	0.14024498
253	0xbdbc1333	-0.091833495
254	0xbd31b329	-0.04338375
255	0x3db0fd18	0.08642024

lstm.weight_hh_l1 f4 [512, 128]
0	0xbe2b2d14	-0.16716415
1	0xbd991a9a	-0.07475777
2	0xbeb4e70d	-0.35332528
3	0x3e7a6922	0.24454167
4	0x3ddf82e9	0.10913641
5	0x3d6ab129	0.05729786
6	0x3e2dfe16	0.16991457
7	0xbd4e0c83	-0.0503049
8	0x3ed48c08	0.41513085
9	0x3eda7311	0.42665914
10	0x3ecf4e86	0.40489596
11	0xbde7dfe8	-0.113220036
12	0x3dff10e4	0.124543935
13	0xbdf8512e	-0.12124859
14	0xbea6fd5a	-0.32615167
15	0xbdd8ea42	-0.10591556
16	0xbecbb855	-0.39789072
17	0x3de1976a	0.11015208
18	0xbd3ea865	-0.046547312
19	0xbe0708fd	-0.13187023
20	0xbeba261e	-0.36357206
21	0xbaca7b7a	-0.0015448176
22	0xbd66e7bf	-0.056373354
23	0x3dc9e39f	0.098578684
24	0x3d40a67e	0.04703378
25	0xbe6a846a	-0.22902074
26	0x3e09b626	0.1344839
27	0xbe0e8edf	-0.13921688
28	0x3ea978d5	0.331
29	0x3dc43a2e	0.095814094
30	0x3e36961e	0.17830703
31	0x3ec3edd9	0.382674
32	0x3ddebf85	0.10876373
33	0x3e96ef96	0.29479665
34	0x3e823162	0.254283
35	0xbe1eb026	-0.15496883
36	0xbf000ad9	-0.5001655
37	0xbe29a9ca	-0.16568676
38	0xbf1afab7	-0.6053881
39	0xbf7e2f7e	-0.9929122
40	0xbd82aecb	-0.06380995
41	0x3e10c139	0.14136209
42	0xbe3cb76c	-0.18429345
43	0xbea24310	-0.3169179
44	0xbd89c143	-0.06726315
45	0xbe211614	-0.15731078
46	0xbe28621d	-0.16443677
47	0xbf3d0e54	-0.7384999
48	0x3e12c612	0.1433337
49	0xbe074135	-0.13208468
50	0x3d75653d	0.059911
51	0x3d1157eb	0.035484236
52	0xbdd9eab5	-0.1064047
53	0x3d1bd5f9	0.038045857
54	0xbe4fc2e8	-0.20289195
55	0xbe52a78d	-0.20571728
56	0x3e5dfc85	0.2167836
57	0xbdf35f91	-0.11883462
58	0xbeb251f6	-0.34828156
59	0xbd0306f9	-0.03198907
60	0x3e658800	0.22415161
61	0xbd9b7304	-0.07590297
62	0x3d7737e8	0.06035605
63	0x3da6ba50	0.08141005
64	0x3efc257f	0.49247357
65	0x3e07dbbe	0.13267419
66	0x3e921364	0.2853042
67	0xbe69250d	-0.2276804
68	0x3def1d08	0.11675459
69	0xbe96b29b	-0.2943314
70	0x3e1a9b80	0.15098381
71	0x3eafe59e	0.34354872
72	0x3ec0ab62	0.37630755
73	0x3e560dca	0.20903698
74	0x3e74b265	0.23896177
75	0xbec1a6a2	-0.37822443
76	0x3e8fe230	0.28102255
77	0x3e8e65e6	0.27812117
78	0x3df06021	0.11737085
79	0x3d852b98	0.065024555
80	0xbd8a3784	-0.0674887
81	0x3f845ce0	1.0340843
82	0xbe89cf0e	-0.26915783
83	0x3e7812be	0.242259
84	0x3dc7d1fa	0.09756847
85	0xbac750eb	-0.001520661
86	0xbf822db2	-1.0170195
87	0xbf969af8	-1.1766043
88	0x3d5197e2	0.051170237
89	0x3d52fe07	0.05151179
90	0x3ec86279	0.3913763
91	0x3db02bdb	0.08602115
92	0xbe142f2b	-0.14471118
93	0x3eb2aa45	0.3489553
94	0xbe14f635	-0.14547046
95	0x3d28f8d3	0.041252922
96	0xbdc03c85	-0.09386543
97	0x3ed09ca0	0.40744495
98	0xbd01512d	-0.031571556
99	0x3dee3236	0.11630671
100	0xbf53a74d	-0.82677156
101	0x3c3e12d9	0.011601173
102	0xbe6e8113	-0.23291425
103	0x3e510dff	0.20415495
104	0x3e9397ec	0.28826845
105	0xbd00e188	-0.031465083
106	0x3fa0f5f4	1.2575059
107	0x3f075ef2	0.5287925
108	0xbd97a9d5	-0.0740544
109	0xbedff0a5	-0.43738285
110	0xbd05ebe4	-0.032695666
111	0xbdffb893	-0.124863766
112	0xbe1232ac	-0.14277142
113	0x3e821fb4	0.25414813
114	0x3e123518	0.14278066
115	0x3e735902	0.23764423
116	0x3e8af9bc	0.27143657
117	0xbf69137b	-0.9104535
118	0x3d02a5d4	0.031896427
119	0x3f14741b	0.5798966
120	0xbdd4e1da	-0.1039464
121	0xbf2b066c	-0.66806674
122	0xbd2d4502	-0.04230214
123	0x3e40e3f6	0.1883696
124	0xbe9eecef	-0.3104014
125	0xbf632b00	-0.8873749
126	0xbeba41c3	-0.36378297
127	0x3e2f67f8	0.17129505
128	0xbdad9758	-0.08476132
129	0xbf54422b	-0.82913464
130	0x3e70bf87	0.23510562
131	0x3eeff847	0.46869108
132	0xbe3be20d	-0.1834795
133	0x3f5a7726	0.85338056
134	0x3d0498cd	0.032372285
135	0xbee0f69c	-0.43938148
136	0xbe488abc	-0.19584173
137	0x3ec73c1d	0.3891305
138	0x3f2bb206	0.6706852
139	0xbd3b8967	-0.045785334
140	0x3ed8aa88	0.42317605
141	0x3e988317	0.29787514
142	0x3e580c41	0.21098424
143	0x3f4f614e	0.8100785
144	0x3d6a6136	0.057221614
145	0xbf1a1112	-0.601823
146	0xbe8e11ff	-0.27748105
147	0x3dbdd936	0.09269945
148	0xbe9a6214	-0.30152953
149	0x3e4db5a7	0.20088826
150	0x3e5139ee	0.20432255
151	0x3e58b49a	0.21162644
152	0x3e8d2b12	0.27571923
153	0x3ee52b75	0.44759718
154	0xbecb2d19	-0.39682844
155	0x3e4b58b3	0.19858055
156	0xbede45fb	-0.43412766
157	0xbf4aee7b	-0.7927014
158	0xbed9cce5	-0.42539135
159	0x3ee9e1be	0.4568004
160	0x3ece7b63	0.40328512
161	0x3d9f80cc	0.07788238
162	0x3fa1d227	1.2642258
163	0x3f3ebf2c	0.74510455
164	0x3f0b2844	0.54358315
165	0x3d1c69e8	0.038186938
166	0x3ef70638	0.48246932
167	0xbf0c0c3e	-0.5470618
168	0xbeff9a24	-0.49922287
169	0x3e8a63c1	0.2702923
170	0xbe4382bb	-0.19092838
171	0x3f36dabf	0.7142753
172	0xbd3fc540	-0.04681897
173	0xbcbdf1f8	-0.023186669
174	0xbe8830cb	-0.26599726
175	0xbf01e394	-0.5073788
176	0x3e6b10e9	0.2295567
177	0x40056465	2.0842526
178	0xbd1047ef	-0.03522485
179	0xbc8064ae	-0.015673008
180	0x3d3fedc6	0.046857618
181	0x3e4d368b	0.20040338
182	0x3d3c5cb8	0.04598686
183	0x3d98c953	0.074602745
184	0xbe067a2b	-0.13132541
185	0x3e98d061	0.2984648
186	0xbdf6c6f5	-0.12049667
187	0xbf37b544	-0.71760964
188	0xbe87884b	-0.2647117
189	0x3f296955	0.6617635
190	0x3e1565ad	0.14589567
191	0xbf018ad7	-0.5060248
192	0x3f9b9946	1.215615
193	0x3d8cd02c	0.06875643
194	0xbe5125c2	-0.2042456
195	0x3dad66af	0.08466851
196	0xbdedfe92	-0.11620821
197	0xbcd50ec0	-0.02600801
198	0xbe1d4e82	-0.1536198
199	0x3c54b74c	0.0129831545
200	0x3df89a17	0.12138765
201	0xbdcf3075	-0.10116664
202	0x3e6e5578	0.23274791
203	0x3d6aec75	0.05735441
204	0x3ef8c63c	0.4858874
205	0x3e836d48	0.25669312
206	0xbe687ca2	-0.22703794
207	0x3caa59bb	0.02079474
208	0x3e7dbdfb	0.24779503
209	0x3f749995	0.9554685
210	0xbde8d4e7	-0.11368733
211	0x3e9f6467	0.31131288
212	0x3c9cc4d3	0.019136822
213	0xbe30f090	-0.17279267
214	0xbf5c78e9	-0.86121994
215	0x3e8d933f	0.27651402
216	0x3e824154	0.25440466
217	0x3c776695	0.015100141
218	0x3ea9b91a	0.33149034
219	0x3e4f213f	0.20227526
220	0x3e8337fc	0.2562865
221	0x3e24e773	0.16103916
222	0xbdcfc327	-0.10144644
223	0x3f6734c5	0.90314895
224	0xbfcc786d	-1.5974251
225	0xbda3f27a	-0.08005233
226	0x3dc9407b	0.09826752
227	0x3e5e93f8	0.21736133
228	0xbf07fda3	-0.53121394
229	0xbec6e6e6	-0.38848037
230	0xbe4fcfa9	-0.2029406
231	0x3ef1f08c	0.47253835
232	0xbe63e8a2	-0.22256711
233	0xbed5ae02	-0.4173432
234	0x3e0f33b0	0.13984561
235	0xbf51e7c7	-0.8199429
236	0x3e6706c7	0.22561179
237	0xbe90d167	-0.2828476
238	0x3e51c04a	0.20483509
239	0x3c0297c9	0.007970759
240	0xbd200897	-0.039070692
241	0x3e8e8f95	0.2784392
242	0x3e74a54c	0.23891181
243	0x3e49c553	0.1970418
244	0x3eadbeb7	0.33934566
245	0xbf2b93d1	-0.67022425
246	0xbe79b361	-0.24384834
247	0xbe9cc28f	-0.30617186
248	0xbe05ea32	-0.1307762
249	0x3e7200f2	0.23633173
250	0xbd3c41f7	-0.045961346
251	0x3ed1543a	0.40884572
252	0x3e5fa0f9	0.2183875
253	0x3d9d5afd	0.0768337
254	0xbe91c269	-0.28468636
255	0xbeca5a7b	-0.39522156

lstm.bias_ih_l1 f4 [512]
0	0xbf1d7161	-0.6150113
1	0xbecd39f2	-0.4008327
2	0x3df023c5	0.117255725
3	0xbf577d09	-0.84175164
4	0xbf3fca50	-0.7491808
5	0x3db3957e	0.08768748
6	0xbf196a61	-0.59927946
7	0xbec12a2d	-0.3772749
8	0x3e0c74b8	0.137164
9	0xbf392d0d	-0.7233437
10	0xbf60d078	-0.878181
11	0xbf0d7aca	-0.55265486
12	0xbf2689a0	-0.6505375
13	0xbf052ebe	-0.5202445
14	0xbf3b54bf	-0.7317619
15	0xbeccbcc7	-0.39987776
16	0xbeb1479c	-0.34624946
17	0xbf7bb927	-0.98329395
18	0xbf34ef7d	-0.7067793
19	0xbf4841c2	-0.7822534
20	0xbf40e04e	-0.7534226
21	0xbf74a829	-0.9556909
22	0xbf2021d7	-0.62551636
23	0x3e074ede	0.13213679
24	0xbf27b188	-0.65505266
25	0xbca242a0	-0.01980716
26	0xbf0fb831	-0.5614043
27	0xbb4aa4a7	-0.0030920894
28	0x3ecb3cf5	0.39694944
29	0xbf5cbe70	-0.86228085
30	0xbf5ae150	-0.8550005
31	0xbd556d1e	-0.052106015
32	0xbf3577b5	-0.70885783
33	0xbf4a6f6a	-0.79076254
34	0x3f0b271b	0.54356545
35	0xbc1fc748	-0.009752102
36	0xbeb467cb	-0.35235438
37	0xbf29625d	-0.66165715
38	0x3e621cd0	0.22081304
39	0x3eeaddf0	0.4587245
40	0xbed7c5bd	-0.4214305
41	0xbf428263	-0.75980204
42	0xbf647b74	-0.89250875
43	0xbf72dc35	-0.9486726
44	0xbf399b20	-0.72502327
45	0xbf47f106	-0.7810215
46	0x3f1d6283	0.6147844
47	0x3f4699a5	0.7757819
48	0xbf531a18	-0.8246169
49	0xbf44a5ad	-0.768153
50	0xbf3dab40	-0.7408943
51	0xbf3990bc	-0.7248647
52	0xbf2be666	-0.67148435
53	0xbf46d032	-0.7766143
54	0xbf439a75	-0.7640756
55	0xbf576f43	-0.84154147
56	0xbee60b9b	-0.4493073
57	0xbf31ad01	-0.6940461
58	0xbf40506c	-0.75122714
59	0xbf80402d	-1.0019585
60	0xbed2a23a	-0.41139394
61	0x3f1e5ea1	0.6186314
62	0xbf0b235c	-0.5435083
63	0xbf300838	-0.6876254
64	0x3f063e5a	0.5243889
65	0xbe81c6a4	-0.25346863
66	0xbf44ca96	-0.7687162
67	0xbf0d5564	-0.5520842
68	0xbed87fa8	-0.42284894
69	0xbf2a3398	-0.66484976
70	0xbf5e9676	-0.86948335
71	0x3e80ac6e	0.25131553
72	0xbef47b16	-0.47750157
73	0xbf166b79	-0.5875774
74	0xbf23daa6	-0.64005506
75	0xbf27dc45	-0.6557048
76	0xbca61603	-0.020274168
77	0xbf23c2aa	-0.6396891
78	0xbf4c1551	-0.79720026
79	0xbf4cb3f5	-0.7996209
80	0xbf1523e0	-0.58257866
81	0xbe9f7adf	-0.3114843
82	0xbf05e447	-0.5230145
83	0xbf35e5f4	-0.71054006
84	0xbf3c9435	-0.73663646
85	0xbf6bddee	-0.9213551
86	0xbe7b2c9a	-0.24528733
87	0xbea8296e	-0.32844108
88	0xbf411843	-0.75427645
89	0xbef6ba27	-0.48188898
90	0xbea51b13	-0.32247218
91	0xbf329197	-0.697534
92	0xbf60318a	-0.8757559
93	0xbf269ff4	-0.6508782
94	0xbeb635af	-0.35587832
95	0xbe402fcc	-0.18768233
96	0xbdd940cd	-0.10608063
97	0xbdbdfb3c	-0.09276435
98	0x3f259fc3	0.646969
99	0xbf6f25af	-0.93416876
100	0xbf0812e9	-0.53153855
101	0xbf697bb5	-0.91204387
102	0xbf5f03c8	-0.87115145
103	0xbf24dbba	-0.64397776
104	0xbf3020bb	-0.6879994
105	0xbf204c6a	-0.626166
106	0xbf5c673d	-0.8609503
107	0xbeedd462	-0.46451098
108	0xbf6c9740	-0.9241829
109	0x3e32929d	0.17438741
110	0xbf5ade9b	-0.8549592
111	0xbed0575c	-0.4069165
112	0xbf02d58d	-0.511071
113	0xbee2567f	-0.44206616
114	0xbf48fb7c	-0.78508735
115	0xbf3de620	-0.7417927
116	0xbf41207d	-0.754402
117	0xbdf70362	-0.12061192
118	0xbee4508e	-0.44592708
119	0xbee4e96a	-0.4470933
120	0xbf5a8bd7	-0.8536963
121	0xbe5cbd5a	-0.21556607
122	0xbf1f7eed	-0.6230305
123	0xbf5246f4	-0.82139516
124	0xbf174ca3	-0.59101313
125	0xbf012857	-0.5045218
126	0xbf1c5f29	-0.610827
127	0xbf5dce82	-0.8664323
128	0xbe99c54c	-0.30033338
129	0xbefaa982	-0.4895745
130	0x3e753934	0.23947603
131	0xbe56d15d	-0.20978303
132	0xbefd3912	-0.49457604
133	0x3ef12ae4	0.47103035
134	0xbf175a86	-0.591225
135	0xbec80edd	-0.3907384
136	0xbe301a0c	-0.17197436
137	0xbf0f16fd	-0.5589445
138	0xbe9815c3	-0.29704103
139	0xbe18d479	-0.14924802
140	0xbdefc61c	-0.11707708
141	0x3e3ade9e	0.18248984
142	0xbeb871d4	-0.36024344
143	0xbeb97a34	-0.36226046
144	0xbf362efc	-0.7116544
145	0xbe613fe3	-0.21997027
146	0xbea963dd	-0.33084002
147	0xbe5b54c2	-0.21419051
148	0xbe875b52	-0.2643686
149	0xbe503230	-0.20331645
150	0xbf398ac7	-0.7247738
151	0xbe3916fd	-0.18075176
152	0xbe760354	-0.24024707
153	0x3dc8af8e	0.097991094
154	0xbf55bf9f	-0.83495516
155	0xbf078c56	-0.5294851
156	0x3d4a9684	0.04945995
157	0xbf22b361	-0.6355496
158	0xbeba104e	-0.36340564
159	0xbed0321b	-0.40663227
160	0xbee5a5e1	-0.44853118
161	0xbe9068c9	-0.28204945
162	0x3f319c32	0.6937896
163	0xbe2f4e15	-0.1711963
164	0xbf146c56	-0.5797781
165	0xbf026b43	-0.5094492
166	0x3edefcab	0.43552145
167	0x3e2a02b8	0.166026
168	0xbe4e0fc5	-0.20123203
169	0xbe9377d7	-0.28802368
170	0xbe736026	-0.23767146
171	0xbf9c6afc	-1.2220149
172	0xbed65dcc	-0.41868436
173	0xbdf0fe20	-0.117672205
174	0x3e4e8646	0.20168409
175	0x3e27e7c5	0.16397007
176	0xbdf59b83	-0.11992552
177	0xbf21de10	-0.63229465
178	0xbe8e92a5	-0.27846256
179	0xbde0b2e6	-0.10971622
180	0xbead861d	-0.33891383
181	0xbed5ea10	-0.41780138
182	0xbeb4ff65	-0.353511
183	0xbe8f8829	-0.2803357
184	0xbf01ef5c	-0.5075586
185	0x3c3792a4	0.011204395
186	0xbf0659dc	-0.52480865
187	0xbf16c8a5	-0.5889991
188	0xbec0916b	-0.37610945
189	0x3ebb23b5	0.3655068
190	0xbeb5610e	-0.3542561
191	0x3d76e7e1	0.06027973
192	0x3f66b2f0	0.90116787
193	0xbeb0205f	-0.34399697
194	0xbe2452d0	-0.16047215
195	0xbf03dfa6	-0.51513135
196	0xbecc2927	-0.39875147
197	0xbe825930	-0.2545867
198	0xbe555959	-0.20834865
199	0x3e5f7947	0.21823607
200	0xbefb23f5	-0.4905087
201	0xbea8eae9	-0.32991722
202	0xbeafcf11	-0.34337667
203	0xbe8cd6e9	-0.27507713
204	0x3d3bfab9	0.045893405
205	0xbeecbdc8	-0.46238542
206	0x3cae8a53	0.021306193
207	0xbf100150	-0.56252
208	0xbe928dc9	-0.28623798
209	0x3dfab79e	0.122420534
210	0xbe4c2a9f	-0.19938134
211	0xbdc7df37	-0.09759372
212	0xbde6631f	-0.112493746
213	0xbe3ff9f5	-0.18747695
214	0x3dbb1f0d	0.09136782
215	0xbf3ead72	-0.74483407
216	0xbe8cb77a	-0.27483732
217	0xbe935cdc	-0.28781784
218	0x3e88652c	0.26639688
219	0xbf11f10e	-0.57008445
220	0xbf0d79b1	-0.5526381
221	0xbe85036c	-0.25979173
222	0xbf007d55	-0.5019124
223	0x3dc4d21d	0.096103884
224	0xbf30afcf	-0.6901826
225	0xbdd52bb4	-0.10408726
226	0xbe75bde9	-0.23998226
227	0xbedc8fe9	-0.43078545
228	0xbf348bcc	-0.70525813
229	0xbe3cec3e	-0.18449494
230	0xbef28f23	-0.4737483
231	0xbeec3689	-0.46135357
232	0xbf30fba5	-0.6913398
233	0xbdb62f61	-0.088957556
234	0xbf0cf518	-0.55061483
235	0x3eb326fe	0.34990686
236	0xbee568b4	-0.44806445
237	0xbd3679c4	-0.04454972
238	0xbe1715f1	-0.14754464
239	0xbeecac55	-0.4622523
240	0xbf07b4ed	-0.53010446
241	0xbc981798	-0.018565938
242	0xbe1de23c	-0.15418333
243	0xbedb46cb	-0.42827448
244	0xbea92efa	-0.33043653
245	0xbe835170	-0.2564807
246	0x3cfbaf04	0.030723102
247	0xbec42d6b	-0.383159
248	0xbea84539	-0.32865313
249	0xbe28669a	-0.1644539
250	0xbe9ff486	-0.31241244
251	0xbec40306	-0.38283557
252	0xbf1430f2	-0.57887185
253	0xbef63eca	-0.4809478
254	0xbf07f2d5	-0.5310491
255	0xbe7c2a90	-0.24625611
