utils/model_skewed2.pth (torch, 803020 bytes, 9 tensors)

lstm.weight_ih_l0 f4 [512, 2]
000000 ac 80 41 bf ae 1b 99 bf cd ef bb be 22 f1 17 c0
       -0.7558696 -1.1961572 -0.3670639 -2.3740926
000010 f8 89 fa be c1 df cf bf fe bc aa be c2 aa b7 bf
       -0.48933387 -1.6240159 -0.33347315 -1.4348986
000020 19 8a 76 bd ed 90 76 bf 6c 3f b0 3e 3d fe 8b bf
       -0.060190294 -0.9631489 0.34423387 -1.0936962
000030 14 0c 8c be 2e 08 cc 3f a2 27 08 bf 11 f3 d8 bf
       -0.27352965 1.5939996 -0.53185475 -1.6949178
000040 22 05 95 bf 76 5d 04 c0 d2 3e 36 bf 40 0c 88 be
       -1.1642191 -2.0682044 -0.71189606 -0.26571846
000050 b9 63 85 bf 06 d7 d3 bf 3e 39 8d bf b0 ec a0 bf
       -1.0421058 -1.6549995 -1.1033094 -1.2572231
000060 1c 20 10 3f 28 6b 90 bf 33 39 31 bf 63 a5 84 bd
       0.56298995 -1.1282701 -0.69227904 -0.064768575
000070 3d 84 37 bf 29 4b c3 bf 57 07 7b bf e1 63 5a bf
       -0.71686155 -1.5257312 -0.98058075 -0.85308653
000080 ba 44 b9 be fd 45 35 be fb ae 88 bf 87 db 78 bf
       -0.36185247 -0.1770248 -1.06784 -0.9720997
000090 43 0f 5b 3e dd 3e 0d 40 46 eb 22 3f 66 4f 1e 40
       0.2139254 2.2069619 0.6364025 2.473596
0000a0 fc 8c 10 bf 00 52 46 bf b2 3d 17 bf c8 47 94 bf
       -0.56465125 -0.7746887 -0.59078515 -1.1584406
0000b0 8e 39 87 3f c2 b1 55 bf d0 36 7c bf c5 72 86 bf
       1.0564439 -0.8347436 -0.9852114 -1.0503775
0000c0 6d 2f 4c bf 24 c7 00 c0 45 1d cb bf 95 5a 91 bf
       -0.79759866 -2.0121546 -1.5868307 -1.1355768
0000d0 e2 4a 5f 3f c2 f0 7b bd a2 13 e0 be b7 4a 88 bf
       0.8722364 -0.0615089 -0.4376498 -1.0647801
0000e0 71 23 2b bf 13 99 0f bf 5f 09 3c bf aa c0 83 bf
       -0.66850954 -0.5609295 -0.734518 -1.0293171
0000f0 55 14 8a bf 28 84 54 bf 5f 95 81 3e 25 c0 3d 3f
       -1.0787455 -0.83014154 0.25309274 0.74121314
000100 6c e1 6a 3f b2 bf 9a 3e 37 6c 79 3c ef cf bb bf
       0.91750216 0.30224377 0.015223554 -1.4672831
000110 fb 63 5d bf f6 15 53 bf 46 c2 87 bf 3c 6e 48 bf
       -0.86480683 -0.82455385 -1.0606163 -0.78293204
000120 3e cf f9 be 0a 68 d8 bf ee 08 9b be 9b b6 b8 be
       -0.48790926 -1.690675 -0.3028025 -0.36076817
000130 05 08 26 bf 3e f5 70 bf ea 75 24 bf 9e c4 e5 3d
       -0.64855987 -0.9412421 -0.6424242 0.112191424
000140 7d 1c 6f be 88 50 09 bf 2e 59 25 bf 47 3a 1c bf
       -0.23350711 -0.53638506 -0.645892 -0.61026424
000150 02 36 23 3f 60 63 e9 3f 18 21 30 3e 7e 28 3a 3f
       0.63754284 1.8233452 0.17200124 0.72718036
000160 f3 00 70 bf c6 dd 66 bf ff fe 9a bf ff 0c 61 bf
       -0.9375145 -0.9018215 -1.2109069 -0.87910455
000170 8d dc 90 bf fc f8 6f bf 63 bd 30 bf 95 e7 cf bf
       -1.1317307 -0.93739295 -0.6903898 -1.6242548
000180 5b 08 27 be 16 5e c8 be 11 60 65 bf fc 48 bf bf
       -0.16311781 -0.39134282 -0.8959971 -1.4944148
000190 80 07 57 3e 6e 73 91 3e 5f 1a 19 bf ab d7 b3 bf
       0.20998955 0.28408378 -0.59805864 -1.4050192
0001a0 5f 94 18 bf 8d 04 06 c0 0a 8e 95 bf 3b 72 60 bf
       -0.59601396 -2.0940278 -1.1683972 -0.876743
0001b0 8b 23 9d be bc 7b ae bf 6b 4e 90 3c bc 68 05 c0
       -0.3069118 -1.3631511 0.017615518 -2.0845175
0001c0 1a 85 8b bf 0d 7c c0 bf 68 26 47 3d 86 6f bb 3e
       -1.0899994 -1.5037857 0.04862061 0.36608523
0001d0 ec 0f f5 3f b8 b4 53 40 2a 82 b6 be 84 70 10 3f
       1.9145484 3.3079052 -0.35646182 0.56421685
0001e0 55 f2 81 bf 6a f6 b1 bf 2d 47 ad bf 0b 2b a3 bf
       -1.0152079 -1.3903325 -1.3537346 -1.2747511
0001f0 33 76 37 bf e5 cc 0e bf a8 30 a3 bf 40 3c b1 bf
       -0.7166473 -0.55781394 -1.2749224 -1.3846512
000200 88 ce 3c bf 38 14 64 bf 78 45 9f bf 7b fd af bf
       -0.7375264 -0.8909335 -1.2443075 -1.3749231
000210 c0 b0 97 be 7c 87 df be 50 ba 8d be 90 9c cb be
       -0.29627037 -0.43658054 -0.27681208 -0.39767885
000220 83 86 ae bf a3 38 d5 bf 16 95 6d be 9e 16 5e c0
       -1.36348 -1.6657909 -0.23201403 -3.4701304
000230 d1 07 19 bf 25 1c ab bf d6 32 43 bf 3d 14 13 c0
       -0.5977755 -1.3367964 -0.76249444 -2.2981102
000240 be 80 6c bf 07 bf c7 bf d9 65 f3 be d9 33 ee 3e
       -0.92383945 -1.5605172 -0.4753864 0.46523932
000250 49 00 77 bd 95 7d 0e c0 7f 2b 26 bf 73 7f 90 be
       -0.060303006 -2.226415 -0.6491012 -0.28222236
000260 27 3a 7f 3f 9c c5 01 40 05 a6 56 3f 1d d5 5e 3f
       0.9969811 2.027686 0.83847076 0.87043935
000270 de 0f d3 be 7d c3 dd bf 05 dc 88 be 3c 81 20 c0
       -0.41223043 -1.7325283 -0.26730362 -2.5078878
000280 70 d8 48 3e 31 c2 9b bf f0 8b ac bf 25 c2 a5 bf
       0.19613814 -1.2168638 -1.3480206 -1.2949873
000290 1b 46 94 bf 7d 7f e6 be 08 66 a9 3e 17 55 f3 be
       -1.1583894 -0.4501914 0.33085656 -0.47525856
0002a0 33 7c fe be d8 2d 41 bf 61 6d ae 3c f6 3b e0 bf
       -0.4970413 -0.75460577 0.02129239 -1.7518299
0002b0 88 b1 4b bf d8 2a 4a bf 32 fe 80 bf 99 a3 2a bf
       -0.79567766 -0.78971624 -1.0077574 -0.6665588
0002c0 69 e8 7c bf 37 78 78 bf 8b 80 4d bf 3e d8 c1 bf
       -0.9879213 -0.97058433 -0.80274266 -1.5144117
0002d0 bb 2a 14 bf 58 b3 ff be 88 54 00 3f 07 a5 2b be
       -0.578777 -0.49941516 0.50128984 -0.16762172
0002e0 0c e0 52 bf ac 4b 0b c0 e0 a8 f0 be 61 c7 e4 bf
       -0.8237312 -2.1764936 -0.4700384 -1.7873346
0002f0 a6 fb b3 bf 9d ac 99 bf da 5a a5 3e 44 80 eb bf
       -1.4061172 -1.2005802 0.32295877 -1.8398519
000300 fe 85 b4 bf 6e 23 cf bf 86 9b 8f bf 76 28 e7 bf
       -1.4103391 -1.6182687 -1.1219337 -1.8059223
000310 35 6d 66 bf a6 d2 0d c0 87 85 f6 3c 7c cb 5e 3f
       -0.90010387 -2.215982 0.030092968 0.8702924
000320 b8 24 3a bf 1a 22 f5 bf 37 fd 7b bf 99 52 b6 bf
       -0.7271228 -1.9151032 -0.9843325 -1.4243957
000330 e7 52 7b bf ce b7 06 c0 fa bd b9 bf e0 47 d9 bf
       -0.98173374 -2.1049685 -1.4511101 -1.697506
000340 cb 2c be bf 77 30 82 bf 59 f2 54 bf 15 ce 4e bf
       -1.485742 -1.017104 -0.83182293 -0.80783206
000350 db 97 90 bd 78 ed d5 be 8d 55 9a 3f 7b 4d 00 bf
       -0.07060214 -0.41782737 1.2057358 -0.50118226
000360 13 05 9b bf 62 9a 80 bf a8 8f 82 bf c4 42 b7 be
       -1.2110924 -1.0047114 -1.020009 -0.35793126
000370 57 f0 a1 bf c2 63 ee bf 14 f5 47 bf 27 5b 9c bf
       -1.2651471 -1.8624194 -0.78108335 -1.2215317
000380 c4 8f 0c bf 31 c6 b8 be 28 b5 da 3e 2e ee 6e 3f
       -0.5490687 -0.36088708 0.42716336 0.93332183
000390 66 f1 b9 be ed 5d 64 bf cf 18 a9 bf d9 51 4d bf
       -0.36316985 -0.8920582 -1.3210696 -0.80203015
0003a0 61 11 56 bf 49 78 a3 bf 85 71 22 3e 61 0a e3 bf
       -0.8362027 -1.2771083 0.15863617 -1.7737542
0003b0 38 de 4b 3e f0 bb 05 be 9a f7 99 bf 42 4c 69 bf
       0.19908988 -0.13059974 -1.2028687 -0.91131985
0003c0 1b 2a 8c bf b7 4c 61 bf 24 e0 28 bf 48 ec 9c bf
       -1.095035 -0.8800768 -0.6596701 -1.2259607
0003d0 cb 32 94 bf a5 1b a5 bf 94 ce 71 3c a3 24 e0 bd
       -1.1578001 -1.2899061 0.014758725 -0.10944488
0003e0 c5 63 a2 bf 1f 11 c0 bf c0 ab 87 bf d1 c3 d5 bf
       -1.2686697 -1.5005225 -1.0599289 -1.6700383
0003f0 f9 14 35 bf 90 64 8d bf 07 35 c2 3f 8f 40 74 be
       -0.70735127 -1.1046314 1.5172433 -0.23852752

lstm.weight_hh_l0 f4 [512, 128]
000000 5b 6c aa be d5 25 14 bf f8 f8 04 bf b0 2e e6 3e
       -0.33285794 -0.5787023 -0.51942396 0.44957495
000010 f0 08 01 be 9b 7f 9f be ca 6e 9b be 15 69 38 be
       -0.12601066 -0.31152043 -0.30357963 -0.18008836
000020 b8 e0 cf be 18 68 64 3e af ca d0 3d 96 1c 00 be
       -0.40601134 0.22305334 0.10194909 -0.12510905
000030 6b 3c 20 3f c1 8b ba be c5 ba 26 be 9a 09 a4 3e
       0.6259219 -0.3643475 -0.16282184 0.32038575
000040 0f 15 8d be 25 bd 4c 3e bf 89 ba be 29 98 4c bf
       -0.2755513 0.19994028 -0.36433217 -0.7991968
000050 fc 44 50 be 97 09 48 3e f8 80 f6 be ab 92 07 3e
       -0.20338815 0.19534908 -0.4814527 0.13239543
000060 06 ce c5 be ca da 4f 3c 67 60 d1 3e 00 62 c3 3e
       -0.38633746 0.012686441 0.40893862 0.38160706
000070 f1 0e 9c be 22 0e 50 3e 93 68 e8 3d df 5f 28 3f
       -0.3048015 0.20317891 0.11348071 0.6577129
000080 66 32 0a 3e 98 3c 38 3e 90 de a4 bd 05 28 18 bd
       0.13495788 0.17991865 -0.08050263 -0.03714754
000090 97 bb de 3e 8f fb b6 be 5b 86 22 bd 80 fa ac 3e
       0.43502495 -0.357388 -0.039678913 0.33784866
0000a0 e4 76 1d 3c c0 a9 35 3e 46 31 35 3f e2 3d 83 3d
       0.009610865 0.17740536 0.7077831 0.064082876
0000b0 7b 06 85 3e 9a 29 b3 3e e1 f3 e8 3d 68 e6 de be
       0.25981507 0.34992677 0.11374641 -0.4353516
0000c0 ce 98 66 3e 87 f6 e9 3d 9c 14 32 3f 2f c0 a5 be
       0.22519228 0.114239745 0.695627 -0.32373187
0000d0 96 05 11 bf bc 10 9b 3d 93 0f e5 3a b2 1d 1f 3f
       -0.5664915 0.07571551 0.0017475955 0.62154686
0000e0 17 01 0d be 65 0b ef 3e 92 07 5b 3f 51 af c3 3e
       -0.13769947 0.4668838 0.85558426 0.38219693
0000f0 32 15 1e 3e e4 d3 e1 bd 70 8b dc be c8 81 27 be
       0.15437773 -0.11026743 -0.43075132 -0.16358101
000100 59 d0 b1 be 54 29 c9 bd 55 57 e4 3d 35 10 2b 3e
       -0.3472927 -0.09822336 0.1114947 0.16705401
000110 25 be db 3d aa 47 11 3f 2c 43 23 be 8c 73 02 3f
       0.107296266 0.56749976 -0.15943593 0.5095756
000120 08 14 9d 3e 5d f5 b9 be 39 38 04 be cd 78 84 3e
       0.30679345 -0.3632001 -0.12912072 0.25873414
000130 9e ee 48 bf cb 6f fd 3e 0a fd f2 be d7 9d 39 bf
       -0.784891 0.49499354 -0.47458678 -0.7250647
000140 1b 77 32 bf af 2b 06 3e c8 65 df be 47 41 e2 bd
       -0.6971299 0.13102601 -0.4363234 -0.11047607
000150 f5 ac 27 3e 96 51 39 3f 86 0e 6c be df 58 56 3d
       0.16374572 0.72390115 -0.23052415 0.052330848
000160 b2 60 2e 3d c4 48 5c 3d 4c 40 9e bc 58 10 7f be
       0.042572685 0.053780332 -0.019317769 -0.24908578
000170 f2 97 8d bd 44 c7 3d be e9 29 85 3d e8 68 88 be
       -0.06913747 -0.18533045 0.06502134 -0.26642537
000180 66 48 89 bd 7a fc 89 be ea 32 4c be 7f a6 16 be
       -0.06703262 -0.26950437 -0.19941297 -0.1471195
000190 b0 80 2b 3f 2a f8 f7 3d 8b d7 cc bd 3a ae af 3d
       0.66993237 0.121078804 -0.10002049 0.08578153
0001a0 60 3e 29 3e 2f b9 98 3e 3c b2 f3 3d 48 67 52 bf
       0.165277 0.29828784 0.1189923 -0.82188845
0001b0 09 ca d2 bd 29 a3 89 3b f2 d9 ee bc 1f 5f 88 3e
       -0.102924414 0.0042003584 -0.029156659 0.26635072
0001c0 4d fc 77 be d8 9a 13 bf 4d bd ce be d9 ba 7e bd
       -0.24217339 -0.5765815 -0.403788 -0.06218991
0001d0 70 72 a1 3d 00 4c f5 3e bb a8 b7 bd a2 63 9b be
       0.07883155 0.47909546 -0.0896773 -0.3034945
0001e0 80 69 7e 3e c4 ab fb 3d 05 d3 af 3d f4 cf 3e bf
       0.24844933 0.12288621 0.08585171 -0.7453606
0001f0 33 5b ca bd 6f c1 9f 3d 39 fe 04 bd 20 06 09 bf
       -0.09880676 0.078005664 -0.032469008 -0.5352497
000200 dd b7 42 be 98 dc 0d bf e3 61 11 3d b5 62 0c be
       -0.19015451 -0.55414724 0.035493743 -0.13709529
000210 e5 54 c7 bd 90 0e a6 be c0 9d 32 bf 66 2a 32 be
       -0.09732989 -0.32432985 -0.6977196 -0.17398986
000220 04 f7 dd bd ac 16 22 be 49 25 41 bd f3 15 25 be
       -0.1083813 -0.15828961 -0.0471547 -0.16121654
000230 19 3e aa 3e 76 9a b3 be 31 df 8b be 94 42 44 3c
       0.33250502 -0.35078782 -0.2731872 0.011978764
000240 6a 73 5a be 6c 06 cb 3e 5f 1e 25 bf be 2e 4b bf
       -0.2133309 0.39653337 -0.6449947 -0.793682
000250 98 c5 68 be 3e 02 11 3e bf 5a e7 be 75 a3 e4 3e
       -0.22731626 0.14161012 -0.4518642 0.44655958
000260 f9 00 02 3d 07 46 89 3f 71 81 8c be 5d 06 d7 3c
       0.03173921 1.0724496 -0.27442506 0.026248151
000270 20 45 1e be 51 5f 2e 3e 8d a6 35 3e b4 e8 11 3f
       -0.15456057 0.17028548 0.17739315 0.569957
000280 1e 2c c3 be 53 c7 17 be e9 c2 21 bf bd 5b ca 3e
       -0.38119596 -0.1482213 -0.63188034 0.39523116
000290 89 cc 60 3e 85 7b b6 be e0 7a 44 bd c8 7f 21 3f
       0.21953024 -0.35641113 -0.047968745 0.63085604
0002a0 e4 9e a0 be b1 85 40 3f da 40 0b 3f b7 95 02 bf
       -0.31371224 0.75203997 0.5439583 -0.51009697
0002b0 0e 8e 8c 3e 30 9d 8e 3e 66 bf 0e 3f a3 63 74 be
       0.2745213 0.278543 0.557608 -0.23866133
0002c0 d3 7c ce be 31 1f b2 3d c8 23 52 3d 47 17 30 be
       -0.40329608 0.086973555 0.051303655 -0.1719638
0002d0 ee 30 e2 bd 0f b2 8f 3e a7 c9 45 be 0f 92 b3 3e
       -0.11044489 0.28065535 -0.19315206 0.3507237
0002e0 62 81 65 be b5 b7 c5 3d fd b4 a7 be 3f de 68 3f
       -0.22412637 0.0965418 -0.3275527 0.9096412
0002f0 fe 3f 29 bd 98 ba 4e be a5 48 c5 bd 7f 29 16 bd
       -0.041320793 -0.20188367 -0.096329965 -0.036660668
000300 32 c6 4c bf b0 0f 0e 3e 45 f8 34 be 55 9b ec 3c
       -0.7998992 0.13873172 -0.17672832 0.028882662
000310 e5 0f b4 be bb a5 a9 bc 88 e5 a0 be 5a b6 84 be
       -0.35168377 -0.02070891 -0.31425118 -0.25920373
000320 c1 3a 3b 3e 64 e3 56 bd 11 44 c9 be f7 f6 a0 3e
       0.18284132 -0.05246295 -0.39309743 0.3143842
000330 26 0c 31 bf eb c8 ee 3d e5 03 48 be cd 17 70 be
       -0.6915916 0.11659416 -0.19532736 -0.2344658
000340 fd 66 4e bf 33 b4 25 3e 36 e3 06 bf f6 88 5b 3f
       -0.806259 0.16182022 -0.52690446 0.8575586
000350 00 e3 26 3e de 0a 2f 3e 57 de 92 be 7a bd 05 3f
       0.16297531 0.17093989 -0.28685257 0.52242243
000360 70 e6 91 bc 8e 33 09 be 36 3f 8f bc e2 8d 1e 3e
       -0.017810076 -0.13398573 -0.017486196 0.15483811
000370 8c 84 3b bd 61 b6 4f be 19 b9 7e be be e8 02 be
       -0.045780703 -0.20284416 -0.24875297 -0.12784097
000380 76 38 4f bd 58 ec c0 3e 01 67 bf 3e 46 c9 e6 be
       -0.050590955 0.37680316 0.37383273 -0.45075434
000390 68 39 79 3e 42 0a 17 be e9 c5 4b bc c4 0c c4 bd
       0.24338305 -0.14750007 -0.012437322 -0.09572747
0003a0 23 19 aa 3e 77 d2 18 3f 18 e5 33 bc 0c 3a 0d bf
       0.33222303 0.59696144 -0.010979913 -0.551667
0003b0 1b bf f7 be 30 97 38 3f 1b bc 00 be d2 89 20 3d
       -0.4838799 0.72105694 -0.12571757 0.039193936
0003c0 5b 0d 10 bf 9e 04 9f bf 2d 4a 3a bf 26 1b a5 be
       -0.5627038 -1.2423284 -0.72769433 -0.32247275
0003d0 03 b7 de 3e 0d be 7f 3d b7 b4 86 be db b0 ab bd
       0.43499002 0.062437106 -0.2630975 -0.08383342
0003e0 ce 0a cd 3e 25 ab cd 3d 28 94 2d bd 92 a2 19 be
       0.40047306 0.10042409 -0.04237762 -0.15003422
0003f0 01 cf 14 3f 76 45 99 3d d7 b7 9e 3e 35 f3 ab be
       0.5812836 0.07483952 0.30999634 -0.3358399

lstm.bias_ih_l0 f4 [512]
000000 92 86 2a bf 76 c1 d6 be 82 f6 eb be 5e b3 9e be
       -0.6661159 -0.41944474 -0.46086508 -0.3099622
000010 3f d3 a6 be 97 5e 2f be 8e 00 11 be b0 35 fb be
       -0.32583043 -0.17125927 -0.14160368 -0.49064398
000020 bb 24 8e bf 78 3b 0d bf 9a 59 8c bf 80 72 90 bf
       -1.1104959 -0.5516887 -1.0964844 -1.1284943
000030 df de df 3e 31 ff 31 bf 70 be 7c bf a8 fd 53 bf
       0.43724725 -0.69530016 -0.98728085 -0.82808924
000040 ff 13 bb be 2a 60 9f bf ec 2f 33 3e 7b 4a 41 3f
       -0.36538693 -1.2451222 0.1749875 0.75504273
000050 2a 69 47 bf 3c 8e ff be 92 34 bd 3f 8b 49 59 bf
       -0.7789484 -0.49913204 1.4781668 -0.8487784
000060 87 b2 5f bf dc b0 61 bf a1 7c c7 3e 67 05 ee be
       -0.87381786 -0.8816049 0.38962272 -0.46488497
000070 bd 07 39 bf c5 5b 5d bf 1d 09 79 bf fb ee fb bd
       -0.7227743 -0.86468154 -0.9727953 -0.12301441
000080 fd 50 39 3f a8 2d 95 be 28 6d 72 bf af 0f 28 bf
       0.72389203 -0.29136395 -0.9469781 -0.6564893
000090 73 65 17 bf b5 d6 b0 be 22 0e 3c bf ff 76 61 bf
       -0.59139174 -0.34538808 -0.73459065 -0.880722
0000a0 66 e7 f3 be ed 85 10 be 93 0d 4d 3f 2b 96 15 3e
       -0.4763748 -0.14113589 0.8009884 0.14608066
0000b0 9a fa 8e bf 76 c3 91 bf 14 71 95 bf a5 72 18 bf
       -1.1170228 -1.1387775 -1.1675134 -0.59549934
0000c0 dc fc 61 be 1d 1b 84 bf 4a ab 50 3e 08 65 42 bf
       -0.22069114 -1.0320774 0.20377842 -0.7593541
0000d0 c2 d7 f3 be 38 9f 23 bf de 3b 9c be 9b ca 1b 3d
       -0.47625548 -0.63914824 -0.30514425 0.038035017
0000e0 b3 a0 5d bf 75 08 06 3e 8b 83 9a 3f 96 c7 f1 be
       -0.8657333 0.13089164 1.2071394 -0.47222584
0000f0 47 14 80 bf e3 95 98 bf c5 3e 56 bf 59 ff 98 bf
       -1.0006188 -1.1920742 -0.8368953 -1.1952926
000100 a6 52 3b bf 84 83 a2 bf 66 ad 5d be 8d 72 10 bf
       -0.73172987 -1.2696385 -0.21648178 -0.5642479
000110 a3 fc 64 bf 73 38 a2 be fe c3 51 bf db 7e 23 bf
       -0.89447993 -0.31683692 -0.81939685 -0.6386544
000120 6c b6 7f bf 30 a3 2f be 97 82 72 bd 71 a9 f3 be
       -0.9988773 -0.17152095 -0.05920657 -0.4759021
000130 73 95 41 3f 00 e4 8f 3f 03 1c ca be bd d1 10 bf
       0.75618666 1.1241455 -0.39474496 -0.56570035
000140 d0 13 e2 3e 25 26 87 bf 8b f6 8a bf 68 8a a0 3e
       0.4415574 -1.0558516 -1.0856489 0.31355596
000150 97 f2 01 bf bb 4b 72 3d 48 b9 74 bf 63 5c 92 bf
       -0.5076079 0.059154253 -0.95595217 -1.1434444
000160 9b b8 8a bf b5 d3 67 bf 46 8e 15 bf cd f1 e2 3e
       -1.0837587 -0.90557414 -0.5842022 0.44325104
000170 6c 6e 3f bf 33 84 36 bf c2 d1 87 bf 80 32 17 3e
       -0.74777865 -0.7129547 -1.0610888 0.14765358
000180 b3 e8 93 bf 44 e0 76 bf 08 2b 66 be 39 aa 97 3e
       -1.1555389 -0.9643595 -0.22477353 0.29622057
000190 07 04 31 bf 5f 82 82 bf 32 14 58 bf 18 92 98 bf
       -0.6914677 -1.0196036 -0.84405816 -1.1919584
0001a0 68 a7 a5 bf b8 f8 4a bf 1c cd b1 3e 23 62 9d 3f
       -1.2941713 -0.79285765 0.347268 1.2295574
0001b0 73 f5 b0 bf f4 51 8a bf d8 cd 78 bf 3e d7 22 bf
       -1.3824905 -1.080626 -0.9718909 -0.63609684
0001c0 94 fc 0a bf c8 c1 14 3e d7 c6 9e be 23 67 52 bf
       -0.54291654 0.14527047 -0.31011078 -0.82188624
0001d0 e5 56 8f bf f9 46 86 be ac 0f 79 3e 35 f3 a7 bf
       -1.1198393 -0.26226023 0.24322385 -1.3121096
0001e0 0b db 98 bf c5 0b 4e bf 51 40 8b bf 17 c7 ff 3d
       -1.1941847 -0.8048671 -1.0879003 0.12489145
0001f0 65 96 a0 bf 9c 06 88 bf a8 51 81 bf 64 4e 19 40
       -1.2545897 -1.0627017 -1.0103045 2.3954096
000200 ab b4 d1 be 1d 89 40 bf e3 fb af be 32 72 a4 be
       -0.4095815 -0.7520922 -0.34371862 -0.32118374
000210 59 2c b6 3e 06 31 22 be c7 8a dc be b4 18 22 bf
       0.3558071 -0.15839013 -0.4307463 -0.63318944
000220 a7 01 10 bf ff ff 43 bf 05 20 02 bf fe f6 8e be
       -0.5625252 -0.76562494 -0.5083011 -0.27922815
000230 c5 52 09 be 6f 03 5a be 9c 14 2f be 62 97 ae bc
       -0.1341048 -0.21290372 -0.17097706 -0.02131242
000240 04 7f 0f be b9 f6 14 be b8 ad 87 bd 07 84 3c 3f
       -0.14013296 -0.14547242 -0.06624931 0.7363896
000250 47 9f 72 be fe 7b b0 be 12 3f 23 3f 51 44 26 be
       -0.23693572 -0.344696 0.6376811 -0.16236998
000260 5d 04 05 bf 8e ca f6 be d0 f8 0e 3f a3 ad bf 3b
       -0.5195978 -0.48201412 0.5584841 0.0058495565
000270 82 7c 85 be 52 b5 8a be 1e ca 9d bc 53 dc e4 be
       -0.26071554 -0.2709146 -0.019261416 -0.44699344
000280 7c ff 24 bf 96 67 03 bf d6 34 1f be c9 58 c7 be
       -0.6445234 -0.51329935 -0.15547499 -0.38934925
000290 13 02 14 bf 51 c9 06 bc 7d 0e e6 bd dd ce be be
       -0.57815665 -0.0082267085 -0.11233232 -0.372672
0002a0 de ac 01 3e 6f 16 47 bf 76 c0 00 3f 55 ec 0a bd
       0.126636 -0.77768606 0.5029367 -0.03391679
0002b0 cf cc c9 bd 72 53 d3 bd c6 2c f0 bd 92 68 62 3e
       -0.09853517 -0.1031865 -0.1172729 0.22110203
0002c0 e5 77 b2 be 3a c8 e7 bd ba 2b b0 3e ed 6f 3e be
       -0.34857097 -0.11317487 0.3440836 -0.18597384
0002d0 e3 0f 40 bf 06 02 fe be 37 05 b5 be 5c e7 a8 bc
       -0.7502424 -0.4961092 -0.3535554 -0.020618133
0002e0 81 9d 14 bf 9a 04 d4 3e 79 15 8a 3d 44 22 25 bf
       -0.5805283 0.4140976 0.06742377 -0.6450541
0002f0 d4 69 b6 be ef 7e 94 be 51 70 02 be 85 12 6b be
       -0.35627615 -0.29003093 -0.12738158 -0.22956283
000300 5b e8 b7 be f2 ec ff be 5f cd 3a bd 2a 76 ce be
       -0.3591946 -0.49985462 -0.045606013 -0.40324527
000310 ce 45 bb be c3 cf 21 be 98 f9 dd be d2 b6 0c bf
       -0.36576694 -0.15801911 -0.43354487 -0.5496646
000320 22 2e 4d bf df 06 c4 3e 39 a6 00 3e f6 50 6f bd
       -0.8014852 0.38286492 0.12563409 -0.05842682
000330 f1 93 b7 3e d9 71 28 3d af 74 e5 bc 2c a0 42 bf
       0.35855058 0.0411242 -0.02800974 -0.7602565
000340 ed a1 d9 3e 39 04 f7 be 78 1a ef 3c f7 33 34 bf
       0.42506352 -0.4824541 0.029187426 -0.7039179
000350 29 d7 fc bd e6 4f 8b be d1 cf 65 be 8f 94 ea bd
       -0.12345726 -0.27209395 -0.22442557 -0.114541166
000360 93 31 f1 be cd a5 74 be a9 d1 97 3e ab b9 61 3e
       -0.47108135 -0.23891373 0.29652146 0.22043483
000370 af 88 5e be 27 40 d6 be f9 ef eb be e5 3d ce be
       -0.21731828 -0.4184582 -0.46081522 -0.40281597
000380 07 bb 8b be 57 bb 97 be a1 81 55 bf 68 56 9f 3d
       -0.27291128 -0.29635116 -0.83400923 0.077801526
000390 a7 03 0f bf 83 3b 88 be 15 b3 20 bf 08 db 78 be
       -0.5586495 -0.26607904 -0.6277326 -0.24302304
0003a0 d3 e2 b3 be 07 11 50 be ad 69 87 3e 06 44 06 3f
       -0.3513399 -0.20318995 0.26447812 0.52447546
0003b0 18 62 c7 bc 57 7f 84 be 45 f2 af be 00 c2 db bd
       -0.024338767 -0.25878403 -0.34364524 -0.10730362
0003c0 6d 2a 86 bd 38 14 1d bf 8b 24 c4 3e d8 6e 9f be
       -0.06551061 -0.61358976 0.3830913 -0.31139255
0003d0 40 93 35 be 7b 79 f2 be 43 9c b8 3d 4f 81 85 be
       -0.17731953 -0.47358307 0.090141796 -0.26075217
0003e0 6f 74 49 be ea 5c 81 be cb 8e b9 be 2b 9e 97 be
       -0.19673322 -0.252662 -0.36241755 -0.2961286
0003f0 88 49 02 bf aa a1 e0 be 2a 3e 45 be c4 09 4a 3f
       -0.5089345 -0.4387334 -0.19261995 0.7892115

lstm.bias_hh_l0 f4 [512]
000000 0c a3 3f bf 7e 82 ed be a5 f7 d5 be af a1 cd be
       -0.74858165 -0.4638862 -0.417905 -0.40162417
000010 70 c8 5c be a0 ba 50 be 18 c1 7e be 57 15 d5 be
       -0.21560836 -0.20383692 -0.24878347 -0.41617844
000020 35 f9 8c bf d0 fe 13 bf 58 10 90 bf 74 53 87 bf
       -1.1013552 -0.5781069 -1.1254988 -1.0572343
000030 fb 62 0b 3f 34 79 1f bf a9 a7 86 bf da 49 5d bf
       0.5444791 -0.62294316 -1.0519916 -0.86440814
000040 80 5d 8f be 4a 3d 90 bf eb 46 1d 3e 4b 6f 3a 3f
       -0.28001022 -1.1268704 0.15359084 0.7282607
000050 ac 74 5d bf c5 f8 11 bf 06 44 c9 3f 53 8d 6d bf
       -0.8650615 -0.5702022 1.5723884 -0.9279377
000060 45 08 5f bf c8 f8 65 bf ab d1 8f 3e 3a 97 a5 be
       -0.87121993 -0.89832735 0.2808965 -0.3234194
000070 5f ce 36 bf f9 88 48 bf 07 35 8c bf b3 2d 89 bd
       -0.7140865 -0.78334004 -1.0953683 -0.066981696
000080 27 24 3e 3f 5f 5a 78 be 6d 68 5c bf ad 6c 20 bf
       0.74273914 -0.24253224 -0.8609684 -0.62665826
000090 0e 24 2f bf 56 e7 c1 be 9f d3 59 bf 5e 5c 52 bf
       -0.6841439 -0.37871808 -0.85088533 -0.8217219
0000a0 eb b4 c5 be f1 2a 20 be 15 12 3f 3f f4 b6 02 3e
       -0.38614592 -0.15641381 0.74636966 0.12765104
0000b0 60 53 98 bf 98 e1 87 bf d3 ce 90 bf 38 5f 10 bf
       -1.1900444 -1.0615721 -1.1313118 -0.5639529
0000c0 55 7a 81 be 59 6e 85 bf 32 b8 06 3e 1e f9 2e bf
       -0.25288644 -1.04243 0.13156202 -0.6834887
0000d0 ae cd ce be 8c cf 35 bf 22 ce 5b be c7 d6 a4 3d
       -0.40391296 -0.71019816 -0.21465352 0.08048778
0000e0 99 23 5c bf 7d 34 30 3e 7f ea 97 3f c1 22 1a bf
       -0.8599182 0.17207523 1.1868438 -0.6020928
0000f0 7f 7a 56 bf 0e 21 9c bf 69 9e 54 bf 70 be a2 bf
       -0.83780664 -1.2197587 -0.83054215 -1.2714367
000100 42 0a 47 bf e9 40 97 bf 0e 60 88 be 38 ac e9 be
       -0.7775003 -1.1816684 -0.26635784 -0.45639205
000110 35 a0 66 bf 5b 57 a3 be 26 ab 54 bf 4b ab 20 bf
       -0.90088207 -0.31902584 -0.8307365 -0.6276137
000120 45 ea 84 bf 24 35 85 bd 09 55 e6 bc cc 6f 0c bf
       -1.0383993 -0.065042764 -0.02811672 -0.5485809
000130 2d d2 47 3f 26 83 92 3f ad b4 9c be f3 42 2d bf
       0.7805508 1.1446273 -0.30606595 -0.6768028
000140 c6 34 c0 3e 38 74 8d bf 20 11 79 bf 99 a4 a8 3e
       0.37540263 -1.1051092 -0.97291756 0.32938078
000150 21 11 00 bf 5f 7c ad bd 20 6d 4d bf 84 bb 84 bf
       -0.50026137 -0.084709875 -0.80244637 -1.0369725
000160 d4 a6 86 bf 25 12 60 bf 5b da 03 bf ad 4f 01 3f
       -1.0519662 -0.87527686 -0.5150506 0.505122
000170 c2 19 56 bf 0d f5 2e bf ee cf 8a bf 4b cd e7 3d
       -0.83633053 -0.6834267 -1.0844705 0.113184534
000180 cc dd 99 bf 55 22 86 bf 56 17 6f be fa 5a 36 3e
       -1.2020812 -1.0479227 -0.23348746 0.17808142
000190 76 c1 1f bf d6 18 87 bf 2e 3a 7f bf d4 dd 9e bf
       -0.6240457 -1.0554454 -0.9969815 -1.2411447
0001a0 ae 9e a4 bf 35 cc 39 bf 8f 7f 6c 3e 3b 1e a2 3f
       -1.2860925 -0.7257722 0.23095535 1.2665476
0001b0 3b 34 a6 bf ae 5c 91 bf 55 e2 81 bf 6d c4 24 bf
       -1.298469 -1.1356409 -1.0147196 -0.6436222
0001c0 08 88 1e bf 59 b4 40 3d fb f7 a3 be 6b 3d 5c bf
       -0.6192632 0.047046993 -0.32025132 -0.86031216
0001d0 99 26 91 bf aa 93 87 be 96 d8 78 3e 91 64 af bf
       -1.1339904 -0.26479846 0.24301371 -1.3702565
0001e0 69 02 8e bf 73 6f 34 bf 4a 0c 8b bf e4 23 62 3e
       -1.1094486 -0.7048256 -1.0863125 0.22084004
0001f0 9b 8a 9c bf d4 83 8b bf 06 ae 81 bf 29 59 11 40
       -1.2229799 -1.0899606 -1.0131233 2.271067
000200 6a a0 f0 be 33 9b 38 bf 15 36 cc be b7 65 8b be
       -0.46997386 -0.72111815 -0.3988501 -0.2722604
000210 0f 52 8e 3e 4e e1 53 be 29 e8 bf be 16 19 1c bf
       0.2779698 -0.20691416 -0.37481812 -0.6097578
000220 52 e5 10 bf c7 85 53 bf ce 12 05 bf dd b4 99 be
       -0.56599915 -0.82626003 -0.5198182 -0.300208
000230 f3 4e 1f bd 1f 4b 42 be 46 74 20 be cc 51 2f bb
       -0.03889365 -0.18973969 -0.15669355 -0.0026751636
000240 29 d0 7e be 51 fc ef bd 1b 82 d6 bd 0f ae 32 3f
       -0.24884094 -0.117180474 -0.104740344 0.6979684
000250 ac 06 50 be 39 2d cc be de 41 14 3f a8 8e 20 be
       -0.20315045 -0.39878252 0.57913005 -0.15679419
000260 54 ae 09 bf 3a ed f4 be 76 38 16 3f 7f 7f 16 3d
       -0.5378163 -0.4783724 0.586799 0.036742684
000270 41 91 70 be 97 32 1e be 00 dd 5a 3b 9b 0a f9 be
       -0.2349291 -0.15448986 0.0033395886 -0.48640904
000280 24 90 3b bf 40 0f fa be 6e 70 1b be 5e e5 c5 be
       -0.73266816 -0.4883976 -0.15179607 -0.38651556
000290 ff a5 06 bf 63 09 40 3d d5 3c f5 bd a2 b4 90 be
       -0.5259704 0.046883952 -0.119744934 -0.28262812
0002a0 9b 69 5a 3e bb c1 30 bf a0 95 07 3f 9a 70 9d 3d
       0.21329348 -0.6904561 0.52962685 0.07687493
0002b0 c0 3b 00 ba 6f 33 4e 3d 3a 3c 11 be 9f 00 33 3e
       -0.0004891716 0.05034202 -0.14183131 0.17480706
0002c0 d6 71 c3 be 10 35 e4 bd 41 ee 3f 3e 04 1e 25 be
       -0.38172787 -0.11142933 0.1874323 -0.16124731
0002d0 b3 ac 67 bf 47 df 02 bf 12 a2 c5 be 41 83 cc 3d
       -0.90497893 -0.51121944 -0.38600212 0.09985972
0002e0 98 a7 1d bf 78 39 05 3f 9f 3e 82 3c b8 1d 16 bf
       -0.6158385 0.52040815 0.015899 -0.586391
0002f0 f2 06 c6 be 6c 30 9b be dc bf 10 bd c5 9a 31 be
       -0.38677174 -0.3031038 -0.03533922 -0.17344196
000300 f7 47 b9 be 4d ba f6 be cb cb 12 3d 3a 77 ea be
       -0.36187717 -0.4818901 0.035838883 -0.45794088
000310 6f 31 b2 be 01 85 9d be be 2e aa be 32 85 04 bf
       -0.3480334 -0.30765536 -0.33238786 -0.5176574
000320 a4 4a 45 bf 29 85 b4 3e b4 c2 a1 bb 48 bd 34 be
       -0.7706702 0.35257843 -0.0049365405 -0.1765033
000330 f5 f6 e2 3e 61 c2 2d 3e cf af 0d bc 30 96 2c bf
       0.44329038 0.16968681 -0.008647873 -0.6741667
000340 d8 f2 09 3f b1 b2 cb be d8 7f 6e bd f4 60 0c bf
       0.53886175 -0.39784768 -0.05822739 -0.5483544
000350 36 ef 83 be 62 dd 77 be 78 26 9e be 56 00 e0 bb
       -0.2576844 -0.24205545 -0.30888724 -0.0068359775
000360 b5 be 0b bf a0 05 a5 be 43 58 81 3e d1 44 a0 3e
       -0.5458787 -0.32230854 0.2526265 0.31302503
000370 34 60 80 be a1 55 d0 be 5c 9d b7 be 54 1e d5 be
       -0.25073397 -0.4069033 -0.35862243 -0.416247
000380 dc 81 43 be d4 cb bc be 6f 85 5a bf 71 c1 0d 3e
       -0.19092506 -0.3687426 -0.85359854 0.13843323
000390 ec 05 09 bf b6 48 89 be dc 77 03 bf 08 27 56 be
       -0.5352466 -0.26813287 -0.51354766 -0.20913327
0003a0 c1 95 b4 be 31 56 49 be 17 84 bb 3e f1 45 00 3f
       -0.35270503 -0.19661786 0.36624214 0.5010672
0003b0 68 c0 58 bd cc c3 1e be 71 d2 cf be 8c ad ee bc
       -0.052917868 -0.15504378 -0.40590242 -0.029135488
0003c0 68 61 1b be 33 0b 3b bf 8d 1b f2 3e e0 70 6f be
       -0.15173876 -0.73063964 0.47286645 -0.23382902
0003d0 78 5e 07 be db 57 fe be 1b a2 01 3e 2d 5a a0 be
       -0.1321963 -0.49676403 0.12659495 -0.313188
0003e0 99 ba 32 be eb 73 12 be 1e d9 c9 be 0d d8 3e be
       -0.17453994 -0.14302032 -0.3942346 -0.18637104
0003f0 9f a9 bc be e9 ec ff be 3b cb af bd b8 f6 4e 3f
       -0.3684816 -0.49985436 -0.08583685 0.8084521

lstm.weight_ih_l1 f4 [512, 128]
000000 de 6d eb be 28 da 81 3e ec 88 4c 3e 21 23 09 3f
       -0.4598226 0.25361753 0.19974107 0.5356923
000010 dd 14 26 bd a8 65 47 be ff a5 50 bc f4 f3 f4 3e
       -0.04054724 -0.19472373 -0.012734889 0.4784237
000020 29 2c 72 3c 51 f2 9a 3d a5 93 3d 3d 92 ef 11 be
       0.014781036 0.075657494 0.046283383 -0.14251545
000030 a1 9d 18 3e 89 b8 0d be ba 34 7f bc 46 23 b9 be
       0.1490388 -0.13839926 -0.015576536 -0.36159724
000040 8e cf 26 3c cc cd 95 be 10 10 b3 3c aa 37 20 be
       0.010181321 -0.29258573 0.021858245 -0.15646234
000050 b8 47 be 3e 98 35 db bd a3 d0 79 be c1 fa d7 bd
       0.37164092 -0.107035816 -0.24395995 -0.105458744
000060 77 ab c6 be c7 06 bb bd 3c 0f 48 3d 1b aa 49 3e
       -0.38802692 -0.09132152 0.048842654 0.19693796
000070 7a b9 5a bd c6 76 93 be d7 13 35 be f8 c6 b5 3b
       -0.05339954 -0.28801554 -0.1768335 0.0055474006
000080 b2 b2 7c be 34 29 e5 3c 64 92 b9 3d 9b 12 d6 be
       -0.24677542 0.027973749 0.09061125 -0.4181107
000090 11 42 a3 3e 59 cd d5 3d ca c6 b0 3e c5 f0 b0 bb
       0.31886342 0.104395576 0.34526664 -0.0053997957
0000a0 fd c4 7e 3e 10 d3 27 bf a3 75 dc 3d 5d 95 81 be
       0.24879833 -0.6555643 0.10764625 -0.25309268
0000b0 05 47 90 be 92 b3 e2 bd 47 02 39 3d 9d 20 09 3e
       -0.28179184 -0.110694066 0.045168187 0.13391347
0000c0 b8 b5 6c be 1c 75 0a be 0a c6 05 3e 12 be da 3d
       -0.23116195 -0.13521236 0.13063827 0.10680784
0000d0 cc ad a1 be 5f 51 93 be e5 a3 f1 3e 24 f5 22 3f
       -0.3157791 -0.2877302 0.47195354 0.63655305
0000e0 7a 64 b3 3e 4e 6a d6 3e a9 7c dc 3c 6a b5 bc 3e
       0.35037595 0.4187798 0.026914911 0.36857158
0000f0 f6 9e 8e be a3 10 a2 3d 3f 88 9a 3e b0 1b 03 3e
       -0.27855653 0.079133295 0.30182073 0.1280353
000100 17 6f a2 bc ba 64 83 be 11 e3 83 be 64 ab a1 3e
       -0.019828362 -0.25662786 -0.25759175 0.31576073
000110 81 b3 5f be a9 ef d4 3e 6b 18 d0 3c a0 1c 02 3e
       -0.21845819 0.41589096 0.025402268 0.12706232
000120 ee 47 d0 bd a0 ba d2 be 41 2e 0c bf 38 42 62 be
       -0.101699695 -0.4115801 -0.5475808 -0.22095573
000130 4e f0 90 3d 48 28 b8 3d e8 c9 37 be 6f 7c cd be
       0.070770845 0.08992058 -0.17948115 -0.40133998
000140 cc 07 6a 3f 3c d5 9f be 71 9a 11 3e d8 33 ce be
       0.9141815 -0.31217372 0.14219071 -0.4027393
000150 48 b6 b3 be 1e 63 b2 3e cd 3f 41 3e f4 e5 42 bd
       -0.35100007 0.34841245 0.18871994 -0.04758258
000160 74 91 58 3e 4f 39 e6 3e 4f 68 1d 3e 4c e1 2a 3f
       0.21149236 0.44965598 0.15371822 0.66750026
000170 71 24 e6 bd 41 63 fd be 79 e6 bd bc 5e 30 e4 be
       -0.112374194 -0.49489787 -0.023181187 -0.4456815
000180 39 48 c5 3d 2f 19 b1 3e a4 8d 9e 3e 68 e6 f4 3d
       0.09632916 0.34589526 0.30967438 0.11958009
000190 08 10 8c 3e c8 6c 6e 3e 50 62 42 be a4 62 e1 bb
       0.2735598 0.23283684 -0.18982816 -0.006878214
0001a0 bc 3f 19 be d7 4c 2a be ce 7a 35 be bb d0 24 bf
       -0.14965719 -0.16630875 -0.17722628 -0.64381
0001b0 87 af 63 bd cc 1e 22 be bb 35 0c 3e 4e 25 09 be
       -0.055587318 -0.1583206 0.13692372 -0.13393137
0001c0 8b 1e f3 39 35 2d ff 3d 3e 1a 09 3e b8 5e a1 bc
       0.00046371328 0.124597944 0.13388917 -0.019698486
0001d0 7a 53 16 3e ca 1e 45 3d 56 4b 67 3d 61 1c 6e 3e
       0.14680281 0.048125066 0.05646833 0.23253013
0001e0 3a d2 7f be 23 75 3f be cf 7e 39 bd 17 5c c3 3e
       -0.24982539 -0.18697028 -0.04528695 0.38156196
0001f0 a2 6e dd bd 6e d7 92 bd c1 53 31 be 77 d5 58 bd
       -0.10812117 -0.07169996 -0.17317106 -0.05293795
000200 47 dd 01 be 33 1e a2 3d a6 94 e9 3e 57 12 08 3f
       -0.12682067 0.07915916 0.45621222 0.53152984
000210 ec 24 8d be 2b 8b 56 bf 9a 6c 51 be f6 3c 80 3e
       -0.27567232 -0.83806103 -0.20451584 0.2504651
000220 86 1b e6 bc 04 83 15 3f 22 33 2c 3e d5 23 d6 bd
       -0.028089296 0.5840304 0.1681638 -0.10456053
000230 61 6b 5a 3c b7 f5 23 be 2e 6a d9 bc 61 a5 8d bd
       0.013331265 -0.16011702 -0.026539888 -0.06916309
000240 d6 19 05 be 78 2d 83 3c 72 a6 ca be c6 c2 81 be
       -0.12998137 0.016012892 -0.39580113 -0.25343913
000250 03 24 8b 3e 70 4a 30 3e ca 47 19 be 42 94 77 be
       0.27175912 0.17215896 -0.14968792 -0.2417765
000260 7c b2 cc be dc 73 0a bd 18 7d 65 3f 06 76 96 3d
       -0.39979923 -0.0338019 0.89644 0.0734673
000270 b1 4b 5c be a1 23 76 bd 67 58 02 be 9b 6e 32 3f
       -0.21513249 -0.060092572 -0.12729035 0.6970002
000280 03 2f 88 bd e8 8d 0b 3e 4d ef 8d 3d 51 f1 56 be
       -0.06649592 0.13628352 0.069304086 -0.20990492
000290 f9 3d ad 3e 1b a2 ad 3c ff 8f 06 3e ab 7b 48 3e
       0.33836344 0.021195462 0.13140868 0.19578426
0002a0 a2 24 da bc 73 54 65 bf 77 cb 0b 3f be f8 13 bf
       -0.026628796 -0.89581984 0.5460734 -0.57801425
0002b0 6c a6 19 be 6d e2 c5 bc fa 88 01 3e ca 91 e4 be
       -0.15004891 -0.02415582 0.12649909 -0.44642478
0002c0 62 96 0a 3d cf 6c 61 be 7c 01 80 3e e5 42 7e 3d
       0.033834822 -0.22014163 0.25001132 0.062075514
0002d0 6d fb 65 be ce 88 fc bd 41 c0 05 3e 1f c2 a3 3f
       -0.22459193 -0.12330781 0.1306162 1.2793616
0002e0 12 8f 1c 3e 59 eb 12 3f c9 a3 c7 3d 3f f7 88 3e
       0.15288952 0.5739036 0.097480364 0.26751134
0002f0 3d 4e c3 bc 3c e0 14 3d c5 76 9d bd 7f 6f c4 3c
       -0.023841018 0.03634666 -0.07688669 0.023978947
000300 43 9c cd 3c f4 18 13 be 8e 85 99 be c3 a2 f6 3d
       0.025098925 -0.14364988 -0.29984707 0.12042763
000310 86 d2 07 3e 0f 95 02 3e 15 25 3b be 7d 38 7d 3e
       0.13263902 0.12752174 -0.18275864 0.2472858
000320 94 4a eb 3b c2 3d 32 bf ff ed 78 bf 58 5a 0e 3e
       0.0071805213 -0.69625485 -0.97238153 0.13901651
000330 46 54 09 bf 46 4d 8b 3f e6 2d f4 be 2e 2a 40 be
       -0.53644216 1.0882957 -0.47691268 -0.1876609
000340 dc ee 99 3e c9 7c 0f bd 9e 64 39 bd ee 00 9b be
       0.30065048 -0.035031114 -0.04526197 -0.30274147
000350 c5 b4 b8 3b 16 ab f8 3e c8 fe 39 3e 20 06 77 bd
       0.005636784 0.48568028 0.18163598 -0.060308576
000360 72 9b 28 3e a0 5c 03 3e b6 b9 bc 3c 9f 3c 7e 3d
       0.16465548 0.12828302 0.023037773 0.06206953
000370 b7 a8 5a be 8e 55 09 bf b4 1c d5 3c d1 e8 8f be
       -0.21353422 -0.5364617 0.026014663 -0.28107312
000380 88 3a fe 3d 6a 33 65 3e 05 91 18 3e 8a e9 d3 bd
       0.12413508 0.22382894 0.1489907 -0.103472784
000390 af 01 33 3e 9d 96 55 3e e0 9b 7b bd 31 99 39 bc
       0.17481111 0.20858236 -0.06142795 -0.011328028
0003a0 cd aa 0f bd 59 94 73 bb b7 de bc bc ce 50 1a bf
       -0.035074998 -0.003716728 -0.023055417 -0.6027955
0003b0 82 78 1b 3d e3 b4 09 3e 55 b5 5c 3d ad 30 28 3d
       0.037956722 0.13447909 0.05388387 0.041062046
0003c0 0a f2 d3 bd 63 16 06 bc 77 9b fc 3d 2d 49 87 bb
       -0.103489 -0.008184048 0.1233434 -0.0041285963
0003d0 be 5c 82 3e 29 37 0a 3f fb a3 8a be 54 c3 cf 3d
       0.25461382 0.5399042 -0.27078232 0.10144678
0003e0 09 8d ed bd 54 b7 16 be aa cb b2 bc a1 a0 7a 3e
       -0.11599166 -0.14718372 -0.02182563 0.24475338
0003f0 c9 ee 1a be f9 10 82 bd 03 01 0d be b5 8c 78 be
       -0.15130152 -0.063508935 -0.13769917 -0.24272425

lstm.weight_hh_l1 f4 [512, 128]
000000 69 75 03 3d a6 cc ba bc f8 f8 5d be d1 79 e7 bd
       0.032094393 -0.022802662 -0.21677005 -0.113025315
000010 f8 37 c3 bb 59 8f 99 be 0d 97 bb be c4 f9 0c be
       -0.0059575997 -0.29992178 -0.3663868 -0.13767153
000020 fb 83 43 bc b9 db d8 3d 02 b1 3e be cb f4 5c 3e
       -0.011933322 0.10588784 -0.1862221 0.21577756
000030 48 d0 53 be a1 76 d5 3d 27 cf 8d 3e b8 7f af be
       -0.20684922 0.10423017 0.27697107 -0.3427713
000040 1e c3 90 3d f2 c7 05 be 4e 1e 31 3c f3 fd b6 3e
       0.07068466 -0.13064554 0.010810448 0.35740623
000050 8e ec 0c bc 9c d9 b2 3c 0c 61 fc bd 2d 72 ef 3d
       -0.008601321 0.02183228 -0.12323198 0.11691699
000060 dc 88 30 be 28 42 63 bd 91 83 38 3e 6f b8 1d be
       -0.17239708 -0.055483013 0.18018939 -0.15402387
000070 93 36 a2 be 01 36 9c 3c 86 f0 dd bd a2 7c 6b 3d
       -0.31682262 0.01906872 -0.10836892 0.057491906
000080 ff e5 e0 3c cd 57 75 be ca 9f 1d 3e 1b ba 19 bd
       0.02745342 -0.23959275 0.15392986 -0.037531
000090 50 ba d1 3d 1d 82 b9 3e fc 3d 36 bd f0 39 15 3e
       0.102406144 0.3623208 -0.044492707 0.14572883
0000a0 a1 35 42 3e ec 14 84 be f9 ed 01 3e fb fe 8a 3d
       0.1896577 -0.25797212 0.12688436 0.06786915
0000b0 b9 a1 ac bd 09 63 2d be 69 b1 8c 3e 0a 7f 37 3e
       -0.08429284 -0.1693231 0.27479103 0.17919555
0000c0 fd 6d 36 be af b0 fd b8 8e 6e 16 3e 85 34 65 3e
       -0.17815395 -0.0001209689 0.14690611 0.22383316
0000d0 f6 f9 f0 bc fb c8 6e 3c 82 f8 10 bc 17 e9 2b be
       -0.029416066 0.014574285 -0.008848311 -0.16788135
0000e0 9b ff 8a 3d d2 58 96 3e 18 eb b6 bd 8a ff c3 be
       0.06787034 0.2936464 -0.08931559 -0.38280898
0000f0 62 fc ea 3d 30 45 e8 3e 67 cc f0 3c ee cb 08 be
       0.114739195 0.45365286 0.029394342 -0.13359043
000100 0d 25 d6 3c ab 98 37 3e cc 51 c9 3d 3e 08 a5 be
       0.026140714 0.17929332 0.09830055 -0.3223285
000110 88 0c 09 3e 3d 0c a2 bd 0c 33 96 3e 3d cd 19 bd
       0.13383687 -0.079124905 0.2933582 -0.037549246
000120 b9 11 82 be eb 2e 73 be a4 ef f4 bd 68 4c c0 3b
       -0.25404146 -0.23748367 -0.1195977 0.0058684833
000130 f5 0c 2a be e0 24 6b 3d ac 91 24 bd 37 df e1 3d
       -0.16606505 0.057408214 -0.040177986 0.11028903
000140 b6 f8 8e 3e 2b a0 2a be 0a b3 5e be d9 74 3f be
       0.27924126 -0.16662662 -0.21747985 -0.18696918
000150 43 23 25 be eb 4b ea 3d 1d 87 d1 3e fd cf 04 3e
       -0.16126733 0.114402615 0.40923396 0.12969966
000160 cb 1c a9 3e bf 84 4d 3d 54 be 36 b9 1e ab 19 3e
       0.3302978 0.050175425 -0.00017427775 0.15006682
000170 7c 45 a2 be 9d 15 0f 3e 10 fa 80 bd ef 22 ca be
       -0.31693637 0.13973089 -0.06297696 -0.39479777
000180 a8 e4 f5 bd f9 9b 8f 3e ec 75 2f 3e d1 55 d4 be
       -0.12006503 0.28048685 0.17134827 -0.41471723
000190 58 2f 5a 3e 83 f3 fa 3d 12 01 99 bd 74 20 97 be
       0.21307123 0.122534774 -0.07470907 -0.29516947
0001a0 b2 53 c0 3e 5d 7a e7 3d 5e 80 80 be d4 cf 5a 3e
       0.37563854 0.11302636 -0.25097936 0.21368343
0001b0 34 9a 02 be 3b cd d4 bc 6d 17 4c bd 71 07 6d 3d
       -0.12754136 -0.025976768 -0.049827028 0.057868425
0001c0 83 4e d5 be fd 31 d5 3c 75 88 92 be 11 37 6d bc
       -0.41661462 0.026024813 -0.28619733 -0.014478461
0001d0 d1 d8 a8 3d 5c dd 96 3d 98 56 9a bc 5f 36 82 be
       0.082444794 0.0736644 -0.01884012 -0.25432107
0001e0 24 5c ba be 20 42 5c bb 2c 7e 4b be dd e0 66 3e
       -0.36398423 -0.003360875 -0.1987235 0.22546716
0001f0 fa 57 57 3e 1f 3a 81 3e 1e cb de 3d 0a aa c0 3d
       0.21029654 0.25239655 0.10878585 0.094074324
000200 a1 84 d1 bd 6e aa 0d be f8 2a ab bc 41 37 11 be
       -0.10230375 -0.13834545 -0.020894513 -0.14181234
000210 4a 44 c3 bd 02 6d 55 bd 9c 81 a9 bd aa 31 89 bd
       -0.095345095 -0.05210591 -0.08276674 -0.06698926
000220 ae d7 c0 3d d0 39 82 3d 03 d6 69 3e 56 ec 2f be
       0.09416138 0.06358683 0.22835545 -0.17179999
000230 69 63 84 bd ac ae fb 3d 8c 90 33 3e a3 97 47 be
       -0.064642735 0.122891754 0.17535609 -0.19491439
000240 4d 89 7a bd ca 3b 95 bd 00 ae b4 3c 27 16 4a 3d
       -0.061166096 -0.072867945 0.022055626 0.049337532
000250 7e a3 8e bb c8 dd 0b 3e 96 d7 1c be 89 97 1c 3d
       -0.004352986 0.13658822 -0.15316615 0.038230453
000260 f1 37 0c be d1 ac c9 3d 2a bd b3 3d 11 d9 48 be
       -0.13693215 0.09847415 0.087763146 -0.19614054
000270 c5 82 ef bd 3f 22 9e be f8 ad b5 3c 82 ba 52 3c
       -0.11694864 -0.30885503 0.022177681 0.01286185
000280 6b 96 05 bd 2b cf d2 bc 07 74 9a b7 09 b7 4d 3d
       -0.032614153 -0.025733551 -1.841226e-05 0.050223384
000290 7e 07 c4 3c 3a 47 54 3d fa cb 18 3d d3 63 66 3d
       0.023929354 0.05182574 0.037303902 0.056247544
0002a0 eb 3f 18 bd e5 f1 aa bd 01 0f 69 3d 71 fd bd be
       -0.037170332 -0.08346919 0.056899074 -0.37107423
0002b0 63 da 00 be 39 c3 01 bd 12 73 25 3e db 06 a6 3d
       -0.12583308 -0.03168032 0.16157177 0.08106776
0002c0 f7 ce bc 3d 51 af 98 3b 7c 16 cd 3c df 65 89 3d
       0.09219163 0.004659571 0.025035135 0.067088835
0002d0 c4 5e 9b bd d7 1f 96 bb 93 3a 45 bb 42 6e bc bd
       -0.075864345 -0.0045814323 -0.0030094727 -0.092007175
0002e0 a5 01 0b bd 75 65 94 3d 91 43 5f be 67 fc 96 bb
       -0.033937115 0.07245914 -0.21803118 -0.0046077254
0002f0 50 d1 ec 3d e3 3f 12 3e 36 71 9f 3d 41 f0 99 3a
       0.11563361 0.14282183 0.07785265 0.0011744575
000300 1f 7d d6 bd df b8 6d 3c 69 fc 29 be 29 6a 6d bd
       -0.10473084 0.014509409 -0.16600193 -0.05796257
000310 ec 63 14 3d 20 60 12 3e ce 4f a7 3e 28 fa dd 3d
       0.036228105 0.14294481 0.32678074 0.10838729
000320 be 7f 24 be 57 01 a9 bd 26 57 01 be c0 25 2e 3f
       -0.16064355 -0.08252209 -0.126309 0.6802635
000330 62 0a cb bd 1e cb 8e bc 94 6e 00 bc 84 ed 8f bd
       -0.0991409 -0.017430838 -0.007838864 -0.070277244
000340 27 cf d0 3d 3c e0 95 3d bb b9 30 3e 61 59 57 be
       0.10195761 0.0731816 0.1725835 -0.21030189
000350 7e f8 b9 bc d4 c1 ed 3d 94 47 42 3c 01 e9 a6 bb
       -0.022701498 0.116092354 0.011857886 -0.005093694
000360 11 a5 0e 3e ae df 43 3d 35 f3 61 3d c3 16 09 bd
       0.13930155 0.04782074 0.05516358 -0.033468973
000370 6b e2 4f bc 5d 6f 45 be 62 10 19 bc 64 ca 50 bd
       -0.01268826 -0.19280763 -0.009342285 -0.050974265
000380 db 77 42 be ad bc d8 3d d8 b8 83 be b8 a7 2f 3d
       -0.18991034 0.10582862 -0.25726962 0.04288456
000390 80 af 96 3d 5a bb 4c bd b7 71 66 bd e0 12 cc bd
       0.07357693 -0.04998336 -0.05626079 -0.099645376
0003a0 ab 68 75 3d ca 2a 5b 3c 66 68 4f be 00 0d d7 3d
       0.059914272 0.013376901 -0.20254669 0.105005264
0003b0 05 f3 93 be 4b 67 69 be c8 73 6e bd a5 9c fa 3d
       -0.28896347 -0.2279331 -0.058215886 0.12236909
0003c0 23 22 f1 3d eb 17 ca 3c 0f 43 a2 bd be e0 1b bd
       0.11774089 0.024669608 -0.07922947 -0.038056128
0003d0 62 eb 01 3d 03 a7 25 bd 12 90 88 bd 58 cd 93 3a
       0.03171862 -0.040442478 -0.06668104 0.0011276407
0003e0 2a db 02 be f8 f1 2e be c1 88 84 bd f6 2a 9b be
       -0.12778917 -0.17084491 -0.06471396 -0.30306214
0003f0 41 ff 02 bc 7b 3b bf bd bd 52 2d be 78 32 33 bd
       -0.007995428 -0.09337517 -0.16926093 -0.043749303

lstm.bias_ih_l1 f4 [512]
000000 44 c2 81 bb 99 4d 16 3d 29 e6 d3 be 53 2f 2d bf
       -0.003959926 0.036695097 -0.41386536 -0.67650336
000010 95 88 b4 be ad 55 f6 be 87 85 a4 be 20 3c e7 be
       -0.35260454 -0.4811224 -0.32133123 -0.4516306
000020 c0 ab 11 bf b1 83 00 bf 24 ed 14 3f 78 93 1e 3f
       -0.56902695 -0.50200945 0.5817435 0.6194377
000030 0e 3c 24 be 8c 63 a0 bd 29 bf 07 bf ed 4c 9e 3d
       -0.16038534 -0.07831487 -0.5302606 0.07729516
000040 ba cc 2b bf cc 48 a9 bd f5 44 9b be a8 e9 44 be
       -0.6710926 -0.08265838 -0.30326048 -0.19229758
000050 b0 c1 2b bf fa 2e 14 bf a6 89 d1 be 8b 5e 0c 3e
       -0.6709242 -0.5788418 -0.4092533 0.1370794
000060 4d 0d d3 be 9a c7 35 3f a9 e8 70 be fb 7f 8b be
       -0.41221085 0.7100769 -0.23526253 -0.2724608
000070 86 9f 7d 3e 02 d9 81 be 70 fc b2 be 86 25 1d bf
       0.24767885 -0.25360876 -0.3495822 -0.6138538
000080 e4 ea a3 bc a5 14 00 bf e6 ba eb bd eb c9 84 3e
       -0.020009466 -0.500315 -0.115102574 0.259353
000090 31 4c e2 be 61 d9 ae be 78 21 5f bf 04 af ef be
       -0.44198754 -0.34150222 -0.87160444 -0.46813214
0000a0 f3 3d d5 be 6b 84 df be c4 14 24 bf 69 db 58 3e
       -0.41648826 -0.43655714 -0.64094186 0.21177448
0000b0 2a 7e 0d be d5 57 a7 be 9a c6 0d bf d5 11 a5 be
       -0.13817659 -0.32684198 -0.55381167 -0.32240167
0000c0 cc c4 89 be 31 17 fe be ad 97 91 3e ab ef 7a 3f
       -0.26907957 -0.4962707 0.28436032 0.98021954
0000d0 6d f8 1f bf b8 17 93 be fb 3d 9a be 3e 4d ea be
       -0.6248844 -0.28729033 -0.30125412 -0.45762056
0000e0 dd 85 d5 be 35 e3 f4 be 5c bd ae 3e 9d 1a 5e 3e
       -0.41703692 -0.47829595 0.34128845 0.2168984
0000f0 10 24 d5 be 75 82 6c be 8e 62 9f be b9 42 cd be
       -0.41629076 -0.2309664 -0.3112988 -0.40089968
000100 78 18 d1 3e 24 f2 0a 3f ee 56 df be 3c c2 0f bf
       0.4083898 0.5427573 -0.4362101 -0.56155753
000110 e5 64 84 be 3d 8e 08 bf b9 ed 0c 3f 13 95 bc 3e
       -0.25858226 -0.5334204 0.55050236 0.36832485
000120 0d da 3d bf e5 94 57 be 8b 0e 5c bd 9e b2 60 3e
       -0.74160844 -0.21052893 -0.053724807 0.21943137
000130 9d 92 fe be c9 81 af 3e 9a 94 4b 3f ec 23 25 be
       -0.49721232 0.34278706 0.79523623 -0.16126984
000140 b7 de 34 bf c9 11 0b 3f 9d 52 1b bf 2f 30 01 bf
       -0.70652336 0.54324013 -0.6067293 -0.5046415
000150 9c c6 9c 3e 9c 79 0a bf 57 6a 87 3e e8 e4 c6 be
       0.30620277 -0.5409181 0.26448318 -0.38846517
000160 14 3f 09 bf 7a 7c f1 be 5c b4 9e be 49 72 9a be
       -0.53611875 -0.4716528 -0.30996978 -0.30165318
000170 fe af 14 be 46 13 40 bf ee 35 1b bf 87 11 d6 be
       -0.1452026 -0.7502941 -0.60629165 -0.41810247
000180 72 cf 3f bf 36 a2 e2 be d2 3c 41 3c df 49 7c be
       -0.7492591 -0.44264382 0.011794286 -0.24637555
000190 e0 17 ad be 79 e6 f9 be 57 f6 e3 be bc 7f bb be
       -0.33807278 -0.4880865 -0.4452388 -0.3662089
0001a0 8f 8b 98 be 85 d6 8d be a9 00 23 bf db 07 2d bf
       -0.29793975 -0.27702728 -0.6367288 -0.6759011
0001b0 40 d0 3e bf 7f 2d 85 3f eb ff 15 be ac 84 bc be
       -0.74536514 1.0404509 -0.14648406 -0.3681997
0001c0 27 eb c7 be 14 47 d0 be 92 1b a0 3e 6f 52 bc be
       -0.39046595 -0.40679228 0.31271034 -0.36781642
0001d0 ea e9 2d bf 67 09 d0 be c0 0e 96 be 03 dc b4 bd
       -0.6793505 -0.40632173 -0.29308128 -0.088310264
0001e0 ee 89 e7 be ba 83 4b be f0 0e d8 be b8 47 cb be
       -0.4522242 -0.19874468 -0.42198896 -0.39703155
0001f0 00 fc c4 be 47 eb 10 be c5 14 47 3e 04 cc ee be
       -0.3847351 -0.14152251 0.19441517 -0.46640027
000200 ff 66 27 3e fd 75 90 3d 9d 92 a6 be 2b 70 0a bf
       0.16347884 0.070537545 -0.32533732 -0.54077405
000210 3d 2e d9 bc ad ab a8 bc cf 0f 9a bd 22 51 88 be
       -0.026511306 -0.020589674 -0.075225465 -0.266244
000220 d7 74 9b be fe 24 88 bd e1 af de 3e 45 8e c8 3e
       -0.3036258 -0.06647681 0.4349356 0.39171043
000230 05 c9 7f 3e 67 30 80 3e 42 b4 c3 bd 38 11 d9 be
       0.24979027 0.25036928 -0.09555866 -0.4239595
000240 ab da 2f be 9a 7d ef 3c a8 07 55 be 87 9f d6 bd
       -0.17173259 0.029234696 -0.20803702 -0.10479646
000250 0a 6c 25 be 71 23 69 be e5 0f e2 bd 4f 58 21 3e
       -0.16154495 -0.22767426 -0.11038188 0.15756343
000260 9d d4 5f bd 6a b2 bf 3e b4 fc c3 3b 11 eb e1 be
       -0.054646123 0.37440807 0.0059810523 -0.44124654
000270 53 be 2c bf b1 b9 c7 be 9a 17 d8 bd 95 55 fd bd
       -0.6747791 -0.3900886 -0.10551377 -0.12369839
000280 9b 0f 88 3e d1 17 f6 bd 3e 07 55 3e b0 65 71 3e
       0.26574406 -0.12016261 0.20803544 0.23573947
000290 8d 2c ba bd c4 3c 4e 3c 76 4a 51 be 4e 23 3f be
       -0.09090529 0.01258773 -0.20438561 -0.18665811
0002a0 e4 5a 09 be d8 4c 15 bf 12 a1 24 be d9 94 da 3c
       -0.13413578 -0.5832038 -0.16077068 0.026682304
0002b0 e6 00 83 3e 29 d1 57 be ce af dc bd 67 ac 29 be
       0.25586623 -0.21075882 -0.107757196 -0.16569673
0002c0 5a 4a 0c be 20 7e 97 be 8c 86 30 3e ce f1 03 bf
       -0.13700238 -0.29588413 0.17238826 -0.5154084
0002d0 df f8 6e be 0b 94 02 bd 26 2f 1e bb 9b e5 46 be
       -0.23337124 -0.031879466 -0.002413699 -0.19423525
0002e0 5c 69 a1 be 5b 42 4d be 55 59 88 3e 16 67 20 3e
       -0.31525695 -0.20044844 0.26630655 0.15664324
0002f0 14 d3 40 be 47 73 99 be 4c 8d b7 bd 2c 51 15 be
       -0.1883052 -0.29970762 -0.08962497 -0.14581746
000300 6e 7b 46 be 0b 85 30 3f b9 7e f2 be 9b 6d ee bd
       -0.19383022 0.6895301 -0.47362307 -0.11641999
000310 98 6a c7 bd 74 c4 03 bf 7d c0 20 3e 83 5f b8 3e
       -0.09737128 -0.5147164 0.15698428 0.3601037
000320 18 88 97 bd b9 93 99 3c b2 9e 05 be c6 1f 3e 3e
       -0.07399005 0.018747197 -0.13048819 0.18566808
000330 d2 fc 72 be a5 00 12 3d fe d0 08 bf 91 ee 08 3e
       -0.23729256 0.035645146 -0.53443897 0.13372256
000340 90 e0 d7 be 6e 46 7e 3e c4 ff 3a be 94 05 fb be
       -0.42163515 0.24831554 -0.1826163 -0.49027693
000350 f2 d2 7b 3e 9f 7c 68 be 7e 42 ee be ff 97 75 bb
       0.24592188 -0.22703789 -0.46535105 -0.003747463
000360 37 8e 34 be 26 b1 1f bd 00 3d 3c bb cd 26 08 bf
       -0.17632376 -0.0389873 -0.0028722882 -0.53184205
000370 a9 1f 88 be 82 bb bd be 4b ae 5a be 8f 1f 6f bd
       -0.26586655 -0.3705712 -0.2135555 -0.058379706
000380 2a 3f 11 bf cf 5b e6 bd 3c 23 4a 3e 18 bd bd bd
       -0.56737006 -0.1124798 0.19740003 -0.092645824
000390 1e d3 56 bd 16 0e a4 be 0d 27 1e be 2c 6f de bd
       -0.05244743 -0.32041997 -0.15444584 -0.10861048
0003a0 5c e1 c0 bd 92 fb c4 3c 31 86 80 be 19 88 ba bd
       -0.09417984 0.02404574 -0.2510238 -0.0910799
0003b0 1e be e8 be 4f 31 25 3f 2e 85 41 3e 3b fa 7b be
       -0.45457548 0.64528364 0.1889846 -0.24607174
0003c0 83 f8 b1 be 7d a9 63 bd 48 b8 81 3e b7 ac 52 be
       -0.34759912 -0.05558156 0.25335908 -0.20573698
0003d0 ba a5 c8 be a3 7d 2c be 97 42 93 3e df b9 13 bd
       -0.3918894 -0.16844802 0.28761742 -0.036065932
0003e0 be 6d c4 bd 5a 9b 99 be 81 11 53 3d d0 2a 5c 3e
       -0.09591244 -0.30001336 0.051530365 0.21500707
0003f0 1c 2e b5 be 46 ed 74 bb 8c 9e 48 3e 60 dc 0d 3e
       -0.3538674 -0.0037372871 0.19591731 0.13853598
