utils/model_skewed.pth (torch, 206782 bytes, 9 tensors)

lstm.weight_ih_l0 f4 [256, 2]
0	0xbf8c8662	-1.097851
1	0x3f85e124	1.0459332
2	0xbf82f272	-1.0230238
3	0x3f372e62	0.7155515
4	0xbfe7735c	-1.808208
5	0x3eed7f46	0.46386164
6	0xbf0cfabe	-0.550701
7	0xc024801b	-2.570319
8	0xbfce2e27	-1.6107835
9	0xbf32d084	-0.6984942
10	0x3fd5e1d6	1.6709545
11	0xbeee1466	-0.46499938
12	0xbd2173bf	-0.039417025
13	0x3fe5d128	1.7954454
14	0xbf0b2bd0	-0.5436373
15	0xbfa8af27	-1.3178452
16	0xbfe5f41e	-1.7965124
17	0xbd49e1e5	-0.049287695
18	0xbf53caaa	-0.82731116
19	0x40443f1d	3.0663521
20	0xbfe0e67b	-1.7570337
21	0xbe9f6d81	-0.31138232
22	0xc0515cb1	-3.2712824
23	0xbf4c70d2	-0.7985965
24	0xbfb31ef0	-1.3993816
25	0x3df6e2a2	0.120549455
26	0xbfc94071	-1.5722791
27	0x3f0dd3ad	0.55401117
28	0xbe97f81e	-0.29681486
29	0x3d97043a	0.07373853
30	0xbf8ec51d	-1.1153904
31	0x3e1d8bee	0.1538541
32	0xbddf7b5d	-0.109122016
33	0xc07cafc9	-3.948229
34	0xbdd0b5e6	-0.101909444
35	0x3ea76590	0.32694674
36	0x3f8b75ff	1.0895385
37	0x3f865a98	1.0496397
38	0xbeeb7fc9	-0.4599593
39	0xc08c5cc9	-4.3863263
40	0xbe07effe	-0.13275144
41	0x3ef38df4	0.4756924
42	0xbfafcbc7	-1.3734063
43	0xc028af00	-2.6356812
44	0xbf252c53	-0.6452076
45	0xc021eada	-2.5299592
46	0xbf70bc8a	-0.9403769
47	0xbf8fc8cd	-1.1233155
48	0x3e060df4	0.1309126
49	0xbe86294b	-0.2620338
50	0x3f492bfb	0.78582734
51	0x400a031f	2.1564405
52	0xbf2a1a10	-0.6644602
53	0xc09557ca	-4.6669664
54	0xbeb281b1	-0.34864572
55	0x400367e3	2.0532157
56	0xbfc9aa6f	-1.5755137
57	0x3f1b2b0c	0.6061256
58	0x3fca9857	1.582774
59	0x407e9bde	3.9782634
60	0x3fa9938e	1.3248155
61	0xc0115464	-2.2707758
62	0x3e4167e9	0.18887295
63	0xc01faf27	-2.4950655
64	0x3b90999a	0.004412842
65	0xbfa864ca	-1.3155758
66	0x3ec3bf64	0.38231957
67	0x40040d4d	2.0633118
68	0xbfae3fc4	-1.361321
69	0x40771c04	3.861085
70	0x3f47e361	0.7808133
71	0x3f547983	0.8299791
72	0xbe4fd225	-0.20295008
73	0xc049abcd	-3.151111
74	0x3f4ecd54	0.80782056
75	0xbeea9f6b	-0.4582475
76	0xbfee98a5	-1.8640333
77	0xbf32d4db	-0.6985604
78	0x3f7a1648	0.9769025
79	0xc0517095	-3.2724965
80	0x3f4bf7ab	0.79674786
81	0x3fd747fb	1.6818842
82	0x3ef34a64	0.47517693
83	0xbfc16821	-1.5109903
84	0xbf708215	-0.9394849
85	0xbe91db8d	-0.28487816
86	0xbf96d431	-1.1783506
87	0x3f91c7f1	1.1389142
88	0xbf7b851e	-0.98249996
89	0xc06fcf5d	-3.7470315
90	0xbfc07cd9	-1.50381
91	0xbea8afbe	-0.3294658
92	0xc01ddcd8	-2.4666042
93	0xbee6745e	-0.45010656
94	0x3ecca84e	0.39972156
95	0xbfc979e2	-1.5740321
96	0xbe5cd83f	-0.21566866
97	0xc0ad5ce8	-5.417591
98	0xbf0b8c47	-0.5451092
99	0x3f42992f	0.7601499
100	0xbfc1df93	-1.5146354
101	0xbff1f551	-1.890299
102	0xbede2ebb	-0.43395028
103	0x3fec8f7d	1.8481289
104	0xbfbb5bec	-1.4637427
105	0xbf728562	-0.94734776
106	0x3ccb8472	0.024843428
107	0xc0250297	-2.578283
108	0xbf9f2c28	-1.243535
109	0x3f442f24	0.7663443
110	0xbe30df3c	-0.17272657
111	0x3fa57502	1.2926333
112	0xbf690478	-0.91022444
113	0xbeb935a6	-0.36173743
114	0xbfb6d5f6	-1.4284046
115	0x3f269cf5	0.6508325
116	0xbf886bd1	-1.0657903
117	0xbe41c95a	-0.18924466
118	0xbf0acbc9	-0.542172
119	0xc0a85be9	-5.2612195
120	0xc023da6a	-2.560206
121	0xbf6f1639	-0.93393284
122	0x3f4b663d	0.7945288
123	0x3fbf0d05	1.4925848
124	0xbdfa1cca	-0.12212522
125	0x3e5c6eba	0.21526614
126	0xbd438dd3	-0.047742676
127	0xc0ce9839	-6.456082
128	0xbfe2fbc4	-1.7733083
129	0x3f43f6c1	0.7654839
130	0xbf2675f0	-0.6502371
131	0x3e7bd037	0.24591146
132	0xbf5a2469	-0.8521181
133	0xbf093f76	-0.5361246
134	0x3edefd69	0.43552712
135	0xbec4904b	-0.38391337
136	0xbf9eec20	-1.241581
137	0xbf0494be	-0.5178946
138	0x3f881dff	1.0634154
139	0xbeaff35a	-0.3436535
140	0x3f8ff703	1.1247257
141	0x3f478d84	0.7795031
142	0x3ec28eaf	0.37999484
143	0xbf64e0c6	-0.8940548
144	0xbf80ae73	-1.0053238
145	0x3f5b55b4	0.8567765
146	0xbd20effe	-0.039291374
147	0x40823481	4.068909
148	0xbf2c490b	-0.67298955
149	0xbef4e2cd	-0.47829285
150	0xbf6065b9	-0.87655216
151	0xbead5889	-0.3385661
152	0xbf966d10	-1.1752033
153	0xbf085c7e	-0.5326613
154	0xbe36119d	-0.17780156
155	0x3f9a48b0	1.2053432
156	0xbf231eab	-0.6371867
157	0xbf4efae9	-0.8085161
158	0x3de929e3	0.113849424
159	0x3bb5aa11	0.005543955
160	0x3f87152f	1.055334
161	0xc0271f4a	-2.6112847
162	0xbf0f9c24	-0.56097627
163	0x3ef82def	0.48472545
164	0x3f977312	1.1831992
165	0x3f77e1d1	0.96828943
166	0x3dacb79b	0.084334575
167	0xc0307fcd	-2.7578003
168	0xbef7386f	-0.48285243
169	0xbea435b9	-0.32072237
170	0xbea3a814	-0.3196417
171	0xc0061432	-2.0949826
172	0xbead6292	-0.33864266
173	0xc0217558	-2.522787
174	0xbf77339e	-0.96563137
175	0xbf877d4e	-1.0585115
176	0x3f1d7864	0.61511827
177	0xbe81ab2f	-0.25325915
178	0x3f8bb424	1.091435
179	0x3f7a23bb	0.9771077
180	0xbece8485	-0.4033548
181	0xc06fbb6c	-3.7458143
182	0xbdbf8ea8	-0.093533814
183	0x3fe8f816	1.820071
184	0xc010904a	-2.2588067
185	0xbf0b019b	-0.54299325
186	0xbe36d348	-0.17854035
187	0x404b8682	3.1800847
188	0x3fc812a8	1.5630693
189	0xbf994e1b	-1.1976961
190	0x3f9f439d	1.2442509
191	0x3f815dd9	1.0106765
192	0xbf49cbac	-0.78826404
193	0xbfe56f42	-1.7924578
194	0xbda139ea	-0.07872374
195	0x3feaeb3d	1.8353039
196	0xbf681aee	-0.9066609
197	0x3f96cb88	1.1780863
198	0x3f506242	0.8139993
199	0x3ec4eb93	0.3846098
200	0xbbd1bca0	-0.0064006597
201	0xc007ca24	-2.1217127
202	0xbedf6200	-0.43629456
203	0xbf7aea5b	-0.9801385
204	0xbf91a1c1	-1.1377488
205	0xbf0385a5	-0.513758
206	0xbf6d47a4	-0.9268744
207	0xc04257fe	-3.0366206
208	0xbf644d9f	-0.8918094
209	0x3ebbee89	0.36705425
210	0x3f4ba9c9	0.79555947
211	0xbf819552	-1.0123694
212	0xbf5a31a4	-0.85231996
213	0xc038257c	-2.8772879
214	0xbfdaf8ff	-1.7107238
215	0xbf225b39	-0.63420445
216	0x3ebdd5c4	0.37077153
217	0xc02cedab	-2.702006
218	0xbf12f0a0	-0.57398415
219	0x3f06f4ec	0.5271747
220	0xbfc9822a	-1.5742848
221	0xbe5c5c5d	-0.21519609
222	0x3e8700c7	0.2636778
223	0xbfccf81c	-1.6013217
224	0x3f4cedb2	0.80050194
225	0xc064a982	-3.572846
226	0xbf96fd7e	-1.179611
227	0xbe8a7eab	-0.27049765
228	0xbdc97f9e	-0.09838794
229	0xbfb5204e	-1.4150484
230	0xbe200bc3	-0.15629487
231	0x401baf44	2.4325724
232	0xbf843a50	-1.0330296
233	0xbf3d9e14	-0.74069333
234	0xbe8350b1	-0.256475
235	0xc08f234b	-4.473058
236	0xbf361547	-0.71126217
237	0x401a3c99	2.4099486
238	0xbf62694a	-0.8844191
239	0x4041e467	3.0295656
240	0xbe51de80	-0.20495033
241	0x400b7ab3	2.179364
242	0xbff758dd	-1.9323994
243	0xbf75ef24	-0.96068025
244	0xbf9c2e70	-1.2201672
245	0xbf3da6ef	-0.74082845
246	0x3e911bbb	0.2834147
247	0xc07cc940	-3.9497833
248	0xbfcfcfcb	-1.6235288
249	0xbfe1cb49	-1.7640163
250	0xbe2674b6	-0.16255459
251	0xbebfa999	-0.3743408
252	0xbebf5d20	-0.37375736
253	0x3e1585cb	0.14601819
254	0xbce34362	-0.027742092
255	0xc086a495	-4.2075906

lstm.weight_hh_l0 f4 [256, 64]
0	0x3fb97e96	1.4491756
1	0x3fcb4ee6	1.5883453
2	0x3d53bf7d	0.05169629
3	0x3f6f6083	0.9350664
4	0x3fefc4b2	1.8731902
5	0x3d91aa03	0.07112505
6	0x4014b10b	2.3233058
7	0x3fd0a7a4	1.630116
8	0x3f11357a	0.56722224
9	0x3f7651e8	0.9621873
10	0xbe4ed259	-0.20197429
11	0xbfbcbc54	-1.4744973
12	0x3e4c7948	0.1996814
13	0x3f5feb24	0.8746817
14	0x4020e6c8	2.5140858
15	0xbe92df00	-0.2868576
16	0x3fc0a2a4	1.5049634
17	0xbec9a8fe	-0.39386743
18	0x3db0c78b	0.0863181
19	0xbf7ec3d8	-0.99517584
20	0x3fa9d8cc	1.3269286
21	0x400562e9	2.084162
22	0xbc99d27c	-0.018777125
23	0xbe9d82c2	-0.30763823
24	0xbe287ec7	-0.16454612
25	0x3f0dbc94	0.5536587
26	0x4020aa99	2.5104125
27	0xbfe4281d	-1.7824742
28	0x3fafd7fe	1.373779
29	0xbeb9ce4d	-0.36290208
30	0x3e291116	0.16510424
31	0xc0086e70	-2.1317406
32	0x3f183a84	0.5946429
33	0x3e70ccef	0.23515676
34	0xbe007048	-0.12542832
35	0x3efb06b3	0.4902855
36	0xc01c08c1	-2.4380343
37	0x3f1df6a1	0.6170445
38	0xbe89b673	-0.2689701
39	0xbf24418a	-0.64162505
40	0xbff1e168	-1.8896914
41	0xbe0ffa8f	-0.14060424
42	0xbf21fb1c	-0.6327379
43	0xbe292457	-0.16517769
44	0x3f7335f3	0.95004195
45	0xbd5c07d8	-0.053718418
46	0x3e312506	0.1729928
47	0x3f0ba2d6	0.5454534
48	0x3ab173e2	0.0013538564
49	0xbeb169dd	-0.3465108
50	0xbecb79c5	-0.3974134
51	0xbf77c985	-0.9679187
52	0x3f581965	0.8441375
53	0x3e05c224	0.1306234
54	0xbd87293d	-0.065996625
55	0x3d867b41	0.065664776
56	0x3f4bb5c0	0.79574203
57	0xbe16b94b	-0.14719121
58	0x3ebb2d55	0.36558023
59	0x3fc791ff	1.559143
60	0xbf3f4973	-0.7472145
61	0x3f1134fb	0.56721467
62	0x3fbd1be4	1.4774137
63	0x3f977b95	1.1834589
64	0x3f1d1f24	0.6137564
65	0x3fece319	1.8506805
66	0xc025cb5f	-2.5905378
67	0x3fea6bfb	1.8314203
68	0x3ffc3475	1.9703509
69	0x3cdf5c9f	0.027265845
70	0x3f409474	0.7522652
71	0x3f14dbd7	0.5814795
72	0xbf19bb49	-0.600514
73	0xbfdb214e	-1.7119539
74	0xbfeae0cc	-1.8349853
75	0x3f687743	0.9080698
76	0xc013fcfa	-2.3123155
77	0x3f94e933	1.1633667
78	0x40317f9c	2.7734137
79	0xbe8283e5	-0.25491253
80	0x3ef52a3b	0.47883782
81	0x3fa10326	1.2579086
82	0x3b28fa09	0.0025783798
83	0xbeacf74c	-0.33782423
84	0xbf951110	-1.1645832
85	0x3f9fcfd2	1.2485297
86	0xbf8fea2c	-1.1243339
87	0xbfcd8825	-1.6057173
88	0xbeade958	-0.3396709
89	0x3fe124a4	1.7589307
90	0x3dbbe7a8	0.09175044
91	0x3f215120	0.6301441
92	0xc05dcdee	-3.465694
93	0x3f287465	0.65802604
94	0xbf2f5264	-0.68485093
95	0xbd9525cd	-0.072826006
96	0xbe530498	-0.20607221
97	0x3f4c68bb	0.79847306
98	0x3e0b9923	0.13632636
99	0x3eea018b	0.45704302
100	0xbffb2b51	-1.9622594
101	0x3f35517e	0.7082747
102	0xc008db6b	-2.1383922
103	0x3eb0387b	0.3441809
104	0xbf2f3c8f	-0.6845178
105	0xbf079ceb	-0.5297381
106	0x3f917cbf	1.1366194
107	0xc0244be8	-2.567133
108	0x3f26287c	0.64905524
109	0x3fe5d916	1.7956874
110	0xbfbf9667	-1.4967774
111	0x3eb111d1	0.34583905
112	0xbebbf39a	-0.3670929
113	0xc05abd3b	-3.4177997
114	0xbf76e017	-0.96435684
115	0xc068dc9a	-3.6384645
116	0x3fae2385	1.360459
117	0x3f0c6428	0.54840326
118	0x4017de4b	2.3729427
119	0x3ec8e15e	0.39234442
120	0x3f24805d	0.64258367
121	0xc03085bb	-2.7581623
122	0xbff2c4bd	-1.896629
123	0x4028a42d	2.6350205
124	0x3ddb15ce	0.10697518
125	0xbff169cb	-1.886041
126	0x3f63e499	0.8902069
127	0x40266499	2.59989
128	0xbf486559	-0.78279644
129	0xbe469550	-0.19392896
130	0xbf553f21	-0.8329945
131	0xbf1edc80	-0.62055206
132	0xbde93868	-0.11387712
133	0x3fa1a430	1.2628231
134	0x3f78b14c	0.97145534
135	0xbd885cbd	-0.066583134
136	0xbe5edb90	-0.21763444
137	0x3edf1080	0.43567276
138	0xbe717bad	-0.23582335
139	0xbe8cf887	-0.2753336
140	0x3ec61eec	0.38695467
141	0xbebcbd82	-0.36863333
142	0xbebca5c3	-0.36845216
143	0x3f3820e6	0.719252
144	0x3e441f68	0.19152606
145	0x3c865f90	0.01640299
146	0xbede9bb2	-0.4347816
147	0xbe7e1e91	-0.24816348
148	0x3eb6afad	0.35680905
149	0xbc8b8680	-0.017031908
150	0xbe0a1b11	-0.13486888
151	0xbe9a86fb	-0.30181107
152	0x3f84be2f	1.037054
153	0xbfa9aa75	-1.3255144
154	0x3f5fb14c	0.8737991
155	0xbf830bcf	-1.0237979
156	0x3cf88044	0.0303346
157	0xbfb4a7d9	-1.4113723
158	0xbf8c9720	-1.098362
159	0xbfae87f8	-1.3635244
160	0xbe63b7de	-0.22238109
161	0x3d90238a	0.070380285
162	0xbf686cd3	-0.9079105
163	0x3e887bf5	0.26657072
164	0x3e3ec694	0.18630439
165	0xbf8a6ab8	-1.0813818
166	0xbd757bb1	-0.059932414
167	0x3f1258aa	0.5716654
168	0xbfab6b55	-1.339213
169	0x3fc78a92	1.5589163
170	0xbe9eb626	-0.30998343
171	0xbdbaa3d3	-0.09113278
172	0x3eef9822	0.46795756
173	0x3e13909e	0.14410636
174	0x3ce1656b	0.02751418
175	0xbd52519e	-0.051347367
176	0x3e0741ed	0.13208742
177	0x3f10bfa3	0.56542414
178	0xbdccb53f	-0.099955074
179	0xbee0a710	-0.4387746
180	0x3dfd0e98	0.12356299
181	0x3f3bfbd7	0.7343115
182	0x3f1493b4	0.5803788
183	0x3fe4004f	1.7812594
184	0x3f8a5201	1.0806276
185	0x3e8c14bf	0.27359578
186	0x3e5f89db	0.21829931
187	0xbc17fdfc	-0.009276863
188	0x3e83a143	0.2570897
189	0x3e05619c	0.13025516
190	0x3f60a690	0.87754154
191	0xbe736113	-0.237675
192	0xbf7226c3	-0.94590396
193	0x3fb67db7	1.4257115
194	0xbf1ff8a3	-0.62488765
195	0x4010dd04	2.2634897
196	0x3f7a7431	0.97833544
197	0xbf80ea57	-1.0071515
198	0xc05809c8	-3.375597
199	0xbe21c516	-0.15797839
200	0xbf672f0e	-0.90306175
201	0xbf8cb3ed	-1.0992409
202	0xbfc01b97	-1.500842
203	0x3fbe7240	1.4878616
204	0xbf950764	-1.164288
205	0x3f680fc9	0.90649086
206	0x3f984625	1.1896406
207	0xc051f98c	-3.2808561
208	0xbf8ef7fd	-1.116943
209	0x3f1412d5	0.57841235
210	0x3fbf84cc	1.4962401
211	0xbfb1dfde	-1.3896444
212	0xbfe457af	-1.7839259
213	0x3fe60682	1.7970736
214	0xbf920e9b	-1.1410707
215	0xbff9f2e3	-1.9527248
216	0xbf536ed6	-0.82591
217	0x4007a991	2.1197245
218	0xc013d10f	-2.309635
219	0x3e787b2f	0.24265741
220	0xc007c098	-2.12113
221	0xbff3a2a0	-1.9034004
222	0x4029607e	2.6465144
223	0xbf1e6fdb	-0.6188943
224	0x401c60ed	2.4434159
225	0x40138e95	2.3055775
226	0x3e4bff27	0.19921552
227	0x3eaa9de0	0.33323574
228	0xbe0b869a	-0.13625565
229	0x3eb16620	0.34648228
230	0xbf644e8f	-0.8918237
231	0xc061e6e3	-3.5297172
232	0x3edf036c	0.43557298
233	0xbf6845db	-0.9073159
234	0x3f4b0b7a	0.79314387
235	0xbfac8201	-1.3477174
236	0xc009190f	-2.1421545
237	0xbfa4913c	-1.2856822
238	0xbfb8eb33	-1.4446777
239	0x401d2181	2.45517
240	0x402954ca	2.6458
241	0xbf06447a	-0.52448237
242	0xbdac5228	-0.084141076
243	0xbfe7d1ff	-1.8110961
244	0x3f5ad729	0.8548456
245	0xbf95df9e	-1.1708868
246	0x3f41c2c0	0.7568779
247	0x3fd264b9	1.6436988
248	0x4030438f	2.7541234
249	0xbe2afc4b	-0.16697805
250	0xbfbed088	-1.4907389
251	0x40970c16	4.7202253
252	0x3e1ed550	0.1551106
253	0x3e554e7c	0.2083072
254	0x3f072347	0.52788204
255	0x3dd0940c	0.10184488

lstm.bias_ih_l0 f4 [256]
0	0xbf92fdb5	-1.1483675
1	0xbf5beb72	-0.85906136
2	0x3c877487	0.016535057
3	0xbf539a24	-0.82657075
4	0xc00213cc	-2.0324583
5	0x3fcb58c0	1.5886459
6	0x3ed275e9	0.41105583
7	0xbfaca723	-1.3488506
8	0xbfe321d6	-1.7744701
9	0xbea7f90f	-0.32807204
10	0xbf91fc94	-1.1405206
11	0xbf9fd04e	-1.2485445
12	0xbe6642bd	-0.22486396
13	0xbfc020db	-1.5010027
14	0x3f4177d9	0.755735
15	0x3ecbf907	0.3983843
16	0xbe4d5034	-0.20050126
17	0x3f7939db	0.97353905
18	0x3f939e5d	1.1532704
19	0xbf0414ea	-0.5159441
20	0x3e5e989d	0.21737905
21	0xbf2d7423	-0.67755336
22	0xbf6dad6e	-0.9284276
23	0xbf87433e	-1.0567396
24	0xbf044ef6	-0.51682985
25	0x3fc5a38d	1.5440537
26	0xbf45d7f7	-0.7728266
27	0x3df90b61	0.121603735
28	0xbf0ba44d	-0.5454758
29	0x3f9a56e0	1.2057762
30	0x3f7fac43	0.99872226
31	0xbdb49d4e	-0.08819066
32	0x3f0f79b2	0.5604507
33	0x3f04feb5	0.5195115
34	0x3e6a2549	0.22865786
35	0x3f528ac1	0.8224297
36	0xbdb34789	-0.087538786
37	0x3f86b4b9	1.0523902
38	0xbf9db3f1	-1.2320539
39	0xbe06d100	-0.13165665
40	0x3fd7efff	1.6870116
41	0x3f9ec97f	1.2405242
42	0x3e9b1631	0.30290368
43	0xbe735342	-0.23762229
44	0xbe87df18	-0.26537395
45	0xbf3919a2	-0.7230474
46	0xbfa684d4	-1.3009286
47	0x3ee1058e	0.4394955
48	0xbe4a7688	-0.19771779
49	0x3efe87fa	0.49713117
50	0xbfe2c273	-1.7715591
51	0xbeed3051	-0.46325925
52	0xbf9d4b5d	-1.2288624
53	0x3e563933	0.20920257
54	0xbee974b3	-0.45596847
55	0x3cbc92aa	0.023019154
56	0xbf684f68	-0.90746164
57	0xbd031011	-0.031997744
58	0xbf015598	-0.5052123
59	0xbee2a7aa	-0.44268543
60	0xbfda40da	-1.7051041
61	0x3f92e7e5	1.1477019
62	0x3e9431f7	0.2894437
63	0xbe8e4ef0	-0.277946
64	0xbf133936	-0.5750917
65	0xbe8a0cbf	-0.2696285
66	0xbf645909	-0.89198357
67	0x3f43372a	0.7625605
68	0xbf8ed1d7	-1.1157788
69	0x3f8f649f	1.1202582
70	0x3f8e987b	1.1140283
71	0xbf064369	-0.5244661
72	0xbf691a36	-0.9105562
73	0x3da70ab7	0.081563406
74	0xbf78bf14	-0.9716656
75	0xbddefb9d	-0.10887835
76	0xbf4fe5f2	-0.81210244
77	0xbe3ad10d	-0.18243809
78	0xbedefd78	-0.43552756
79	0x3eab6f70	0.33483458
80	0x3ed00ef1	0.406364
81	0xbd098669	-0.03357545
82	0x3f8c12ea	1.0943272
83	0x3e09a183	0.13440518
84	0xbeffaee5	-0.4993812
85	0xbec33571	-0.3812671
86	0xbedb3d69	-0.4282029
87	0xbf609969	-0.87734085
88	0x3e71b6dd	0.23604913
89	0x3f94e447	1.1632165
90	0xbf154c8b	-0.5831992
91	0xbd2036a0	-0.039114594
92	0xbfbc9ac8	-1.4734735
93	0x3ed7df81	0.42162707
94	0x3f98d5cb	1.1940244
95	0x3f199f5c	0.6000879
96	0xbf90a5b7	-1.1300572
97	0x3e721299	0.23639907
98	0xbf6b5fff	-0.91943353
99	0x3f38b0dd	0.7214487
100	0xbd813d44	-0.063105136
101	0xbeac07d5	-0.33599725
102	0xbf7d45eb	-0.9893481
103	0xbf8d1a53	-1.1023659
104	0xbf5fb712	-0.8738872
105	0x3fc3f6ef	1.5309733
106	0xbf2ff7a3	-0.6873724
107	0xbf8b6915	-1.0891443
108	0x3ec66366	0.3874771
109	0xbe98aa1d	-0.29817286
110	0xbf195451	-0.5989428
111	0x3ef59b45	0.47970024
112	0x3e2e73b7	0.17036329
113	0xbf8fd5a9	-1.1237079
114	0xbf3a7828	-0.72839594
115	0xbda98785	-0.082778014
116	0xbf5c91d4	-0.86160016
117	0xbf52fb3a	-0.8241459
118	0xbeb1cb82	-0.34725577
119	0xbea78797	-0.32720634
120	0xbd9bd711	-0.0760938
121	0xbfa89532	-1.3170531
122	0xbf975d9f	-1.1825446
123	0x3de11d35	0.10991899
124	0xbf67dc2f	-0.9057035
125	0xbf28f877	-0.6600413
126	0xbeed952d	-0.46402875
127	0xbd8da52f	-0.06916272
128	0xbf1d2817	-0.613893
129	0x3fa4e6a0	1.2882881
130	0xbfad4a2b	-1.3538259
131	0x3fa5fcdb	1.296779
132	0x3de85be5	0.113456525
133	0xbfb6d8c0	-1.4284897
134	0xbca993bb	-0.020700326
135	0xbe6db04a	-0.2321178
136	0x3e800dc0	0.2501049
137	0xbfc88cd0	-1.5667973
138	0xbefa7b5c	-0.4892224
139	0x3f506091	0.8139735
140	0xbfb1ffd3	-1.3906196
141	0x3e71f7be	0.23629662
142	0x3fe40c79	1.7816306
143	0xbf73206c	-0.94971347
144	0x3ec4aa4f	0.38411185
145	0x3e716adc	0.2357592
146	0x3fc7bdda	1.5604813
147	0xbf743360	-0.9539089
148	0xbf8f7062	-1.1206172
149	0x3f944f0f	1.1586627
150	0xbeff5b8b	-0.4987453
151	0xbf646083	-0.89209765
152	0xbeb938c5	-0.36176124
153	0x3ff667d0	1.9250431
154	0xbfa0d300	-1.2564392
155	0x3fa651e0	1.2993736
156	0xbf0c9bae	-0.5492505
157	0x3f80b155	1.0054117
158	0x3fac8457	1.3477887
159	0x3e4620b5	0.19348414
160	0x3ee02efd	0.4378585
161	0x3ed333db	0.412505
162	0xbf0431c3	-0.5163843
163	0xbff8c7c1	-1.943596
164	0xbf4308db	-0.7618539
165	0xbec26990	-0.37971163
166	0xbf99831d	-1.1993138
167	0xbfd9489e	-1.6975286
168	0x3fd4793c	1.6599498
169	0xbf9d4dad	-1.228933
170	0x3fc4f572	1.5387404
171	0xbfa20709	-1.2658397
172	0x3f0a4401	0.54010016
173	0x3df163ea	0.11786635
174	0xbf2e7e76	-0.68161714
175	0x3f6b2599	0.91854244
176	0x3fd9d3bc	1.7017741
177	0xbfe030e5	-1.7514921
178	0x3e0de54d	0.13857003
179	0xbf4c951b	-0.79915017
180	0x3f93b69a	1.15401
181	0xbf8b9ac0	-1.0906601
182	0x3f6c14b2	0.9221908
183	0xbc73f263	-0.0148893325
184	0xbe5fbd8b	-0.21849649
185	0xbfc43967	-1.5330018
186	0xbf883545	-1.0641257
187	0x3f8a304e	1.0795991
188	0xbc3ab7a8	-0.011396326
189	0xbfb5f687	-1.4215859
190	0x3e9938f5	0.29926267
191	0x3fc211dc	1.51617
192	0xbf1325dc	-0.57479644
193	0xbf88100d	-1.0629898
194	0xbf4baea5	-0.7956336
195	0xbe2c0580	-0.16798973
196	0xbf96a0a6	-1.1767776
197	0x3f1bc32a	0.6084467
198	0x3f7d4004	0.98925805
199	0xbfc2238e	-1.51671
200	0xbfa72773	-1.3058914
201	0xbf9d1dde	-1.227474
202	0xbfb59342	-1.4185565
203	0xbf75c22a	-0.95999396
204	0xbbbcb8cf	-0.0057593356
205	0xbf8d4f69	-1.1039859
206	0xbe4c2514	-0.19936019
207	0x3dcf0794	0.10108867
208	0xbd5a1964	-0.05324687
209	0xbf3917b2	-0.7230178
210	0x3f407b2a	0.75187933
211	0xbf4dfd24	-0.80464387
212	0xbf7a2c40	-0.9772377
213	0xbd57a366	-0.052646063
214	0xbfc6f9fd	-1.554504
215	0xbfa418c8	-1.2820063
216	0xbec96875	-0.39337507
217	0x3f2a5e95	0.6655057
218	0xbf4f43de	-0.8096293
219	0xbf721b02	-0.9457246
220	0xbf16a711	-0.58848673
221	0xbf5ecb3a	-0.8702885
222	0x3ead99a6	0.33906287
223	0xbf791175	-0.9729226
224	0x3efbb81f	0.4916391
225	0xbea6662d	-0.3249983
226	0xbe969ccd	-0.29416505
227	0x3f8748e3	1.0569118
228	0xbf0e54ba	-0.5559803
229	0x3ec050b1	0.37561563
230	0xbfa0bdde	-1.2557943
231	0xbed90ced	-0.42392674
232	0x3f98c88e	1.1936204
233	0x3f106923	0.56410426
234	0xbf484847	-0.78235286
235	0xbe793051	-0.24334837
236	0x3f499b46	0.78752553
237	0xbf58376f	-0.84459585
238	0xbf9f50f8	-1.2446585
239	0xbeece14b	-0.46265635
240	0xbda6a0c9	-0.08136136
241	0x3eafa3e6	0.34304732
242	0xc00d315e	-2.2061381
243	0xbf216c76	-0.63056123
244	0xbf81e2e7	-1.014737
245	0x3da0933f	0.07840585
246	0xbcde72ff	-0.027154444
247	0xbf1ac5f8	-0.60458326
248	0xbf9adb1e	-1.2098119
249	0x3d951c47	0.07280784
250	0xbf3cfa96	-0.73819864
251	0x3b554b38	0.0032546055
252	0xbfe12eeb	-1.7592443
253	0x3f0440cf	0.5166139
254	0xbf16c26b	-0.5889041
255	0xbe9dd85d	-0.30829135

lstm.bias_hh_l0 f4 [256]
0	0xbf8f9ce6	-1.1219757
1	0xbf254e62	-0.6457273
2	0x3d184496	0.037174784
3	0xbf443337	-0.7664065
4	0xc0020044	-2.0312662
5	0x3fb005b6	1.3751743
6	0x3edd7f0a	0.43260986
7	0xbfb56a7e	-1.4173124
8	0xbfe846f2	-1.8146651
9	0xbef6ef89	-0.48229626
10	0xbfaf1632	-1.3678648
11	0xbf8642ae	-1.0489099
12	0xbd907113	-0.07052817
13	0xbfc09585	-1.504563
14	0x3f26e499	0.6519256
15	0x3edbbc51	0.42917112
16	0xbe87e736	-0.26543587
17	0x3f5abdb3	0.8544571
18	0x3fa1f62b	1.265325
19	0xbf177830	-0.59167767
20	0x3ee24868	0.44195867
21	0xbf69a62d	-0.9126919
22	0xbf596094	-0.8491299
23	0xbf602c39	-0.8756748
24	0xbf0f9f81	-0.5610276
25	0x3fbc1004	1.4692388
26	0xbf4e2985	-0.80532104
27	0x3d2050ce	0.03913956
28	0xbefefdeb	-0.498031
29	0x3f8719f4	1.0554795
30	0x3f80a34b	1.0049833
31	0xbde34ad4	-0.11098257
32	0x3f0a6649	0.54062325
33	0x3ef028dc	0.46906173
34	0x3e23d63d	0.15999694
35	0x3f3a796f	0.7284154
36	0xbe47b433	-0.19502334
37	0x3f6ff36f	0.93730825
38	0xbf9bf607	-1.2184457
39	0xbe49bd4a	-0.19701114
40	0x3fcf2089	1.6181804
41	0x3f8a29d8	1.079402
42	0x3ea1ba9b	0.3158768
43	0xbe9b6e4b	-0.30357584
44	0xbe1cdaeb	-0.15317886
45	0xbf3f18d5	-0.74647266
46	0xbf9a79d8	-1.2068434
47	0x3f01222b	0.5044276
48	0xbe6f8ff0	-0.23394752
49	0x3f040243	0.5156595
50	0xbfde3b75	-1.7361895
51	0xbf0440b5	-0.51661235
52	0xbf8d6b9c	-1.1048465
53	0xbb8d5250	-0.004312791
54	0xbf0d2cff	-0.55146784
55	0x3e381ced	0.17979784
56	0xbf68cef0	-0.9094076
57	0xbccfeca5	-0.025381396
58	0xbf14a173	-0.5805885
59	0xbeea5c3b	-0.4577349
60	0xbfdc461a	-1.7208893
61	0x3f92cd45	1.1468893
62	0x3eff9f71	0.49926332
63	0xbe1cb8fe	-0.15304944
64	0xbed242fc	-0.4106673
65	0xbe8c3ae6	-0.27388686
66	0xbf81182e	-1.0085504
67	0x3f2e5084	0.6809161
68	0xbf76b629	-0.96371704
69	0x3f7cdc51	0.98773676
70	0x3f8c5393	1.0963005
71	0xbee8d400	-0.45474243
72	0xbf3d1d56	-0.7387289
73	0x3c901469	0.017587857
74	0xbf606732	-0.87657464
75	0xbe9a995f	-0.30195138
76	0xbf6fe1b8	-0.93703794
77	0xbe4ac321	-0.19800998
78	0xbeeee950	-0.46662378
79	0x3e835feb	0.25659117
80	0x3ef71bbe	0.48263353
81	0x3d9ebf42	0.07751323
82	0x3f8f5218	1.1196928
83	0x3e76db41	0.24107076
84	0xbf0cb0f5	-0.54957515
85	0xbec14245	-0.37745872
86	0xbef402eb	-0.47658476
87	0xbf4bf1d1	-0.7966586
88	0x3eccd3af	0.40005252
89	0x3fa36e52	1.2768042
90	0xbf1b21f6	-0.60598695
91	0x3bb78e8d	0.00560171
92	0xbfb599d0	-1.4187565
93	0x3ede1f11	0.43383077
94	0x3f9adfbe	1.2099531
95	0x3f195ab4	0.59904027
96	0xbf733cd6	-0.95014703
97	0x3de00ebc	0.1094031
98	0xbf56af51	-0.8386126
99	0x3f331dbb	0.6996724
100	0x3c53af5c	0.012920227
101	0xbe86d9e2	-0.26338106
102	0xbf7dd8f1	-0.9915915
103	0xbf90c3fb	-1.1309808
104	0xbf645394	-0.8919003
105	0x3fb18eb3	1.3871673
106	0xbf46a967	-0.7760224
107	0xbf806413	-1.003054
108	0x3e940d06	0.28916186
109	0xbe915019	-0.28381422
110	0xbf3df6ef	-0.74204916
111	0x3ec41591	0.38297704
112	0x3e8d28c8	0.27570176
113	0xbf897dac	-1.0741477
114	0xbf000afb	-0.50016755
115	0x3d5e71a3	0.05430759
116	0xbf4323ac	-0.76226306
117	0xbf4a0444	-0.7891276
118	0xbe944d36	-0.28965157
119	0xbe83e26f	-0.25758693
120	0xbe80ccf4	-0.25156367
121	0xbfa9497b	-1.322555
122	0xbfa7f2c7	-1.3120965
123	0x3de1ce15	0.11025635
124	0xbf5d363b	-0.86410874
125	0xbee7f6a9	-0.45305374
126	0xbf06a58e	-0.52596366
127	0x3d0dc589	0.034612212
128	0xbf029998	-0.51015615
129	0x3fa950ab	1.3227743
130	0xbfb4dc93	-1.4129814
131	0x3fa593eb	1.2935766
132	0xbd3dbbbe	-0.046321623
133	0xbfb43f22	-1.4081767
134	0xbdc8563c	-0.09782073
135	0xbe89efdf	-0.2694082
136	0x3e39e66b	0.18154304
137	0xbfc1ecb7	-1.5150365
138	0xbf0846c7	-0.53233
139	0x3f61ca70	0.8819952
140	0xbfce958d	-1.6139389
141	0x3dfce700	0.12348747
142	0x3fd5db4d	1.670755
143	0xbf52b8a7	-0.8231301
144	0x3eaa9257	0.33314773
145	0x3ebda019	0.37036207
146	0x3fb4f840	1.413826
147	0xbf848719	-1.0353729
148	0xbf82b73a	-1.0212166
149	0x3f9b7713	1.2145714
150	0xbefda4e7	-0.49539873
151	0xbf6024b3	-0.87556
152	0xbece20c7	-0.40259382
153	0x3ff7438c	1.9317489
154	0xbfa0f03c	-1.2573314
155	0x3fb090ba	1.3794167
156	0xbed94323	-0.42434034
157	0x3f6af345	0.9177745
158	0x3fb2c611	1.3966695
159	0x3e4da495	0.20082314
160	0x3f0fd869	0.5618959
161	0x3ed007ff	0.406311
162	0xbf103400	-0.56329346
163	0xbff606e1	-1.9220849
164	0xbf4274fd	-0.7595976
165	0xbeb517e8	-0.35369802
166	0xbfa1bd05	-1.2635809
167	0xbfd97544	-1.6988912
168	0x3fd7d518	1.6861906
169	0xbf980153	-1.1875404
170	0x3fc5641c	1.5421176
171	0xbfacebb3	-1.350943
172	0x3f09b46d	0.5379093
173	0x3e13d34f	0.14436077
174	0xbf636882	-0.8883134
175	0x3f7409b3	0.953273
176	0x3fe16792	1.7609732
177	0xbfd430ed	-1.6577431
178	0x3d4d647d	0.05014466
179	0xbf573367	-0.8406281
180	0x3f8c0189	1.0937968
181	0xbf7a4751	-0.9776507
182	0x3f8564dd	1.0421406
183	0xbd03262c	-0.032018825
184	0xbea8704f	-0.32898185
185	0xbfb87d81	-1.4413301
186	0xbf74694d	-0.95473176
187	0x3f9b29ae	1.2122095
188	0xbbbb6d5c	-0.0057198238
189	0xbfb6807f	-1.4257964
190	0x3e8e907d	0.2784461
191	0x3fb4171e	1.4069555
192	0xbefc25a1	-0.4924746
193	0xbf800ad9	-1.000331
194	0xbf663738	-0.8992801
195	0xbddf9e8a	-0.10918911
196	0xbf8757be	-1.0573652
197	0x3f3f8b1c	0.7482164
198	0x3f6689a9	0.900538
199	0xbfc6e7fc	-1.5539546
200	0xbfa3a291	-1.2783986
201	0xbf91cb4d	-1.1390167
202	0xbfb9a1c4	-1.4502492
203	0xbf61ce88	-0.88205767
204	0x3dee0079	0.11621184
205	0xbf868ce3	-1.0511745
206	0xbe7e9d2a	-0.24864641
207	0xbc90926b	-0.017647943
208	0xbe20eb44	-0.15714747
209	0xbf4e650e	-0.8062295
210	0x3f331715	0.69957095
211	0xbf69c0a4	-0.9130957
212	0xbf856875	-1.0422503
213	0xbe346fec	-0.1762082
214	0xbfba5f7f	-1.4560393
215	0xbfa2506a	-1.268079
216	0xbf0a9dd2	-0.54147065
217	0x3f52a999	0.82290035
218	0xbf4a0fb7	-0.7893023
219	0xbf5f07b6	-0.8712114
220	0xbeded264	-0.4351989
221	0xbf7bee55	-0.9841054
222	0x3f0c59f6	0.5482477
223	0xbf5445f3	-0.82919234
224	0x3f06871b	0.52549905
225	0xbe75b123	-0.23993354
226	0xbea528ea	-0.32257777
227	0x3f8062f3	1.0030197
228	0xbf0734a6	-0.5281471
229	0x3eb0e8d5	0.34552637
230	0xbf996ac8	-1.1985712
231	0xbeb983cd	-0.3623337
232	0x3fa62e17	1.2982816
233	0x3f0432a7	0.5163979
234	0xbf2d99c9	-0.6781278
235	0xbe8fea09	-0.28108242
236	0x3f665f66	0.89989316
237	0xbf3e5df9	-0.7436214
238	0xbf925d86	-1.1434791
239	0xbeacf285	-0.33778778
240	0x3c99e63a	0.018786538
241	0x3e472f0a	0.19451538
242	0xc00d035e	-2.2033305
243	0xbf0cb9b4	-0.5497086
244	0xbf901e81	-1.1259309
245	0x3d4b8961	0.04969156
246	0x3cc672c7	0.024224652
247	0xbf34de66	-0.70651853
248	0xbf7ed244	-0.9953959
249	0x3d629f44	0.05532767
250	0xbf465c5c	-0.7748468
251	0x3c415418	0.011799835
252	0xbfddf8e1	-1.7341577
253	0x3f076671	0.5289069
254	0xbf3b104e	-0.73071754
255	0xbe59940b	-0.2124788

lstm.weight_ih_l1 f4 [256, 64]
0	0xbd5b94a2	-0.053608544
1	0x3e9a8d22	0.301858
2	0x3f1f3d20	0.62202644
3	0x3ef856cf	0.4850373
4	0xbf01f048	-0.50757265
5	0x3fa6bf1f	1.3027076
6	0x3e5b04fe	0.21388623
7	0x3dfaf891	0.122544415
8	0x3e98f927	0.29877588
9	0xbf55cfdb	-0.8352029
10	0x3e6a5176	0.22882637
11	0xbd3d933c	-0.04628299
12	0x3d53aeee	0.051680498
13	0xbf807267	-1.0034913
14	0xbe99dba7	-0.30050394
15	0x3f09fa0b	0.5389716
16	0x3f7dc80a	0.9913336
17	0xbef650db	-0.48108563
18	0xbde5306e	-0.11190878
19	0x3ee54636	0.4478013
20	0xbdfdb023	-0.12387111
21	0xbedaad68	-0.42710423
22	0x3f6628f2	0.8990623
23	0xbf0d159d	-0.55111104
24	0xbf5a4bef	-0.85272115
25	0xbf42c23c	-0.7607763
26	0x3efb8f88	0.49132943
27	0xbf11a25e	-0.5688838
28	0xbf42d2e3	-0.7610304
29	0xbdd1ff19	-0.10253734
30	0xbeee636e	-0.46560234
31	0xbe45137f	-0.19245718
32	0xbf4f143e	-0.8089026
33	0x3f2a1d3e	0.6645087
34	0x3f07343b	0.5281407
35	0x3faf7667	1.3708009
36	0xbf920331	-1.1407224
37	0x3eed4886	0.46344393
38	0xbf16b6b8	-0.58872557
39	0x3ee47e1c	0.44627464
40	0xbe5a9fde	-0.21350047
41	0x3fd4e770	1.6633129
42	0x3e424bfa	0.18974295
43	0x3f2b4375	0.66899806
44	0x3ed50053	0.4160181
45	0x3fe0fe6e	1.7577646
46	0x3dc3f45e	0.09568094
47	0xbf511f5a	-0.81688464
48	0xbf5412cc	-0.8284118
49	0x3f041583	0.51595324
50	0xbe8195f2	-0.25309712
51	0xbed98948	-0.4248755
52	0xbeaf5efb	-0.34252152
53	0x3fc79ca2	1.5594676
54	0xbbb1a0dd	-0.0054207877
55	0x3ef9dfc5	0.48803535
56	0x3deb1c8b	0.114800535
57	0x3f3c447b	0.7354199
58	0x3f65bc4e	0.89740455
59	0x3feadc8c	1.8348556
60	0x3f6fd264	0.93680406
61	0x3e4c1dbb	0.19933216
62	0x3ef55d61	0.47922805
63	0x3f34880b	0.70520085
64	0x3e9b990e	0.3039021
65	0xbf46e3a4	-0.776911
66	0xbe43d33c	-0.19123548
67	0xbe91da9f	-0.28487107
68	0x3ed84bfd	0.42245474
69	0x3f05481c	0.52063155
70	0x3e66143b	0.22468655
71	0x3e003126	0.12518749
72	0xbebfff15	-0.374993
73	0x3eb183f6	0.3467099
74	0xbd83cb86	-0.064353034
75	0xbd9cee06	-0.07662587
76	0xbecdec33	-0.40219268
77	0xbf18546c	-0.5950382
78	0xbe60ede0	-0.21965742
79	0x3ee0e5a5	0.43925205
80	0x3fa579a1	1.2927743
81	0xbde7003d	-0.11279342
82	0xbe3bc9be	-0.18338677
83	0xbe4e1a39	-0.2012719
84	0x3f055b19	0.5209213
85	0x3ecf8540	0.4053135
86	0xbeff7e5b	-0.4990109
87	0x3e035d3e	0.12828538
88	0xbe987af0	-0.29781294
89	0xbf668ee9	-0.90061814
90	0xbebe660f	-0.3718724
91	0xbfaf14f0	-1.3678265
92	0x3f40c633	0.7530243
93	0xbfc2967b	-1.5202173
94	0xbc46c32f	-0.012131496
95	0xbfd0c07b	-1.630874
96	0x3ec6400a	0.38720733
97	0x3e80b3ea	0.25137264
98	0xbf645893	-0.89197654
99	0x3f12ad8e	0.57296073
100	0x3e7510c6	0.2393218
101	0xbfab825e	-1.339916
102	0xbf3c5c55	-0.7357839
103	0x3f9f54ff	1.2447814
104	0xbfb80a7e	-1.4378202
105	0x3f66b1c7	0.90115017
106	0x3e22fa29	0.15915741
107	0x3e965c1f	0.29367158
108	0xbdaffbb8	-0.085929334
109	0x3ebd70be	0.37000078
110	0x3f33d0e1	0.702406
111	0xbf1cc028	-0.6123071
112	0xbf23cdbf	-0.6398582
113	0x3e84502e	0.25842422
114	0xbc714f4e	-0.01472838
115	0xbd72acf2	-0.059246965
116	0x3f4966dc	0.78672576
117	0x3f72da07	0.94863933
118	0x3e5a3346	0.21308622
119	0x400fc3de	2.2463298
120	0x3f168f2d	0.5881222
121	0x3cff8457	0.031191034
122	0x3ec22747	0.3792059
123	0x3e11d12f	0.14239953
124	0x3f08452f	0.53230566
125	0xbf428866	-0.7598938
126	0x3f57916b	0.84206265
127	0x3e654459	0.22389354
128	0x3f8761bb	1.05767
129	0x3efd9e9b	0.4953507
130	0x3e9952a1	0.29945853
131	0x3fae8aa8	1.3636065
132	0xbda4e366	-0.08051185
133	0x3e91b320	0.28456974
134	0x3f9ae21a	1.2100251
135	0xbed6e835	-0.41974035
136	0x3f3f4f94	0.747308
137	0x3fc3c485	1.5294348
138	0xbdc50eb1	-0.09621943
139	0x3ecf7a52	0.4052301
140	0xbd27082d	-0.04077928
141	0xbeee679c	-0.46563423
142	0x3efa2e80	0.48863602
143	0xbc35cd0a	-0.011096248
144	0xbfb04836	-1.3772037
145	0x39c23744	0.0003704374
146	0xbf1b59d6	-0.60683954
147	0xbeb6ec7a	-0.35727292
148	0x3f88fcbd	1.070213
149	0x3f6b8b4e	0.9200944
150	0x3e24c464	0.16090542
151	0xbd8300c2	-0.06396629
152	0x3ef3d442	0.47622877
153	0xbf2bcd8d	-0.6711052
154	0xbe7468b4	-0.23868066
155	0xbffab253	-1.958567
156	0x3feb4dbf	1.8383101
157	0xbf1da944	-0.61586404
158	0xbfebee2d	-1.843206
159	0xbf7fb5ed	-0.9988697
160	0x3e9e958f	0.3097348
161	0x3fa5d58b	1.2955793
162	0x3f6f0a72	0.93375313
163	0x3d8ec014	0.0697023
164	0xbf3686db	-0.71299523
165	0x3e99c54a	0.30033332
166	0x3ec767a2	0.38946253
167	0xbf6e6fc8	-0.93139315
168	0xbf3b4100	-0.7314606
169	0x3edb568f	0.42839476
170	0xbfc6c1ba	-1.5527871
171	0x3f968bb3	1.1761383
172	0x3edf76ff	0.43645474
173	0xbf3d4bdf	-0.73943895
174	0xbe0659f2	-0.13120249
175	0xbf154db7	-0.5832171
176	0xbfe609da	-1.7971756
177	0x3df63c5c	0.120232314
178	0xbebd7ec8	-0.3701079
179	0x3e929d9f	0.2863588
180	0x3d366e8c	0.04453902
181	0x3fe10b5b	1.758159
182	0xbdcbab6f	-0.09944808
183	0xbe9f7e5c	-0.31151092
184	0x3ea0b296	0.3138625
185	0x3f44df60	0.76903343
186	0x3f6d954e	0.92805946
187	0x3f78d643	0.9720194
188	0xbf259bd4	-0.646909
189	0xbe264f77	-0.16241251
190	0x3fc28119	1.5195647
191	0x3fdbb6c8	1.7165155
192	0x3fd7221b	1.6807283
193	0x3ede2f98	0.43395686
194	0xbe79836b	-0.24366538
195	0xbf2f269a	-0.68418276
196	0xbf54360b	-0.82894963
197	0xbf449cc2	-0.76801693
198	0xbe8c84b9	-0.2744501
199	0x3f3097d3	0.68981665
200	0xbead3752	-0.3383127
201	0xbef6ffbb	-0.48241982
202	0x3f7aaebb	0.9792287
203	0x3ee67a70	0.45015287
204	0x3e5b1671	0.2139528
205	0x3da93072	0.08261193
206	0x3ece61c0	0.40308952
207	0xbe4d2452	-0.20033386
208	0x3f559290	0.8342676
209	0xbdd4966b	-0.103802525
210	0x3f6918d2	0.910535
211	0xbeb00ed1	-0.34386304
212	0xbc269317	-0.010166905
213	0x3f2f1d2d	0.68403894
214	0xbe904d18	-0.28183818
215	0x3f1b4cfd	0.6066435
216	0xbf1f1357	-0.62138885
217	0x3faa1bab	1.3289694
218	0xbf15d09e	-0.5852145
219	0x3f3078bf	0.68934244
220	0x3f193d60	0.59859276
221	0x3f71ee2b	0.9450404
222	0xbf2a1f37	-0.6645388
223	0x3ed97c66	0.4247772
224	0x3f4fc71c	0.8116319
225	0x3f13cdf9	0.57736164
226	0x3ef76694	0.48320448
227	0x3f81e71f	1.0148658
228	0xbf06c6a2	-0.5264684
229	0xbfa12f1c	-1.2592502
230	0x3e148ec9	0.14507593
231	0xbf1cd17e	-0.6125716
232	0x3f6cfc86	0.9257282
233	0xbe3f0716	-0.18655047
234	0x400a9b25	2.1657193
235	0xbe892da5	-0.26792637
236	0x3fa7c113	1.3105797
237	0xbeab7f38	-0.33495498
238	0x3f28d5b8	0.6595111
239	0x3f676f67	0.9040436
240	0x3f1c9170	0.6115942
241	0xbf4db206	-0.8034977
242	0x3dd3f1db	0.10348865
243	0x3da27c37	0.07933848
244	0xbc89e5af	-0.016833154
245	0xbf865eb9	-1.0497657
246	0x3d9ddd3e	0.07708214
247	0xbe84dfef	-0.25952098
248	0xbdc89a17	-0.09795015
249	0xbc828a0c	-0.015934967
250	0xbbde046a	-0.0067754285
251	0x3edc4097	0.43018028
252	0xbe4637fb	-0.19357292
253	0xbfdbdb06	-1.7176216
254	0x3e756f04	0.2396813
255	0x3f773c23	0.96576136

lstm.weight_hh_l1 f4 [256, 64]
0	0xbf477665	-0.7791503
1	0x3f9d8d66	1.2308776
2	0x3ef97f38	0.48729873
3	0xbe529993	-0.20566396
4	0x3efbc51b	0.49173817
5	0x3d09b345	0.03361823
6	0x3f0cd9e6	0.55019987
7	0xbedcebf3	-0.43148765
8	0x3e17cc0d	0.14823933
9	0x3eb897d2	0.3605333
10	0xbf3a79ea	-0.72842276
11	0x3e28da2e	0.16489479
12	0xbef4f5af	-0.47843692
13	0x3f6e4da5	0.93087226
14	0x3dee92cb	0.11649092
15	0xbe493a21	-0.1965108
16	0x3e1b66bf	0.15175913
17	0xbe6b2418	-0.22962987
18	0x3f1dd87f	0.6165847
19	0xbed7f214	-0.42176878
20	0xbe426256	-0.18982825
21	0x3f16616f	0.5874242
22	0xbd13020a	-0.035890616
23	0x3f830fe9	1.023923
24	0xbeb1322f	-0.346086
25	0x3e6ab0ae	0.2291896
26	0x3d21883e	0.03943657
27	0x3f16689a	0.5875336
28	0xbc70e526	-0.014703071
29	0x3f048637	0.51767296
30	0xbe39a325	-0.18128641
31	0xbf452b0c	-0.7701881
32	0x3f2f4a61	0.6847287
33	0xbee16f72	-0.4403034
34	0xbea4c09a	-0.32178193
35	0x3ee5df8b	0.44897112
36	0x3f1b0751	0.6055804
37	0xbe992767	-0.29912874
38	0xbeba386b	-0.36371168
39	0x3ecea0a5	0.40356937
40	0x3ea3f3c0	0.32021904
41	0xbf1b43b7	-0.606502
42	0x3f3ebabf	0.745037
43	0xbe55ebe9	-0.20890774
44	0x3d92cce1	0.07167984
45	0x3e8decbb	0.27719674
46	0x3e733834	0.23751909
47	0xbc8e29c5	-0.017353902
48	0xbf3c726a	-0.7361208
49	0xbd7c3825	-0.06157698
50	0x3f0aaa8d	0.5416649
51	0xbf2416f6	-0.64097536
52	0x3e3ebddf	0.18627118
53	0x3eb27a2f	0.34858844
54	0xbf0b832d	-0.54497033
55	0x3fa2db75	1.2723223
56	0x3f01988c	0.50623393
57	0x3f4566dd	0.7711008
58	0x3e696b68	0.22794878
59	0xbf088dcc	-0.53341365
60	0xbf662e66	-0.8991455
61	0x3eb1c8ec	0.34723604
62	0x3e8aa167	0.27076265
63	0x3eb6c420	0.35696507
64	0xbdd64f1d	-0.104643084
65	0x3e41ba21	0.18918659
66	0x3d6c2aed	0.057658125
67	0x3edfe0dd	0.43726245
68	0xbf3b9da9	-0.73287445
69	0xbd3eac56	-0.04655107
70	0xbe70c8fd	-0.23514171
71	0xbf9af7e6	-1.2106903
72	0xbedd8bac	-0.43270624
73	0xbe51969f	-0.20467614
74	0xbf37e882	-0.71839154
75	0xbe694743	-0.2278109
76	0x3e9c5ced	0.30539647
77	0x3fc84cc4	1.5648427
78	0xbf0bdb7e	-0.54631793
79	0x3e924cb3	0.28574142
80	0x3f626a26	0.8844322
81	0x3f5ff2f2	0.8748008
82	0xbcfaf4d7	-0.030634327
83	0xbe99e69c	-0.30058753
84	0x3bf94481	0.0076070433
85	0x3f65fbb2	0.8983718
86	0x3e5f53a9	0.21809258
87	0xbf3ab07e	-0.72925556
88	0x3dfe2372	0.124091044
89	0x3f04c927	0.51869434
90	0x3f1b15dd	0.60580236
91	0x3dcc907b	0.09988495
92	0x3e3047ef	0.1721494
93	0xbd8bac70	-0.06819999
94	0x3e954269	0.2915223
95	0x3f342187	0.7036366
96	0x3d13d8db	0.03609548
97	0x3de91d07	0.1138249
98	0xbe6a512d	-0.22882529
99	0xbd9f6cc0	-0.07784414
100	0x3ecc1920	0.3986292
101	0x3ec3ac60	0.3821745
102	0xbdbf893a	-0.09352346
103	0x3e81764d	0.2528557
104	0x3e96030b	0.29299197
105	0x3d48a506	0.048985504
106	0xbeb6958c	-0.3566097
107	0x3e39e0f8	0.18152225
108	0x3e52de4d	0.20592614
109	0xbde641bb	-0.11243006
110	0xbef28767	-0.4736893
111	0x3e3984c8	0.18117058
112	0xbf2b0625	-0.6680625
113	0xbfc10b90	-1.5081654
114	0x3f3a3ce1	0.72749144
115	0x3e06eec7	0.13177024
116	0xbf505a56	-0.8138784
117	0xbee7f8b6	-0.4530694
118	0xbea62a6a	-0.32454234
119	0xbcb3c243	-0.021943217
120	0xbe342024	-0.17590386
121	0x3f346d25	0.7047904
122	0xbec4a51a	-0.38407212
123	0xbf8d6460	-1.1046257
124	0xbf4b0b5c	-0.7931421
125	0xb9f71909	-0.00047130164
126	0x3b49d237	0.0030795464
127	0xbdc55584	-0.096354514
128	0xbeaa62e8	-0.33278584
129	0x3e82d469	0.2555268
130	0xbf8728a4	-1.0559278
131	0x40206ab4	2.5065126
132	0x401eb88c	2.4800138
133	0x3e38f705	0.1806298
134	0x3e68c857	0.22732674
135	0x3ea63037	0.3245866
136	0xbf79ddca	-0.9760405
137	0xbf0d0b31	-0.550952
138	0xbe6f78e2	-0.23385957
139	0xbe611ecf	-0.21984409
140	0xbf35051f	-0.7071094
141	0xc00d0e66	-2.2040038
142	0x3f4b58c0	0.79432297
143	0xbd52cb67	-0.05146351
144	0x3d4d938a	0.050189532
145	0x3eb68a5a	0.3565243
146	0x3e9500d2	0.29102188
147	0xbe82e6f9	-0.25566843
148	0xbf55dccd	-0.8354004
149	0x3f61adf2	0.88156044
150	0xbda68b90	-0.08132088
151	0x3fb87335	1.4410158
152	0xbec70606	-0.38871783
153	0xbd37ffd5	-0.044921715
154	0xbd6b347a	-0.057423092
155	0x3c70c840	0.014696181
156	0xbd039874	-0.032127813
157	0x3f838511	1.0274984
158	0x3db929c9	0.09041173
159	0xbe924787	-0.28570196
160	0xbe04c905	-0.12967308
161	0xbeb2753a	-0.34855062
162	0x3e495fec	0.19665498
163	0x3f207bcf	0.62688917
164	0x3e7e92e2	0.24860719
165	0xbe26a5d1	-0.16274191
166	0x3fa05527	1.2525986
167	0x3d654a0a	0.055978812
168	0xbea6a4d8	-0.3254764
169	0xbede8a8f	-0.43465087
170	0x3e32b123	0.17450385
171	0x3d146564	0.036229506
172	0xbe98fbfe	-0.29879755
173	0x3c750729	0.01495532
174	0x3e26c89f	0.16287468
175	0x3e8b2685	0.27177826
176	0xbe1c38db	-0.15256064
177	0xbdadc248	-0.08484322
178	0xbf832416	-1.0245388
179	0xbe5f0b13	-0.21781568
180	0xbebc7f6a	-0.3681596
181	0x3e0bbd2d	0.13646384
182	0xbee6d4f1	-0.45084336
183	0x3f48cb35	0.7843507
184	0x3ea70ef6	0.32628602
185	0xbebcdc77	-0.3688695
186	0xbc07b209	-0.008282193
187	0x3ea82a2d	0.32844678
188	0x3f148670	0.58017635
189	0x3e886982	0.26642996
190	0xbc8b6aa1	-0.017018618
191	0xbf5193d0	-0.8186617
192	0xbdd86d6a	-0.10567744
193	0x3e8e385b	0.2777737
194	0x3d60162b	0.05470864
195	0x3d882a1e	0.06648658
196	0x3f5d575f	0.8646144
197	0xbadad19b	-0.0016694547
198	0x3e606075	0.21911795
199	0x3d80d9aa	0.06291516
200	0x3f1d10bf	0.6135368
201	0xbeea653b	-0.45780358
202	0x3e74c78f	0.2390425
203	0x3c8a004d	0.016845847
204	0x3dc9c20c	0.09851465
205	0x3e3c9f08	0.1842004
206	0x3ecdf964	0.40229332
207	0x3dfe7150	0.124239564
208	0xbeb8915c	-0.360484
209	0xbf7383ec	-0.9512317
210	0xbee54ca1	-0.44785026
211	0xbe0f49e5	-0.13993032
212	0x3eb07f9e	0.34472364
213	0x3f5afe20	0.85544014
214	0xbf8cb37a	-1.0992272
215	0x3f773c2a	0.9657618
216	0x3ee86024	0.4538585
217	0x3ee562a5	0.44801822
218	0xbe4e9612	-0.20174435
219	0x3e963b3d	0.2934207
220	0xbeebc7b2	-0.46050793
221	0x3fc17c17	1.5115994
222	0x3cec5fdc	0.028854303
223	0x3fa314f3	1.2740768
224	0xbf88a745	-1.0676047
225	0x3d977c5f	0.07396769
226	0xbf0216c5	-0.50815994
227	0xbf91277b	-1.1340173
228	0xbfb7a73d	-1.4347912
229	0x3d8f5deb	0.07000335
230	0xbf23bc13	-0.63958853
231	0xbf44690a	-0.76722777
232	0x3f0a7249	0.54080635
233	0xbe379660	-0.17928457
234	0x3ea61d0d	0.3244404
235	0xbc90a420	-0.017656386
236	0x3ed0c38a	0.40774184
237	0xbe183d43	-0.1486712
238	0x3f02d4e5	0.511061
239	0xbe3f714b	-0.18695562
240	0xbf0615b5	-0.5237687
241	0xbe10b2af	-0.14130662
242	0xbe8707ff	-0.26373288
243	0xbeab68f5	-0.33478513
244	0xbf18c9e9	-0.5968309
245	0x3dc1b19d	0.09457705
246	0xbf7a357c	-0.9773786
247	0xbf7bde9a	-0.9838654
248	0x3eabde01	0.33567813
249	0x3f9715df	1.180355
250	0xbe41d074	-0.18927175
251	0x3f1800f4	0.59376454
252	0x3e85d22a	0.26136905
253	0x3e44cb84	0.1921826
254	0xbf21941d	-0.6311663
255	0x3e4a0f54	0.1973241

lstm.bias_ih_l1 f4 [256]
0	0xbf4ce839	-0.80041844
1	0xbf952ad4	-1.1653695
2	0xbf4d6688	-0.80234575
3	0x3f8a90a5	1.0825392
4	0x3f7ffcd9	0.9999519
5	0xbfaca357	-1.3487347
6	0xbf95f701	-1.1716005
7	0x3e53a6a5	0.20669039
8	0x3e921e6b	0.28538832
9	0xbf07fdc5	-0.53121597
10	0xbf126de4	-0.5719893
11	0xbf8855e7	-1.0651215
12	0xbf8ec550	-1.1153965
13	0x3f9fad3b	1.2474741
14	0xbd22be72	-0.039732404
15	0xbfba7886	-1.4568031
16	0x3f49291a	0.7857834
17	0xbef91d1e	-0.48655027
18	0xbf8e482c	-1.1115775
19	0xbf87460d	-1.0568253
20	0xbf3b05be	-0.73055637
21	0xbe022009	-0.12707533
22	0xbf49f146	-0.7888378
23	0xbe53dde5	-0.20690115
24	0xbf80789c	-1.0036807
25	0xbfb06386	-1.3780372
26	0xbf95fd35	-1.1717898
27	0xbfaadc10	-1.3348408
28	0xbfc32d67	-1.5248231
29	0xbf5d2a40	-0.86392593
30	0xbf8d71c7	-1.1050347
31	0x3fb24a78	1.3928976
32	0xbf33e7b4	-0.70275426
33	0xbf42a424	-0.7603171
34	0xbfaf8642	-1.3712847
35	0xbfa1bd93	-1.2635978
36	0xbebdbb34	-0.37056887
37	0xbf5ec40d	-0.870179
38	0x3f0aa8a2	0.54163563
39	0xbf394f23	-0.7238638
40	0x3f05e7a8	0.52306604
41	0xbf5d5948	-0.8646436
42	0xbf499c77	-0.7875437
43	0xbf9ec87f	-1.2404937
44	0xbfb00be5	-1.375363
45	0xbfe2f465	-1.7730833
46	0xbf9d8079	-1.2304832
47	0xbe01f849	-0.1269237
48	0xbee56c3b	-0.44809136
49	0x3ed616b6	0.41814202
50	0xbe86b9fb	-0.26313767
51	0xbfaa8dc2	-1.3324511
52	0xbd25fa77	-0.040522065
53	0xbf7cdba0	-0.9877262
54	0xbf46e3e0	-0.7769146
55	0xbbf11c6e	-0.0073581254
56	0xbf858944	-1.0432515
57	0x3f3fef92	0.7497493
58	0x3ea86cc5	0.32895485
59	0x3fa10da3	1.2582287
60	0x3f92841d	1.1446568
61	0xbf2cdb98	-0.67522573
62	0xbfb3af4e	-1.4037874
63	0xbf8a1ee2	-1.0790675
64	0xbf6454a6	-0.89191663
65	0xbe4043d9	-0.18775882
66	0xbdeb53ba	-0.11490579
67	0xbe180866	-0.14846954
68	0xbf26308b	-0.6491782
69	0xbec42e7f	-0.38316724
70	0xbf0cdaa3	-0.55021113
71	0xbd68a9a7	-0.056802418
72	0x3aae1571	0.0013281537
73	0xbe75d567	-0.24007188
74	0xbeb84e89	-0.35997418
75	0xbf0291b6	-0.5100359
76	0xbeb1780c	-0.346619
77	0x3e176f8c	0.14788646
78	0xbeb5d9ce	-0.35517734
79	0xbf17c615	-0.59286624
80	0xbfca6006	-1.5810554
81	0xbee56b9c	-0.44808662
82	0xbf42b8b6	-0.76063097
83	0xbf3632dc	-0.71171355
84	0xbf323b9d	-0.6962221
85	0x3f91ece8	1.1400423
86	0xbf1923c7	-0.59820217
87	0x3ebdb1e6	0.37049788
88	0xbf118b39	-0.5685306
89	0xbf2b26ef	-0.6685628
90	0xbddb2b7d	-0.10701654
91	0xbf083ebd	-0.5322073
92	0xbf0cca87	-0.5499653
93	0x3f5784f9	0.84187275
94	0xbf24564c	-0.6419418
95	0x3eacfacb	0.3378509
96	0xbe40417e	-0.18774983
97	0xbeaac26b	-0.33351454
98	0xbf0a0014	-0.5390637
99	0xbf0e77cb	-0.5565154
100	0xbea51d68	-0.32248998
101	0xbec61e8c	-0.3869518
102	0xbf403311	-0.7507792
103	0xbf0f042f	-0.5586576
104	0x3ea28195	0.31739488
105	0xbe599949	-0.2124988
106	0xbf349158	-0.70534277
107	0xbed5ef8f	-0.4178433
108	0xbecff1ac	-0.40614069
109	0xbed05ede	-0.40697378
110	0xbf29a91c	-0.66273665
111	0xbe317d6e	-0.17333004
112	0xbec44cc2	-0.38339812
113	0xbd0c8596	-0.034307085
114	0xbee913b2	-0.4552284
115	0xbf0e4ba1	-0.5558415
116	0xbec48846	-0.38385218
117	0xbd21abcd	-0.039470483
118	0xbf180a1d	-0.5939043
119	0x3f96bee0	1.1777
120	0x3f0eeaf7	0.5582728
121	0xbf0093a1	-0.50225264
122	0x3f1c918b	0.6115958
123	0x3f9b20c3	1.2119373
124	0x3f63944f	0.88898176
125	0x3e8d95ed	0.27653447
126	0xbf203c75	-0.6259225
127	0xbf34bdcf	-0.70602125
128	0x3f498e45	0.7873271
129	0xbeacda06	-0.3376009
130	0xbe6a064d	-0.22853966
131	0x3e887688	0.26652932
132	0x3f785869	0.97009903
133	0x3e1f2108	0.15539944
134	0xbe8f965d	-0.28044406
135	0x3f16c450	0.588933
136	0xbe7c07e6	-0.24612388
137	0xbf376b31	-0.71647936
138	0x3c5c580e	0.013448728
139	0x3e8d9f69	0.27660683
140	0xbcabaebc	-0.020957343
141	0xbf8d81e8	-1.1055269
142	0x3f568204	0.8379214
143	0xbd3e44c2	-0.04645229
144	0xbf4b28b6	-0.79358995
145	0xbeda8fed	-0.42687932
146	0xbf0ad479	-0.5423046
147	0xbe98a286	-0.29811496
148	0xbeb16969	-0.34650734
149	0xbf1a7976	-0.60341585
150	0xbf64f32b	-0.89433545
151	0xbd8a8ac4	-0.06764749
152	0xbf1dd9fb	-0.61660737
153	0x3dbcc578	0.09217352
154	0xbf2501d8	-0.6445594
155	0x3e9bb3d9	0.3041065
156	0xbb8a312a	-0.0042172866
157	0x3eb38607	0.35063192
158	0x3efedc57	0.4977748
159	0x3f8bafaf	1.0912989
160	0xbf6b6461	-0.9195004
161	0x3f3e2c27	0.7428612
162	0xbf02f8dc	-0.5116098
163	0xbfa09d62	-1.254803
164	0xbf5fda37	-0.87442344
165	0xbc7b8ebf	-0.015353858
166	0xbf39bc72	-0.7255317
167	0xbedede98	-0.435292
168	0xbf39718d	-0.7243889
169	0xbebe0197	-0.37110588
170	0x3e63904f	0.22223018
171	0xbe9c071e	-0.3047418
172	0xbedc78cd	-0.43060914
173	0xbed07a5a	-0.40718347
174	0x3ebbe311	0.36696675
175	0xbb988f3b	-0.0046557463
176	0xbef7b8f5	-0.483833
177	0x3f4af106	0.7927402
178	0x3dd0351e	0.10166381
179	0xbd6fd617	-0.05855378
180	0x3f80097e	1.0002897
181	0xbd6d7196	-0.057969652
182	0x3dc06a9e	0.093953356
183	0xbf5ae034	-0.85498357
184	0x3e708f37	0.23492132
185	0xbdfe1634	-0.12406579
186	0xbe53f20d	-0.20697804
187	0x3f67cbab	0.9054515
188	0x3ea9a3d5	0.33132806
189	0x3f1acd2f	0.60469335
190	0xbcdc7069	-0.02690907
191	0xbe9d868f	-0.30766723
192	0xbf58979d	-0.84606344
193	0xbf7c944f	-0.986638
194	0xbf8f34a2	-1.1187937
195	0xbf70c85f	-0.9405574
196	0x3e96b331	0.29433587
197	0xbfb288a2	-1.3947947
198	0xbf956e96	-1.1674373
199	0x3fc4372a	1.5329335
200	0x3f96b874	1.1775041
201	0x3e08b15f	0.13348912
202	0xbea7e46a	-0.32791454
203	0xbfc2c47a	-1.521621
204	0xbf587774	-0.8455727
205	0x3f216022	0.6303731
206	0xbfa3757e	-1.2770231
207	0xbf97babb	-1.1853861
208	0xbf338a60	-0.7013302
209	0x3ec32df8	0.3812101
210	0xbf89a2d7	-1.075282
211	0xbf929cd7	-1.1454114
212	0xbf202650	-0.6255846
213	0xbf1bde53	-0.60886115
214	0xbee51f0a	-0.44750243
215	0x3f03a248	0.51419497
216	0xbf7cc6d1	-0.9874087
217	0xbfca1a14	-1.5789208
218	0xbfbc59b3	-1.4714874
219	0xbfa98068	-1.3242311
220	0xbfcf01c2	-1.6172411
221	0x3dc3816b	0.09546169
222	0xbf857eb4	-1.0429292
223	0x3d3825bd	0.044957865
224	0xbf2eb932	-0.68251336
225	0xbf5f4681	-0.87216955
226	0xbfa2896c	-1.2698188
227	0xbeab7aff	-0.33492276
228	0xbdc4da29	-0.09611923
229	0xbf79574f	-0.9739885
230	0xbf26eb3a	-0.6520268
231	0x3ed6b1df	0.4193258
232	0xbf99d370	-1.2017651
233	0xbf5bc027	-0.85840076
234	0xbf4b2485	-0.793526
235	0xbfa2199d	-1.2664067
236	0xbf576bc4	-0.8414881
237	0xbfb628ad	-1.4231163
238	0xbf9ac458	-1.2091169
239	0x3ecea12e	0.40357345
240	0xbf515d69	-0.8178316
241	0xbdcff320	-0.10153794
242	0xbe734a52	-0.2375882
243	0xbf9cf121	-1.2261087
244	0x3f75c001	0.959961
245	0xbf6eac2f	-0.9323148
246	0xbf8ca240	-1.0987015
247	0xbe9176c6	-0.2841093
248	0xbf83b7a4	-1.0290418
249	0x3e509169	0.2036797
250	0xbf8d93b5	-1.1060702
251	0x3fb23d16	1.3924892
252	0x3cfee929	0.031117039
253	0xbf3a251c	-0.72712874
254	0xbf03a5db	-0.5142495
255	0xbf8b3562	-1.0875666
