utils/model_mse.pth (torch, 206676 bytes, 9 tensors)

lstm.weight_ih_l0 f4 [256, 2]
0	0xbc94fc21	-0.01818663
1	0xbcf79ca7	-0.030226065
2	0x3f2de8a2	0.67933095
3	0x3e2336b1	0.15938832
4	0x4046f066	3.1084228
5	0x3f4461ad	0.7671154
6	0x400fd916	2.2476249
7	0xbebb6d1f	-0.3660669
8	0xc030723e	-2.7569728
9	0xbf173cbd	-0.59077054
10	0x3e3a0fd3	0.18170099
11	0x3feb8731	1.8400632
12	0xbe13b89c	-0.14425892
13	0xbf2f44c1	-0.68464285
14	0xbf2d4a5b	-0.6769158
15	0x3df8798e	0.1213256
16	0xbeb63805	-0.35589615
17	0xbff67770	-1.92552
18	0x3f94935f	1.1607474
19	0x3e9291bb	0.2862681
20	0x3e84dded	0.25950566
21	0x3ff6b6f0	1.9274578
22	0x3f8e50aa	1.1118367
23	0xbebf19bd	-0.37324324
24	0xbd67a8dc	-0.05655752
25	0xbf059168	-0.52175
26	0xbdda6f75	-0.1066579
27	0x3f54f2e8	0.83183146
28	0x406b0d10	3.6726723
29	0x3f82823b	1.0195993
30	0xbf0f6e3c	-0.5602758
31	0xbf42e8dc	-0.76136565
32	0xbf88905e	-1.0669057
33	0xc094479f	-4.633743
34	0x3f81bfce	1.0136659
35	0x3dc017d9	0.093795486
36	0xc01df3dc	-2.468009
37	0xbe6e0509	-0.23244108
38	0x3da595de	0.080852255
39	0x3f731ab2	0.9496261
40	0x3f8cf584	1.1012425
41	0x401ae5bf	2.4202726
42	0xbf7759ab	-0.966212
43	0x3f015c76	0.5053171
44	0x400ca29d	2.1974251
45	0x407ba634	3.9320192
46	0x401a5dc5	2.4119732
47	0x40828e6c	4.0798855
48	0xbe84309e	-0.25818342
49	0x3f81321a	1.0093415
50	0x3fb3f4be	1.4059064
51	0xbebb12e6	-0.36537856
52	0x3f819346	1.0123069
53	0x4013c3dc	2.3088293
54	0x3efdcc13	0.4956976
55	0xc04dff53	-3.2187088
56	0x3f9fd2ac	1.2486167
57	0xbe97889c	-0.29596412
58	0xbf74e4d9	-0.95661694
59	0x3d4e7f39	0.050414298
60	0xc004b591	-2.073582
61	0xbdd0d67d	-0.101971604
62	0xbf900da5	-1.1254164
63	0xc0023c0e	-2.0349154
64	0xbf2ddd9c	-0.67916274
65	0xc0b40301	-5.6253667
66	0xbf8a471e	-1.0802953
67	0xbedc927a	-0.43080503
68	0xc00607da	-2.0942292
69	0xbfd27ea5	-1.6444899
70	0x3fc8b6db	1.5680803
71	0xbfa2792f	-1.2693232
72	0xc016ca4e	-2.3560977
73	0xbf247e94	-0.6425564
74	0xbe4f3048	-0.20233262
75	0x3f2e4815	0.6807874
76	0xbf237c91	-0.6386195
77	0xbf81bc4b	-1.0135587
78	0xbe021304	-0.12702566
79	0xbf813a75	-1.0095965
80	0xbf8c7cb7	-1.097556
81	0xbfdea722	-1.7394755
82	0x3f8f60ae	1.1201379
83	0x3d474cbc	0.048657164
84	0xbf955a8e	-1.166826
85	0xbff37811	-1.9021016
86	0xbf801f67	-1.0009583
87	0x3fe77362	1.8082087
88	0xbf39c17a	-0.72560847
89	0xbf63dc3b	-0.8900792
90	0x3fc82b87	1.5638283
91	0x3f07dee5	0.53074485
92	0xbf0f7741	-0.5604134
93	0x40383040	2.877945
94	0x3f453600	0.7703552
95	0xc04533b6	-3.0812812
96	0x3e943568	0.28946996
97	0x3d5de6f6	0.05417534
98	0xc0057865	-2.0854733
99	0xbf9b6226	-1.2139328
100	0x3f9f4ea8	1.2445879
101	0xbf026772	-0.50939095
102	0xbf1addc8	-0.6049466
103	0xbf87540d	-1.0572525
104	0xbd4e0365	-0.050296206
105	0x3ebf6ede	0.37389272
106	0x3fb87cb3	1.4413055
107	0x3f8d5e80	1.1044464
108	0xbf0a8b4f	-0.5411882
109	0xc03b9cc3	-2.931443
110	0x3f195e88	0.5990987
111	0x3f85abee	1.0443094
112	0xbf486a28	-0.7828698
113	0xbfdf1c92	-1.7430594
114	0x3f61c11f	0.88185304
115	0x3fc26a8e	1.5188768
116	0x40516d3a	3.2722917
117	0x3e807ad2	0.25093704
118	0x3e5518f1	0.20810296
119	0xbf5e50bf	-0.8684196
120	0xbf7406e5	-0.9532302
121	0x3f39bd5d	0.7255457
122	0xbfa7c291	-1.3106252
123	0xbeda4cbe	-0.42636675
124	0x3f78d628	0.97201777
125	0xbf7b45bd	-0.9815329
126	0x3e3d4205	0.18482216
127	0x3f42b3db	0.7605569
128	0x3f333f4c	0.7001846
129	0x3f4c0c2a	0.7970606
130	0x3f5a1bb1	0.85198504
131	0x3ee73157	0.4515483
132	0xbf362c4c	-0.7116134
133	0x3ebdf5cd	0.37101594
134	0x3edf4e79	0.43614557
135	0x3ce7abf2	0.028280232
136	0xbec42ae6	-0.3831398
137	0x3ee8778a	0.454037
138	0x3e04b8d1	0.12961127
139	0x3f9508b3	1.164328
140	0xbf79b2ce	-0.9753846
141	0xc0188840	-2.383316
142	0xbed2ff30	-0.41210318
143	0x3f71b4e9	0.9441667
144	0xbf3ad5cd	-0.72982484
145	0xbf361d57	-0.7113852
146	0xbee60dd8	-0.44932437
147	0x3f28212d	0.6567562
148	0x3f791a68	0.9730592
149	0x3f0416de	0.5159739
150	0xbefb7280	-0.49110794
151	0xbe504756	-0.20339713
152	0xbf444397	-0.76665634
153	0x3f82d109	1.0220042
154	0xbfa45789	-1.2839214
155	0x3fe120a3	1.7588085
156	0x3fa7a80c	1.3098159
157	0xbf8a0683	-1.0783237
158	0x3f5ebd5d	0.87007695
159	0xbee73adc	-0.45162094
160	0x3d8d19f9	0.068897195
161	0xc05485c2	-3.320664
162	0x3f2774e5	0.6541274
163	0x3e6eabde	0.2330775
164	0xbf810671	-1.0080091
165	0x3d1c73d7	0.03819641
166	0x3ea5bf95	0.32372728
167	0x3faa7849	1.3317958
168	0x3fac5ed6	1.3466442
169	0x3f8c56d7	1.0964001
170	0xbf676fb9	-0.9040485
171	0x3fb9d3ae	1.4517725
172	0xbe14c920	-0.14529848
173	0x3eb3925e	0.35072607
174	0x3da619d2	0.081103936
175	0xbeafe00e	-0.34350628
176	0xbf67917b	-0.9045636
177	0xbef0f010	-0.47058153
178	0x3f98269b	1.1886781
179	0xbfe08b41	-1.7542497
180	0x3f2be0bc	0.6713979
181	0x3e924fe4	0.28576577
182	0x3cf26582	0.029589418
183	0xc04ad341	-3.169144
184	0xbe8db80d	-0.27679482
185	0xbe1a421e	-0.15064284
186	0xbf9883ab	-1.1915182
187	0x3f062c30	0.52411175
188	0xbf93d462	-1.1549189
189	0xbedbeb0f	-0.42952773
190	0xbf4b8300	-0.79496765
191	0xbf8e1247	-1.1099328
192	0xbfa966ac	-1.3234458
193	0xbeff3e63	-0.49852285
194	0xbf2a8a51	-0.66617304
195	0xbe6bd133	-0.23029022
196	0xbf23d8cd	-0.64002687
197	0xbe015645	-0.12630565
198	0xbed35d87	-0.41282293
199	0xc02b4be1	-2.6765063
200	0xbeff0218	-0.49806285
201	0x3ebda3aa	0.37038928
202	0xbf423248	-0.75857973
203	0x3bf4f390	0.007475324
204	0x3d293d11	0.041318003
205	0x3efd73fd	0.49502555
206	0x3e8e55a8	0.27799726
207	0xbe239f2e	-0.15978691
208	0xbfb83ce2	-1.439358
209	0xbe540163	-0.20703654
210	0x3ed722c5	0.42018715
211	0x3f6b3fca	0.9189421
212	0x3d6047d3	0.054755997
213	0xbc031d2f	-0.008002563
214	0xbf8da335	-1.1065432
215	0xbdd3f16f	-0.10348784
216	0x3dbaaddf	0.091151945
217	0x3eddc604	0.43315136
218	0x3f863d9c	1.0487552
219	0x3f16f785	0.58971435
220	0xbfa0aa47	-1.2551965
221	0x400e133c	2.219924
222	0x3ed6549a	0.4186142
223	0xbff1416b	-1.8848089
224	0xbed1d4ac	-0.40982568
225	0xbd1cf3be	-0.03831839
226	0xbf4ecc54	-0.8078053
227	0x3e162ab9	0.14664735
228	0x3f9ae09c	1.2099795
229	0x3f48bf4d	0.784169
230	0xbf058c47	-0.5216717
231	0xbe098788	-0.13430607
232	0xc012fa54	-2.2965288
233	0x40072bc2	2.1120458
234	0xbe22366a	-0.1584107
235	0xbf343a5c	-0.7040155
236	0x3e32e947	0.174718
237	0xbf1cc00d	-0.61230546
238	0x3fd5af47	1.6694115
239	0x3ecb3c3b	0.3969439
240	0xbf085322	-0.5325185
241	0x3effafd1	0.49938825
242	0xbf6c1bb3	-0.92229766
243	0x3e5a05c8	0.21291268
244	0xbf052f9d	-0.5202578
245	0xbe9b741a	-0.30362016
246	0xbfc64c19	-1.5491973
247	0xbf4357ee	-0.76306045
248	0x3e89eecb	0.26939997
249	0x3fdb1c23	1.7117962
250	0xbd8838ce	-0.0665146
251	0x3e3b5d3b	0.18297283
252	0x3eb2a8fe	0.34894556
253	0xbf692ff7	-0.91088814
254	0xbf346474	-0.7046578
255	0xbf85ba42	-1.0447466

lstm.weight_hh_l0 f4 [256, 64]
0	0x3f309997	0.6898436
1	0x3fb9df07	1.4521188
2	0xbf84ba78	-1.0369406
3	0xbfb0b928	-1.3806505
4	0x3f1c128e	0.6096581
5	0xbee2809a	-0.4423874
6	0x3f1cc152	0.61232483
7	0x3f2c003c	0.6718786
8	0x3e3e596c	0.18588799
9	0x3f0a23d0	0.53960896
10	0x3e965fad	0.2936987
11	0x3e1f22fd	0.1554069
12	0x3e04dc25	0.12974603
13	0x3fa24e7d	1.2680203
14	0x3e654104	0.22388083
15	0xbfdc9025	-1.723149
16	0x3e1c3f93	0.15258627
17	0xbf2a0bad	-0.66424066
18	0xbf5c9693	-0.8616726
19	0xbf6e71cc	-0.9314239
20	0xbf869990	-1.0515614
21	0x3e0e4210	0.13892388
22	0xbf8b54a3	-1.0885204
23	0xbfbd9412	-1.4810812
24	0xbe7030e5	-0.23456152
25	0x3ffbe99c	1.9680667
26	0x3e2761bc	0.16345876
27	0x3f1163e3	0.5679304
28	0xbf510c77	-0.81659645
29	0xbf617e9d	-0.8808382
30	0xbf5ac417	-0.8545546
31	0xbe92c6fc	-0.28667438
32	0xbebc8ae1	-0.36824706
33	0x3f84a695	1.0363337
34	0xbf506f35	-0.8141969
35	0xbf9489a8	-1.1604509
36	0x3ec0c3ca	0.37649375
37	0x3ef89ebd	0.48558608
38	0xbeca7b51	-0.39547208
39	0xbfd89508	-1.6920481
40	0x3f5c8c66	0.8615173
41	0x3f5f4b27	0.8722405
42	0x3c8bd1c0	0.01706779
43	0x3fa21ed1	1.2665654
44	0x3ef33b9f	0.47506425
45	0x400e1ebf	2.2206266
46	0xbe843bca	-0.25826865
47	0xbf55a3b0	-0.8345289
48	0x3e219c1f	0.15782212
49	0xbed65228	-0.41859555
50	0xbf23e767	-0.64024967
51	0xbf8f9344	-1.1216817
52	0xbf88867b	-1.066604
53	0xc00d9f60	-2.2128525
54	0xbe872b9f	-0.26400468
55	0xbf34ae05	-0.7057803
56	0x3f54f83b	0.8319127
57	0x3f07e129	0.5307794
58	0x3fb7fd42	1.4374163
59	0xbfc4762c	-1.5348563
60	0x3fa94ffe	1.3227537
61	0x3f8d404e	1.1035249
62	0xbf24388f	-0.641488
63	0x3db2a44b	0.08722743
64	0x3e9f5d70	0.31125975
65	0x3fac5ec7	1.3466424
66	0xbd4cafe9	-0.04997245
67	0xbe925eaf	-0.28587863
68	0x3d974700	0.07386589
69	0x3ca14ca7	0.019689871
70	0xbf013656	-0.50473535
71	0xbe0048ed	-0.12527819
72	0xbeaa6412	-0.33279473
73	0xbd0ac61a	-0.03388033
74	0x3edcaeb5	0.4310204
75	0x3eef2c0c	0.46713293
76	0xbe1f31cc	-0.1554634
77	0x3f8b1480	1.0865631
78	0xbdb2646a	-0.08710559
79	0xbf444332	-0.7666503
80	0xbe25c7f9	-0.16189565
81	0x3e632c54	0.22184879
82	0xbf650774	-0.894645
83	0xbf1da42f	-0.6157865
84	0xbed60973	-0.41804084
85	0x3ebc4fc5	0.3677961
86	0xbf317396	-0.69316995
87	0xbe388527	-0.18019544
88	0x3f6097cd	0.8773163
89	0x3e0fdf0f	0.14049934
90	0x3fc47a7d	1.534988
91	0xbcdf31b4	-0.02724538
92	0xbe6bc1f3	-0.23023205
93	0x3d0aa183	0.033845436
94	0xbf09f219	-0.53885037
95	0xbe90f900	-0.28314972
96	0x3da94c74	0.082665354
97	0x3e9e32cb	0.30898127
98	0xbef888ac	-0.48541772
99	0x3e7a5aa7	0.24448644
100	0xbe53698b	-0.2064573
101	0x3eb0917e	0.34486002
102	0xbbef5cd0	-0.0073047653
103	0xbcc557fe	-0.02408981
104	0x3f503fc5	0.81347305
105	0xbb2a3b93	-0.002597545
106	0xbef59f8b	-0.47973284
107	0x3ecce379	0.40017298
108	0x3ef62809	0.4807742
109	0x3eb892f3	0.36049613
110	0x3ed645fa	0.41850263
111	0xbe62cc40	-0.22148228
112	0xbc49a00d	-0.0123062255
113	0x3e49f38a	0.19721809
114	0x3ea3dc04	0.32003796
115	0xbf5dc6df	-0.8663158
116	0xbeeb74b9	-0.4598749
117	0xbf74a1f8	-0.95559645
118	0x3ee304fd	0.44339743
119	0xbe81d3be	-0.2535686
120	0x3f2754c2	0.65363705
121	0xbe0f9bdd	-0.14024301
122	0x3ee47829	0.44622925
123	0xbf40d98a	-0.7533194
124	0xbd82db07	-0.063894324
125	0x3f33a08e	0.7016686
126	0x3f0defbe	0.5544394
127	0xbf0c5641	-0.54819113
128	0x3eb917f8	0.361511
129	0x3eadbbb2	0.33932263
130	0xbf064d43	-0.5246164
131	0xbea26161	-0.3171492
132	0xbc8d1bd2	-0.01722518
133	0xbf0473ac	-0.51739
134	0x3e3d1e2f	0.18468545
135	0xbe2b4207	-0.16724406
136	0x3e5e664b	0.21718709
137	0xbea742a3	-0.32668027
138	0xbe07adc9	-0.13249888
139	0x3e38fce2	0.18065217
140	0xbed70cea	-0.4200204
141	0xbdfef002	-0.124481216
142	0x3f4cc22f	0.799838
143	0xbf2f263a	-0.68417704
144	0xbd66ec7b	-0.05637787
145	0xbeb57087	-0.35437414
146	0xbe431ea7	-0.19054662
147	0xbe3bb3f1	-0.18330361
148	0xbf8d1f07	-1.1025094
149	0xbec5708a	-0.38562423
150	0xbd70ec92	-0.05881936
151	0xbf6846d0	-0.9073305
152	0x3e12e7dd	0.14346261
153	0x3f12d97c	0.57363105
154	0x3eb4e1ce	0.35328525
155	0x3ed735b7	0.4203317
156	0xbf817091	-1.0112478
157	0x3dc57313	0.09641089
158	0xbd3b4301	-0.045718197
159	0x3ed4215d	0.41431704
160	0xbed32605	-0.41239944
161	0x3e2640c5	0.16235645
162	0xbec2cbbd	-0.38046065
163	0xbe693abf	-0.22776316
164	0x3ed9095b	0.4238995
165	0xbc81b673	-0.015834069
166	0xbeea476d	-0.4575762
167	0xbdaf7118	-0.08566493
168	0x3ec201f9	0.3789213
169	0xbdaa4578	-0.08314031
170	0xbe8ff93c	-0.28119838
171	0x3e9039b0	0.28169012
172	0x3e237a3c	0.15964597
173	0xbe42800c	-0.18994159
174	0x3e8b05bb	0.2715281
175	0xbea307bd	-0.3184184
176	0x3eda38a4	0.42621338
177	0xbdfc6a20	-0.12324929
178	0xbe2cdb4a	-0.16880527
179	0xbe636c0a	-0.22209182
180	0xbf07692e	-0.52894866
181	0xbf6d9646	-0.92807424
182	0xbe62e53a	-0.22157755
183	0xbf194f3f	-0.59886545
184	0xbe36c7f5	-0.17849715
185	0x3ec3e6bc	0.38261974
186	0x3f9553a2	1.1666148
187	0xbe8f7f6b	-0.280269
188	0xbdecf100	-0.115694046
189	0x3eae8d63	0.34092245
190	0xbe875fd3	-0.26440296
191	0xbf299dc0	-0.6625633
192	0xbf5fff9d	-0.8749941
193	0xbd9b28cb	-0.0757614
194	0xbf03f23b	-0.5154149
195	0xbffb0f66	-1.9614074
196	0xbeb22c00	-0.34799194
197	0xbfb8ede8	-1.4447603
198	0x4011bd51	2.27718
199	0x3f4d1ae2	0.80119145
200	0xbf255a17	-0.6459059
201	0xbf5fdbd3	-0.874448
202	0x3c20ac4c	0.009806704
203	0x3f7ae88d	0.98011094
204	0xbf34349b	-0.7039277
205	0xbe29c2df	-0.16578244
206	0x3ecd057e	0.40043253
207	0xbd886f86	-0.066618964
208	0xbfd90429	-1.6954395
209	0x3e66645e	0.22499225
210	0xbf5a3608	-0.85238695
211	0x3e7b5ce4	0.24547154
212	0xbe9ca36f	-0.3059344
213	0x3f721bd3	0.94573706
214	0xbe9d5227	-0.3072674
215	0xbf2149f5	-0.63003474
216	0x3f359cff	0.7094268
217	0x3f0ca69e	0.5494174
218	0x3e28a154	0.16467792
219	0x3ec09ec9	0.37621143
220	0x3f41ca64	0.7569945
221	0xbfe01724	-1.7507062
222	0xbe0261b9	-0.1273259
223	0xbe78e173	-0.24304752
224	0x3e0c49c7	0.13700019
225	0xbebe0a2b	-0.37117133
226	0xbf5aafbb	-0.85424393
227	0xbe93764b	-0.28801188
228	0x3e1dbeeb	0.1540486
229	0x3fbec46e	1.4903696
230	0x3f2edd91	0.68306834
231	0xbf81c9ba	-1.0139687
232	0x3f71719b	0.94313973
233	0xbe438a9b	-0.19095843
234	0xbeb307fb	-0.34967026
235	0xbeb8b6ef	-0.36077067
236	0x3fcbb842	1.5915606
237	0x3e8f8900	0.2803421
238	0xbcce785e	-0.02520388
239	0xbf273fba	-0.65331614
240	0x3f1e9b45	0.6195567
241	0xbe031565	-0.1280113
242	0x3fc11fcb	1.5087827
243	0xbe7956c7	-0.24349509
244	0xbeef2bfd	-0.46713248
245	0xbf3f62c2	-0.7476007
246	0xbd7831a6	-0.060594223
247	0xbefc030f	-0.49221084
248	0x3fe16d57	1.7611493
249	0x3ea51420	0.32241917
250	0x4037e9f8	2.8736553
251	0x3f54dd9d	0.83150655
252	0x3f72d9fa	0.94863856
253	0xbe269482	-0.16267589
254	0xbe90781f	-0.28216645
255	0xbf8432ae	-1.0327966

lstm.bias_ih_l0 f4 [256]
0	0xbf0e3993	-0.555566
1	0x3f959cbc	1.1688457
2	0x404a8d75	3.1648839
3	0x3f6c5491	0.9231654
4	0xbfdc2974	-1.720015
5	0xbf61e3e9	-0.8823839
6	0x3d32b477	0.043629136
7	0xbf35e990	-0.71059513
8	0xbf4f18ff	-0.80897516
9	0x3ee5ed3e	0.44907564
10	0x3e0eec10	0.13957238
11	0x3f6fa8d3	0.9361698
12	0xbfa7e9e5	-1.3118254
13	0x3f9112a0	1.1333809
14	0x402a4cc4	2.6609354
15	0xbeaafa80	-0.3339424
16	0xbf92199e	-1.1414068
17	0x3e9aa7c4	0.3020612
18	0xbfee8a8e	-1.8636034
19	0x3ec64721	0.38726142
20	0xbe82c8b2	-0.25543743
21	0xbf855a7d	-1.041824
22	0x3fb2bb4f	1.3963412
23	0x402b2ecd	2.6747315
24	0x3f82aeee	1.0209634
25	0x3f92ad7c	1.1459193
26	0x3f786022	0.9702169
27	0x3f267eab	0.6503703
28	0xbf8278f0	-1.0193157
29	0xbfa44786	-1.2834327
30	0xbefe1a34	-0.49629366
31	0xbfefd7a2	-1.8737681
32	0xbf4577c3	-0.77135867
33	0xbcbfbb6a	-0.023404796
34	0xbff727e3	-1.9309047
35	0x3f05cdc6	0.5226711
36	0xc00e6fc8	-2.2255726
37	0xbe96e99b	-0.29475102
38	0xbea516c9	-0.32243946
39	0x3da76d69	0.08175165
40	0xbf576cd9	-0.84150463
41	0xbd2d764e	-0.042349152
42	0xbf9d1faf	-1.2275294
43	0xbf5426d6	-0.8287176
44	0xbe5cbde9	-0.2155682
45	0xbf0dbdfc	-0.5536802
46	0xbebc5b62	-0.3678847
47	0x3e3dc78a	0.1853315
48	0xbe72b755	-0.23702748
49	0xbf8feca9	-1.1244098
50	0x3f3c5ab3	0.73575896
51	0xbf94c58d	-1.1622788
52	0xbd4db4aa	-0.050221123
53	0x3fdb514c	1.7134185
54	0xbf2b4c5e	-0.669134
55	0x3df4b097	0.11947744
56	0xbf8afe07	-1.0858773
57	0x3f929bef	1.1453837
58	0x403a2af3	2.9088714
59	0xbe4b1ec3	-0.19835953
60	0xbf6b36fe	-0.91880786
61	0xbfdde8cf	-1.7336673
62	0x3f11496a	0.56752646
63	0xbed7552e	-0.42057174
64	0x3f31d5c8	0.6946683
65	0x3f37d53e	0.71809757
66	0xbf43be74	-0.76462483
67	0x3f1b24b1	0.6060286
68	0xbe871fcb	-0.26391444
69	0x3d7401b4	0.059571937
70	0xbf882f5c	-1.0639453
71	0xbea65386	-0.32485598
72	0xbf8c6438	-1.0968084
73	0xbed6e61f	-0.41972443
74	0x3f9ca44d	1.2237641
75	0x3e9bf9a3	0.30463895
76	0xbf304827	-0.68860096
77	0xbf243cda	-0.6415535
78	0xbe5839a3	-0.21115737
79	0x3f6180ab	0.88086957
80	0x3e950d4f	0.29111716
81	0x3f321edb	0.6957833
82	0xbebacb5c	-0.36483276
83	0xbe638c87	-0.22221576
84	0x3f4add00	0.7924347
85	0xbee65425	-0.44986072
86	0xbf234ac6	-0.6378597
87	0xbf156405	-0.5835574
88	0xbf021078	-0.5080638
89	0x3f68cd69	0.9093843
90	0x3f57ecfa	0.8434597
91	0x3e18c4fd	0.14918895
92	0xbf2270ba	-0.6345326
93	0xbfa7b8be	-1.3103254
94	0xbf006b01	-0.50163275
95	0xbf79df30	-0.9760618
96	0xbf1a6d65	-0.6032317
97	0xbed37ef1	-0.41307786
98	0xbe07b37c	-0.13252062
99	0x3d9cadec	0.076503605
100	0xbe84a7cd	-0.25909272
101	0xbeefae82	-0.46812826
102	0xbd45cbc6	-0.048290037
103	0x3f8799af	1.0593776
104	0xbf24f99a	-0.6444336
105	0x3ebdd6a0	0.37077808
106	0x3ea54489	0.3227885
107	0xbf818df2	-1.0121443
108	0x3f2c830d	0.6738747
109	0x3f206451	0.6265307
110	0xbf805b71	-1.0027906
111	0x3eb3286d	0.3499178
112	0xbf455c0f	-0.77093595
113	0xbf30f504	-0.69123864
114	0x3f7e3f07	0.9931492
115	0xbeeb63ce	-0.45974582
116	0xbd9f7b97	-0.07787245
117	0xbf38f1ee	-0.72244155
118	0x3e487967	0.19577561
119	0x3f6c1a46	0.9222759
120	0xbe0c3588	-0.13692296
121	0xbf462882	-0.7740556
122	0xbf019f46	-0.50633657
123	0xbfc431cd	-1.5327698
124	0x3f07122a	0.5276209
125	0xbeb53473	-0.35391578
126	0x3f349e5b	0.7055413
127	0xbf33a886	-0.7017902
128	0xbed0f5d5	-0.40812555
129	0x3e4e3224	0.20136315
130	0xbfc8d660	-1.5690422
131	0xbf231c56	-0.6371511
132	0xbdd604cc	-0.10450134
133	0xbea974e9	-0.33097008
134	0x3f8d4363	1.103619
135	0x3ef1ab6b	0.47201094
136	0xbf5373be	-0.82598484
137	0xbf6972d7	-0.91190857
138	0x3d561a38	0.052271098
139	0xbf99c002	-1.2011721
140	0x3e23768b	0.1596319
141	0x3fd7d4c4	1.6861806
142	0x3fd720cb	1.6806883
143	0x3e8336d4	0.25627768
144	0x3e952d65	0.29136196
145	0xbf5c4efa	-0.8605801
146	0x3e54a041	0.20764257
147	0xbfa70698	-1.3048887
148	0x3d5051f2	0.0508594
149	0xbdbfd930	-0.09367597
150	0xbe49d084	-0.19708449
151	0xc002ef23	-2.0458457
152	0x3fc601d7	1.5469311
153	0x3f579aa5	0.84220344
154	0x3e869d45	0.26291862
155	0x400d5796	2.2084708
156	0x3f3b8c26	0.73260725
157	0xbbdb0924	-0.0066844393
158	0x3f967616	1.1754787
159	0x3e0990ab	0.13434093
160	0xbf954429	-1.1661426
161	0xbf9cbcb5	-1.2245089
162	0x3e919bc8	0.28439164
163	0x3f4d6adf	0.802412
164	0x3ac9e620	0.0015403666
165	0xbf7a826e	-0.9785527
166	0xbf65aef9	-0.8972011
167	0xbeb16d0b	-0.34653506
168	0xbf83d596	-1.0299556
169	0x3f5c7f53	0.8613178
170	0xbdcbcb5a	-0.099508956
171	0x3d9cacad	0.07650123
172	0xbfac9687	-1.3483437
173	0x3f03ef6b	0.515372
174	0x3ee1955c	0.44059265
175	0xbf1ed871	-0.62049013
176	0x3f8bf71e	1.0934789
177	0xbf16b98c	-0.5887687
178	0x3f8e950c	1.1139235
179	0x3f687654	0.90805554
180	0x3efa7399	0.4891632
181	0xbfc66032	-1.5498106
182	0xbfcfeb5e	-1.6243703
183	0xbc869ba3	-0.016431635
184	0xbd5725ae	-0.05252617
185	0x3f8bf1ee	1.0933206
186	0x3feff9db	1.8748125
187	0xbf6c9c5a	-0.92426074
188	0x3ce97582	0.028498415
189	0x3b979215	0.0046255686
190	0xbf3dd764	-0.74156785
191	0x3e2ddc81	0.16978647
192	0xbeea6158	-0.45777392
193	0x3e9093e5	0.28237835
194	0xbe6ce1c9	-0.23133005
195	0x3eb5863d	0.35453978
196	0xbfe442ad	-1.7832848
197	0xbf3274ec	-0.6970966
198	0xbf576a94	-0.84147
199	0xbfd0da02	-1.6316531
200	0xbf63b60b	-0.8894965
201	0x3f96e2df	1.1787986
202	0xbcc0c018	-0.023529097
203	0xbf19db4a	-0.60100234
204	0xc0041911	-2.06403
205	0xbec1d081	-0.37854388
206	0x3db85562	0.090006605
207	0xbf36ace8	-0.71357584
208	0xbef28d90	-0.4737363
209	0xbeaba434	-0.33523715
210	0xbfe306b7	-1.7736424
211	0xbe09facb	-0.13474576
212	0x3dc06c34	0.09395638
213	0xbfd75dbc	-1.682548
214	0xbedb991b	-0.42890248
215	0x3fab5b64	1.3387265
216	0x3f4ac0e8	0.792006
217	0x3ee11ab7	0.43965694
218	0x3f3e43a4	0.7432196
219	0x3f16babb	0.5887868
220	0xbfc88e9e	-1.5668523
221	0x3df8a57f	0.12140941
222	0xbeacf486	-0.33780307
223	0xbfb787b6	-1.4338291
224	0xbf0c48ad	-0.54798394
225	0xbd4b435a	-0.04962478
226	0xbfe293a4	-1.7701306
227	0xbf01e22a	-0.50735724
228	0xbff3babf	-1.9041365
229	0xbea95a8d	-0.33076897
230	0xbec747fa	-0.389221
231	0x3ccf831a	0.025331069
232	0xbf29e282	-0.6636125
233	0x3f098f81	0.53734595
234	0xbfb5268d	-1.415239
235	0xbf8fdb85	-1.1238867
236	0xbec13258	-0.37733722
237	0x3cf60e7e	0.030036207
238	0x3ddc5ed9	0.10760278
239	0x3e7bed02	0.2460213
240	0xbd5636e9	-0.05229846
241	0xbf5af066	-0.8552307
242	0xbe5358d0	-0.20639348
243	0xbf7c46ef	-0.98545736
244	0x3f21a114	0.6313641
245	0x3ead9903	0.339058
246	0x3fa1c0f5	1.2637011
247	0xbecb90dc	-0.39758956
248	0xbfa10b37	-1.2581547
249	0x3eb00e55	0.34385934
250	0x3ec15689	0.37761334
251	0xbe7db5ac	-0.24776334
252	0xbf7ccd6e	-0.9875096
253	0xc0068b9e	-2.1022716
254	0x3e95d2ec	0.29262483
255	0xbef42c80	-0.476902

lstm.bias_hh_l0 f4 [256]
0	0xbed93207	-0.4242098
1	0x3f89d579	1.0768272
2	0x405287dd	3.2895424
3	0x3f811b3c	1.0086436
4	0xbfdea1b0	-1.7393093
5	0xbf720137	-0.94533104
6	0xbd58d6d0	-0.052939236
7	0xbf36405f	-0.7119197
8	0xbf1bd7b5	-0.6087602
9	0x3eb0799f	0.3446779
10	0x3b98377a	0.004645285
11	0x3f875e6f	1.0575694
12	0xbfa17cdf	-1.2616233
13	0x3f9437da	1.1579545
14	0x40258efc	2.586852
15	0xbe8a7dca	-0.27049094
16	0xbfa4a05f	-1.2861441
17	0x3e5b5e46	0.21422681
18	0xbfe5a606	-1.7941291
19	0x3ed407b7	0.41412136
20	0xbe8c2591	-0.2737241
21	0xbf8a968a	-1.0827191
22	0x3fbce747	1.475808
23	0x4027726b	2.6163585
24	0x3f83bf3a	1.0292733
25	0x3f779ab2	0.9672042
26	0x3f860602	1.0470583
27	0x3f4b7d25	0.7948783
28	0xbf9a707a	-1.2065575
29	0xbfb2dcac	-1.3973594
30	0xbea9a286	-0.33131808
31	0xbffb9551	-1.9654943
32	0xbf78370e	-0.96959007
33	0x3da47f4c	0.080320925
34	0xbfec5897	-1.8464535
35	0x3f04983e	0.51794803
36	0xc00ca9c8	-2.1978626
37	0xbd6f3943	-0.05840422
38	0xbe677c36	-0.22605976
39	0xbd5b2e19	-0.05351076
40	0xbf21b1c4	-0.63161874
41	0xbd8502f2	-0.064947024
42	0xbfa9db3d	-1.3270031
43	0xbf7c9066	-0.98657835
44	0xbd9e2bcc	-0.07723197
45	0xbef4f187	-0.4784052
46	0xbeb5ee92	-0.35533577
47	0x3d76fc6e	0.06029933
48	0xbdc633f2	-0.096778765
49	0xbfa15006	-1.2602546
50	0x3f30ea98	0.6910796
51	0xbf8bc1fb	-1.0918573
52	0xbd7da5e8	-0.0619258
53	0x3fdc9162	1.7231867
54	0xbf2d9f3d	-0.67821103
55	0x3e9438bc	0.28949535
56	0xbfa0f1d6	-1.2573802
57	0x3f95711d	1.1675144
58	0x4035dcc3	2.8415992
59	0xbd2873e2	-0.04112614
60	0xbf8c0ef1	-1.094206
61	0xbfd5792f	-1.6677607
62	0x3f21b160	0.6316128
63	0xbea18310	-0.31545305
64	0x3f327c58	0.69720984
65	0x3f27c2ea	0.6553179
66	0xbf2bcc1d	-0.6710833
67	0x3f230a77	0.63687843
68	0xbdcee917	-0.10103052
69	0xbde1658a	-0.11005695
70	0xbf8ff657	-1.1247052
71	0xbe94cd84	-0.29063046
72	0xbf7e0a46	-0.99234426
73	0xbeb9cb3d	-0.3628787
74	0x3fa3dc1b	1.2801546
75	0x3ee1abbd	0.44076338
76	0xbf3e576c	-0.74352145
77	0xbef72f89	-0.48278454
78	0xbe3a5620	-0.18196917
79	0x3f7bb9dd	0.9833048
80	0x3ec1eda1	0.3787661
81	0x3f65b169	0.8972383
82	0xbeb27c76	-0.3486058
83	0xbde9471b	-0.113905154
84	0x3f207d1e	0.62690914
85	0xbeb8963a	-0.36052114
86	0xbf0ad0a3	-0.54224604
87	0xbf342493	-0.7036831
88	0xbec0fc82	-0.37692648
89	0x3f4bc05b	0.79590386
90	0x3f46f727	0.77720875
91	0x3eaac62e	0.33354324
92	0xbf1f5bae	-0.6224927
93	0xbfc132de	-1.5093648
94	0xbf02d901	-0.5111237
95	0xbf7587fc	-0.9591062
96	0xbf22a583	-0.635338
97	0xbee8396e	-0.45356315
98	0xbd344bd2	-0.04401762
99	0xbd11da4d	-0.03560858
100	0xbe121c14	-0.14268523
101	0xbef4ebaf	-0.47836062
102	0x3d030a60	0.031992316
103	0x3f6340f9	0.88771015
104	0xbeffb0be	-0.4993953
105	0x3e2ecb70	0.17069793
106	0x3e8ee1bb	0.27906594
107	0xbf80a456	-1.0050151
108	0x3f253355	0.6453145
109	0x3f388fe3	0.72094554
110	0xbf976af3	-1.1829513
111	0x3efb90e2	0.49133974
112	0xbf52f720	-0.8240833
113	0xbf3b2e94	-0.7311795
114	0x3f923e02	1.1425173
115	0xbe9222de	-0.28542227
116	0xbe86f71c	-0.26360404
117	0xbf198dbf	-0.5998191
118	0x3e2c7727	0.16842328
119	0x3f5cb912	0.86219895
120	0xbe378351	-0.17921187
121	0xbf4b4d09	-0.7941442
122	0xbf2a4b88	-0.665215
123	0xbfbeb90f	-1.4900225
124	0x3f239813	0.6390392
125	0xbe7c78bc	-0.24655432
126	0x3f19f4f5	0.601394
127	0xbf31538a	-0.69268095
128	0xbeee9f0d	-0.4660572
129	0x3dfbd4c1	0.12296439
130	0xbfd8a73d	-1.6926037
131	0xbf2aa964	-0.6666472
132	0xbd01b3bb	-0.031665545
133	0xbe7c9e67	-0.246698
134	0x3f95b961	1.1697198
135	0x3efdd0c4	0.49573338
136	0xbf4c5e02	-0.79830945
137	0xbf7b09d6	-0.98061883
138	0x3e01abe7	0.12663232
139	0xbf93cc56	-1.1546733
140	0x3df60077	0.120118074
141	0x3fe2b53a	1.7711556
142	0x3fd38013	1.652346
143	0x3e91f44d	0.285067
144	0x3e8ae35d	0.2712659
145	0xbf3fe684	-0.74961114
146	0x3e15d3e5	0.14631613
147	0xbfa35918	-1.2761564
148	0x3de2925b	0.11063071
149	0x3c9ef315	0.01940302
150	0xbed03108	-0.40662408
151	0xc00385ea	-2.0550485
152	0x3fcdf3ed	1.6090065
153	0x3f87a336	1.0596683
154	0x3ef2a4ad	0.47391263
155	0x40173ed1	2.363209
156	0x3f1577be	0.5838584
157	0xbd6ee4cc	-0.058323666
158	0x3f8b60e6	1.0888946
159	0x3e2c1867	0.16806184
160	0xbf8f3651	-1.1188451
161	0xbf95a2ab	-1.1690267
162	0x3e9855a0	0.29752827
163	0x3f48ee44	0.78488564
164	0x3df65486	0.1202784
165	0xbf70ab80	-0.9401169
166	0xbf5e6505	-0.86872894
167	0xbeb532f7	-0.35390446
168	0xbf63780d	-0.8885506
169	0x3f3f2619	0.7466751
170	0xbdb59518	-0.08866328
171	0xbd7cedd9	-0.061750267
172	0xbfa27d6f	-1.2694529
173	0x3f0413f4	0.51592946
174	0x3ed8ab72	0.42318302
175	0xbf253123	-0.645281
176	0x3f9272aa	1.1441243
177	0xbf2e01b6	-0.6797136
178	0x3f840f1a	1.0317109
179	0x3f8a4be9	1.0804416
180	0x3efac641	0.4897938
181	0xbfcb9f9e	-1.5908086
182	0xbfc3ed43	-1.5306782
183	0xbde7834e	-0.11304341
184	0xbcd8ee99	-0.02648096
185	0x3f853118	1.0405607
186	0x400212a7	2.0323884
187	0xbf8b1859	-1.0866805
188	0x3e237ac5	0.15964802
189	0xbcd4fab6	-0.025998455
190	0xbf3fa674	-0.7486336
191	0x3d5b2c75	0.053509194
192	0xbedb044d	-0.4277672
193	0x3e85783b	0.2606829
194	0xbe67bd59	-0.22630824
195	0x3eab7a5a	0.33491784
196	0xbfd52b1b	-1.665378
197	0xbf1deea0	-0.6169224
198	0xbf33fd78	-0.7030864
199	0xbfbdf494	-1.4840264
200	0xbf6759e7	-0.90371555
201	0x3fa4a9a9	1.2864276
202	0xbd86b61a	-0.06577702
203	0xbf06b1aa	-0.52614844
204	0xc0000ded	-2.00085
205	0xbe91004d	-0.28320542
206	0x3e9657f3	0.29363975
207	0xbf1c1bc5	-0.6097987
208	0xbef6376c	-0.4808916
209	0xbec52ba0	-0.38509846
210	0xbfef6613	-1.8703026
211	0xbe76b12c	-0.24091023
212	0x3e8ddd94	0.27708113
213	0xbfe2bd7e	-1.7714078
214	0xbe9b8aef	-0.30379435
215	0x3fa96762	1.3234675
216	0x3f1e70a0	0.618906
217	0x3f19b5c4	0.6004298
218	0x3f32a168	0.69777536
219	0x3f170326	0.5898918
220	0xbfb4309c	-1.4077334
221	0xbda83f6d	-0.082152225
222	0xbeddddf8	-0.4333341
223	0xbfb7f0da	-1.4370377
224	0xbef89cd4	-0.4855715
225	0x3d9e4874	0.07728663
226	0xbffd4a17	-1.9788235
227	0xbe954b6e	-0.2915911
228	0xc0001e40	-2.0018463
229	0xbef1a9ff	-0.4720001
230	0xbedce990	-0.43146944
231	0xbdbbf2ce	-0.09177171
232	0xbf54857c	-0.8301618
233	0x3ef19a6a	0.4718812
234	0xbfc7fd49	-1.5624171
235	0xbf8eca2d	-1.1155449
236	0xbea41c48	-0.32052827
237	0x3dd8e391	0.1059028
238	0x3dd8946f	0.105751865
239	0x3e4680de	0.19385096
240	0xbd254d5e	-0.040356986
241	0xbf7d45e4	-0.9893477
242	0xbe9b1785	-0.3029138
243	0xbf9c8209	-1.2227184
244	0x3f4e98de	0.80702007
245	0x3e87b054	0.26501715
246	0x3fa8e60f	1.3195208
247	0xbe3f42b8	-0.18677795
248	0xbf8eb601	-1.1149293
249	0x3ecf10e9	0.4044259
250	0x3ee74f2c	0.4517759
251	0xbe45dc50	-0.19322324
252	0xbf53dd32	-0.8275939
253	0xc0064922	-2.0982137
254	0x3e8f4fbc	0.2799052
255	0xbf0ac2b2	-0.5420333

lstm.weight_ih_l1 f4 [256, 64]
0	0x3f0e4cbe	0.5558585
1	0x3e1c00e5	0.15234716
2	0xbef14fbd	-0.47131148
3	0xbedb1718	-0.42791057
4	0x3f151885	0.5824054
5	0xbf2c2e45	-0.672581
6	0xc00329d0	-2.049427
7	0xbf7ad699	-0.979837
8	0x3d74722e	0.059679203
9	0x3f28b03f	0.6589393
10	0x3e621ac2	0.2208052
11	0x3f96189e	1.1726263
12	0xbdc1cdb0	-0.0946306
13	0x3fc978d3	1.5739998
14	0xc02eafdb	-2.7294834
15	0xbfefed22	-1.8744242
16	0x3f63e326	0.89018476
17	0xbf2c152a	-0.67219794
18	0xbf9fb48c	-1.2476974
19	0x3da8d989	0.082446165
20	0xbfe2b22d	-1.7710625
21	0x3f0dbd52	0.55367005
22	0xbf902af9	-1.1263114
23	0xbec599ea	-0.3859399
24	0xbf9b80cb	-1.214868
25	0xbf9fd3f3	-1.2486557
26	0x3f74769d	0.9549349
27	0xbf186860	-0.59534264
28	0xc00f1bcd	-2.2360718
29	0x3d980416	0.07422654
30	0xc0011c86	-2.017366
31	0x3e17212e	0.14758751
32	0xbf65f76c	-0.8983066
33	0x3fc7648e	1.5577562
34	0xbf7c0457	-0.9844412
35	0x3ceddceb	0.029036006
36	0xbea55c16	-0.32296818
37	0x3ee88d6d	0.454204
38	0xbfa1c55e	-1.2638357
39	0x3f203698	0.62583303
40	0x4003ae75	2.057523
41	0xc01c5f4e	-2.443317
42	0x3e5e38d1	0.21701361
43	0x3fc8781d	1.5661656
44	0x3f606f41	0.8766976
45	0xbec83e5c	-0.39110076
46	0xbe3114ea	-0.17293134
47	0xc01beef9	-2.4364607
48	0xc013de85	-2.3104565
49	0x3fe2d0e9	1.7720004
50	0xbf7fee39	-0.99972874
51	0xc01630f9	-2.346739
52	0xbf5710e9	-0.8401018
53	0x3ef06268	0.46950078
54	0x3ffaeaa6	1.9602859
55	0xbc08a1dd	-0.008339372
56	0x3ff13428	1.8844042
57	0xbf55572b	-0.8333613
58	0x3eb8bc2f	0.36081073
59	0xbef709ff	-0.48249814
60	0x3f772bcb	0.965512
61	0xbe01e5f5	-0.12685378
62	0x3f7b40c0	0.98145676
63	0x3f659462	0.8967954
64	0x3b9de2d9	0.004818302
65	0xbec975e6	-0.39347762
66	0x3f5e0e2d	0.8674038
67	0x3ee81ef9	0.4533613
68	0x3e4e9709	0.20174803
69	0xbc8da874	-0.017292239
70	0x3dfdf567	0.124003224
71	0x3efe3f53	0.49657688
72	0x3edaaf1e	0.4271173
73	0x3f02f4f0	0.51154995
74	0xbf140054	-0.57813
75	0x3e04d245	0.12970836
76	0x3f31af5d	0.6940821
77	0xbf0a4ac7	-0.5402035
78	0xbf45658d	-0.7710808
79	0x3cd6293a	0.026142705
80	0x3ea54426	0.32278556
81	0x3e10b583	0.14131741
82	0x3e610627	0.21975003
83	0x3e898da5	0.2686588
84	0x3f871360	1.0552788
85	0x3f4ae5bf	0.79256815
86	0x3f158c62	0.5841733
87	0x3f5b983b	0.8577916
88	0xbeef9ed3	-0.4680086
89	0xbf54b24c	-0.8308456
90	0xbf754cb0	-0.9582014
91	0xbf02faf5	-0.5116418
92	0x3ef029b8	0.4690683
93	0xbfa24230	-1.2676449
94	0x3e00f35d	0.12592836
95	0x3f453ec4	0.770489
96	0x3e74ab57	0.23893486
97	0xbd7deb8d	-0.061992217
98	0x3e858ca7	0.26083872
99	0x3f9a9634	1.2077088
100	0xbe0bfde9	-0.13671078
101	0x3e25ba31	0.16184308
102	0x3d5b9d6c	0.053616926
103	0x3ec53452	0.3851648
104	0x3f0b5e57	0.54440826
105	0xbebf8ce8	-0.3741219
106	0x3f2a0207	0.66409343
107	0xbf8bf8e6	-1.0935333
108	0xbe4b87ff	-0.19876097
109	0xbe16c4a5	-0.14723451
110	0xbf2579e3	-0.6463911
111	0xbdaabfe9	-0.08337385
112	0xbf90b9c2	-1.1306689
113	0xbda06950	-0.07832587
114	0x3e3f5cc8	0.18687737
115	0x3e3aab8e	0.18229505
116	0xbe87b871	-0.26507905
117	0x3f2de72d	0.6793087
118	0x3c6b2e96	0.014354369
119	0x3f393c5f	0.72357744
120	0x3e47104f	0.19439815
121	0xbeec6f04	-0.46178448
122	0xbf4171eb	-0.7556445
123	0x3edf6170	0.43629026
124	0xbe3876fa	-0.18014136
125	0xbf415620	-0.7552204
126	0xbe1a0b49	-0.15043367
127	0x3ede5164	0.4342147
128	0xbfbe870b	-1.4884962
129	0x3f7dc964	0.9913542
130	0xbea4f93b	-0.32221398
131	0xbf727323	-0.94706935
132	0x3ea53293	0.32265148
133	0x3e8bb5e9	0.27287224
134	0x3e1e8b2a	0.15482774
135	0x3f696d0f	0.91182035
136	0x3ffaa21b	1.9580721
137	0xbfb32455	-1.3995463
138	0x3eb1f762	0.3475905
139	0xbb89b5ae	-0.004202566
140	0x3e3c4d8f	0.18388961
141	0x3da77548	0.081766665
142	0x3f3935ff	0.72348017
143	0xbf799540	-0.9749336
144	0xbf49b4a3	-0.78791255
145	0xbde542dd	-0.11194394
146	0x3f887eb4	1.0663667
147	0xbd280ec2	-0.0410297
148	0xbf0fb6ad	-0.56138116
149	0x3e927206	0.28602618
150	0x3e951904	0.29120648
151	0xbef99806	-0.48748797
152	0xbfa3f66d	-1.2809578
153	0x3f7233ca	0.94610274
154	0xbd914e3b	-0.070949994
155	0x3eeeed53	0.4666544
156	0x3e6e3051	0.23260619
157	0x3ea300f9	0.3183668
158	0x3f97c30c	1.1856399
159	0xbe07b718	-0.13253438
160	0x3e4845ac	0.19557828
161	0xbf60ce65	-0.87814933
162	0x3f8de7aa	1.1086323
163	0xbf14c768	-0.5811677
164	0xbe7f535c	-0.24934143
165	0xbf2617a6	-0.64879835
166	0x3d62fd40	0.0554173
167	0xbfa6cfdc	-1.3032184
168	0xbd02357e	-0.031789295
169	0x3f81b1b1	1.0132352
170	0x3feda377	1.856551
171	0xbff0e2c0	-1.8819199
172	0xbef1384b	-0.4711326
173	0x3ee5fe05	0.44920364
174	0xbe9f38aa	-0.3109792
175	0xbed6c867	-0.4194977
176	0xbf46ca92	-0.7765285
177	0xbda2de9b	-0.07952615
178	0x4029290b	2.64313
179	0x40188cd2	2.383595
180	0x3f869be4	1.0516324
181	0x3e3b4018	0.18286169
182	0x3f734bc8	0.9503751
183	0xbf6b867d	-0.9200209
184	0xbeee58f6	-0.46552247
185	0x3e60d92c	0.21957844
186	0x3f3677f7	0.712768
187	0x3fa6217f	1.2978972
188	0xbfe68ec2	-1.8012316
189	0xbf00ff2a	-0.5038935
190	0xbfad67b3	-1.3547271
191	0x3ed7f11f	0.42176148
192	0xbec76904	-0.38947308
193	0xbf09c8d6	-0.53822076
194	0x3f30b842	0.69031155
195	0x3f5cebf0	0.8629751
196	0x3ea24f7d	0.3170127
197	0x3e5a23fb	0.21302788
198	0x3e956a3a	0.29182607
199	0x3def2ac3	0.11678078
200	0x3f031e46	0.5121807
201	0x3e4c676f	0.19961332
202	0xbf93d1f0	-1.1548443
203	0x3f8d3031	1.1030332
204	0xbe0469c3	-0.1293097
205	0x3ce0e92a	0.027454931
206	0xbfa39652	-1.2780249
207	0x3f68713d	0.9079779
208	0x3e2f5c2b	0.17125003
209	0x3f945484	1.1588292
210	0xbe4eae7e	-0.20183751
211	0x3ecdf9cd	0.40229645
212	0x3eadcfc6	0.3394758
213	0xbe33d93a	-0.17563334
214	0x3ebf8ca0	0.37411976
215	0x3f176c54	0.5914967
216	0xbe6c201a	-0.23059121
217	0xbf817040	-1.0112381
218	0xbf2e000f	-0.6796884
219	0xbf496545	-0.7867015
220	0x3eb071b0	0.34461737
221	0xbf3857c8	-0.72008944
222	0x3e33f33a	0.17573252
223	0x3f378fae	0.7170361
224	0x3ea2770f	0.3173146
225	0x3d809632	0.062786475
226	0x3e2b69f7	0.16739641
227	0x3f7362b7	0.950725
228	0x3c458068	0.01205454
229	0xbda62f7d	-0.081145264
230	0xbea2856d	-0.3174242
231	0x3f19d09a	0.60083926
232	0xbca0c34d	-0.019624377
233	0xbe5058cf	-0.20346378
234	0x3eadf75b	0.3397778
235	0xbd708dd0	-0.058728993
236	0x3dc75937	0.09733813
237	0x3e954101	0.29151157
238	0xbe9e7879	-0.30951288
239	0x3f0e6c54	0.55634046
240	0xbf1aba3d	-0.6044043
241	0x3f324c12	0.69647324
242	0xbf18c44f	-0.59674543
243	0xbd96e071	-0.073670276
244	0x3e9b3884	0.30316556
245	0x3f527313	0.8220684
246	0xbcf21814	-0.029552497
247	0x3f1ac975	0.6046365
248	0x3e4ff797	0.20309292
249	0xbf1689a1	-0.58803755
250	0xbed3b55b	-0.413493
251	0x3e43eb83	0.1913281
252	0x3e86d99b	0.26337895
253	0xbf084731	-0.5323363
254	0xbdf20918	-0.11818141
255	0x3eaa70c1	0.3328915

lstm.weight_hh_l1 f4 [256, 64]
0	0x3fa1a7b9	1.262931
1	0xbf06bfed	-0.52636606
2	0xbf0bb1ac	-0.5456798
3	0xbd83a168	-0.0642727
4	0x3fb15cd0	1.3856449
5	0xbd2aae98	-0.04167041
6	0x3dc6fa57	0.09715717
7	0x400798bc	2.1186972
8	0xbe3c283d	-0.18374725
9	0xbcc73b1f	-0.024320183
10	0x3efc428f	0.4926953
11	0xbecb391c	-0.39692008
12	0x3e75ab49	0.23991121
13	0xbd731ef9	-0.05935571
14	0x3f506fde	0.81420696
15	0xbd6a95de	-0.05727183
16	0x3d24e729	0.040259514
17	0x3aeb7aa4	0.0017965627
18	0x3d984621	0.07435251
19	0x3e19ff1e	0.15038726
20	0xbf7ab386	-0.9793018
21	0x3f1bb6ce	0.6082581
22	0xbd325afe	-0.04354381
23	0x3b227ef8	0.0024794918
24	0x3f088c3b	0.53338975
25	0xbc98e330	-0.018663019
26	0xbd8d4bea	-0.06899245
27	0xbf4ca001	-0.79931647
28	0xbe23f573	-0.160116
29	0xbe186a8e	-0.14884397
30	0x3e98cbea	0.29843074
31	0xbd977b77	-0.07396596
32	0xbdd7f04c	-0.1054388
33	0x3e8a41a3	0.27003202
34	0xbe7a272f	-0.2442901
35	0x3eb571e7	0.35438463
36	0x3c8ee275	0.017441968
37	0xbd41e1dd	-0.04733454
38	0xbed3466b	-0.41264662
39	0x3f2692d4	0.6506779
40	0xbc3fdc6a	-0.011710266
41	0xbf1553ec	-0.5833118
42	0x3edcc99e	0.43122572
43	0xbe24f4cf	-0.16109012
44	0x3e9c4551	0.30521634
45	0x3c88fd2e	0.016722288
46	0xbd107a01	-0.035272602
47	0xbe7240a2	-0.23657468
48	0xbe941605	-0.2892305
49	0x3dc1324b	0.09433421
50	0xbf553954	-0.832906
51	0xbd1bb725	-0.038016457
52	0xbd8fc685	-0.070202865
53	0x3d3c0a29	0.045908127
54	0x3f00e055	0.50342304
55	0xbd12f8d5	-0.035881836
56	0x3cf18aef	0.029485194
57	0x3e4c6fc6	0.19964513
58	0x3dc5e2a7	0.09662371
59	0xbd9f8993	-0.07789912
60	0xbdf94fd0	-0.12173426
61	0x3c7685ba	0.015046531
62	0x3c8af83a	0.016964067
63	0xbde5ec57	-0.11226719
64	0xbebcb47a	-0.36856443
65	0x3e24d40e	0.16096517
66	0xbef34a7f	-0.47517774
67	0xbd15abb0	-0.036540687
68	0xbd23a967	-0.039956477
69	0x3db26fb6	0.087127134
70	0xbda4737f	-0.08029842
71	0xbde6312f	-0.1123985
72	0xbc26ac81	-0.010172964
73	0xbe8938d8	-0.2680118
74	0x3e35758e	0.17720625
75	0x3e00654c	0.12538642
76	0xbd91230c	-0.07086763
77	0x3e08bb26	0.13352641
78	0xbee554c4	-0.44791234
79	0x3e908125	0.2822353
80	0x3de80b0e	0.113302335
81	0x3b9a15f8	0.004702326
82	0xbd90f708	-0.070783675
83	0xbe1b001a	-0.15136757
84	0x3f09d270	0.5383673
85	0xbe837f0a	-0.2568286
86	0xbdec7cd3	-0.11547246
87	0x3e42af5a	0.19012204
88	0x3ef5b911	0.47992757
89	0xbc32fbc0	-0.01092428
90	0x3d82751b	0.06369992
91	0x3e20452c	0.15651387
92	0xbdb44ccd	-0.08803711
93	0xbdde8cbe	-0.10866688
94	0xbe6f63f1	-0.23377968
95	0x3e143e89	0.1447698
96	0x3bee5169	0.0072728884
97	0xbc784765	-0.0151537405
98	0xbe222bc1	-0.15837003
99	0xbe0323f5	-0.12806685
100	0x3e25a3b5	0.1617573
101	0xbcf708d8	-0.030155584
102	0xbdb64e62	-0.08901669
103	0xbe621ec6	-0.22082052
104	0xbdcca904	-0.09993175
105	0x3eedaa33	0.46418914
106	0xbd34925b	-0.044084888
107	0xbc40d77f	-0.011770128
108	0xbddcae2a	-0.10775407
109	0xbe626568	-0.22108996
110	0x3e6131fc	0.21991724
111	0xbe2904b1	-0.16505696
112	0x3e5e1c59	0.21690501
113	0x3d16db72	0.036830373
114	0x3f24afbe	0.6433066
115	0x3c7fb3e2	0.015606852
116	0x3dd527f3	0.1040801
117	0xbe7b186c	-0.24521035
118	0x3e9dcba1	0.3081942
119	0x3e856bdf	0.26058862
120	0x3e8918d6	0.2677676
121	0x3eec2066	0.46118468
122	0x3f25a0d7	0.6469855
123	0x3dbc1e9d	0.091855265
124	0xbcda5508	-0.026651874
125	0x3c711452	0.014714317
126	0xbc7d044f	-0.015442922
127	0xbe47c61f	-0.19509171
128	0x3f086ccf	0.5329103
129	0x3ed98433	0.42483672
130	0x3e640eb9	0.22271241
131	0x3e9826d4	0.29717124
132	0x3f577697	0.8416533
133	0xbe1d5b0f	-0.15366767
134	0xbcf5effd	-0.030021662
135	0xbfbef710	-1.4919147
136	0xbe6e54c0	-0.23274517
137	0xbd9f0d0d	-0.07766161
138	0x3f919597	1.1373776
139	0xbe977fbd	-0.29589644
140	0x3f20c6c1	0.62803274
141	0x3e536719	0.20644797
142	0x3f43b81a	0.7645279
143	0xbf0b8d56	-0.54512537
144	0xbf1e281c	-0.6177995
145	0xbf13e8d6	-0.57777154
146	0x3e337f01	0.17528917
147	0x3f704568	0.93855906
148	0xbede1572	-0.43375736
149	0x3ef3136a	0.4747575
150	0x3ed6ea5d	0.4197568
151	0xbe1f99fa	-0.15586081
152	0xbe2a8d28	-0.1665541
153	0xbe2b39f7	-0.1672133
154	0xbea640f1	-0.3247142
155	0xbed58296	-0.41701192
156	0xbe6622d1	-0.22474219
157	0x3ea966e3	0.3308631
158	0x3eb86cd3	0.36020526
159	0xbeaac36e	-0.33352226
160	0xbee6594d	-0.44990006
161	0x3f9bb1a1	1.2163583
162	0x3f63b90b	0.8895423
163	0xbe042407	-0.12904368
164	0x3ec170f0	0.37781477
165	0xbf795d6b	-0.9740817
166	0x3e066a77	0.1312655
167	0x3db7a628	0.08967239
168	0x3effd0ee	0.49964088
169	0x3e1067ad	0.14102049
170	0xbf92dd86	-1.1473854
171	0xbeabc0bd	-0.33545485
172	0x3e760bec	0.24027985
173	0x3f0a2785	0.5396655
174	0xbe92e779	-0.28692225
175	0x3f14a5fb	0.58065766
176	0x3f101842	0.56287014
177	0xbfc1c5e7	-1.513852
178	0xbf225f14	-0.6342633
179	0xbf4bc195	-0.7959226
180	0xbe0c2b78	-0.13688457
181	0x3d88ce62	0.066799894
182	0x3f6c4db5	0.9230607
183	0xbbf60864	-0.0075083245
184	0xbf4ad6c8	-0.7923398
185	0xbea87556	-0.3290202
186	0xbe6e7fad	-0.23290892
187	0xbf1e8b4e	-0.6193131
188	0xbfca9b12	-1.5828574
189	0xbe66e19a	-0.22546998
190	0xbe2e21f7	-0.17005144
191	0x3f0d6717	0.5523543
192	0xbe81986f	-0.2531161
193	0x3dd81011	0.105499394
194	0xbe71c45f	-0.23610066
195	0xbe7b35f1	-0.24532296
196	0xbe2ec33e	-0.17066666
197	0xbeb7658e	-0.35819668
198	0xbe382f36	-0.1798676
199	0x3c80467c	0.01565861
200	0xbe89b545	-0.2689611
201	0xbdcf963e	-0.10136078
202	0xbebc5634	-0.36784518
203	0x3e7cc8d7	0.2468599
204	0xbea5c79a	-0.32378846
205	0xbd879caa	-0.06621678
206	0xbe9a1ced	-0.30100194
207	0x3e881760	0.26580334
208	0x3e46bf4f	0.19408916
209	0x3e182265	0.1485687
210	0xbed28a2d	-0.41121045
211	0xbe5ca0ae	-0.2154567
212	0x3f086adb	0.5328805
213	0xbe1c305c	-0.15252823
214	0xbe498157	-0.19678245
215	0x3e092aad	0.13395186
216	0x3c969cea	0.01838537
217	0x3e551db0	0.20812106
218	0xbd64de33	-0.05587597
219	0x3c9ec875	0.019382695
220	0x3ec2ef0c	0.38073003
221	0x3e076766	0.13223037
222	0xbea081de	-0.3134908
223	0x3d6a3d81	0.05718756
224	0x3d8b51e8	0.06802732
225	0xbdf94c6f	-0.12172782
226	0x3ccdfab4	0.025143959
227	0xbea4b072	-0.32165867
228	0x3e2a1f4e	0.16613504
229	0x3cea3f88	0.028594747
230	0xbe830daf	-0.25596377
231	0x3ca68b17	0.020329995
232	0xbdebd593	-0.115153454
233	0xbe925a1a	-0.28584367
234	0x3e5b4f8b	0.21417062
235	0x3e43de94	0.19127876
236	0xbe5dcdf0	-0.2166059
237	0xbe2d76e7	-0.16939889
238	0xbdf422f9	-0.11920733
239	0xbdb7dbac	-0.08977446
240	0x3ccb99f2	0.02485368
241	0x3cafb80e	0.021450069
242	0xbbe2126a	-0.006899168
243	0x3e3c21cd	0.18372269
244	0x3cf5509c	0.029945664
245	0xbd9b9652	-0.07597031
246	0xbe24337c	-0.16035265
247	0x3e5b5f46	0.21423063
248	0x3ebb17ae	0.36541504
249	0x3f034e44	0.512913
250	0x3ecbf754	0.39837134
251	0x3e832e8a	0.25621444
252	0x3e742705	0.2384301
253	0xbe6c4315	-0.23072465
254	0x3e2250d4	0.15851146
255	0x3dc09ec2	0.09405281

lstm.bias_ih_l1 f4 [256]
0	0xbe867b42	-0.26265913
1	0xbef99db0	-0.4875312
2	0x3ec6d431	0.38833764
3	0xbf38fc43	-0.7225992
4	0x3db80fb2	0.08987369
5	0xbf903912	-1.1267416
6	0xbf890a28	-1.0706224
7	0xbf592f80	-0.84838104
8	0xbf3b5e31	-0.731906
9	0xbee40ab7	-0.44539425
10	0xbefc137c	-0.49233615
11	0xbf4b8ba0	-0.79509926
12	0x3f64472e	0.8917111
13	0xbd349fd8	-0.04409775
14	0xbf0dd6df	-0.5540599
15	0x3f9aefe9	1.2104465
16	0xbf2bc616	-0.6709913
17	0xbf7a099f	-0.9767093
18	0xbfa4a309	-1.2862254
19	0xbf6bf215	-0.9216626
20	0xbeaaf8de	-0.33392996
21	0x3f330818	0.69934225
22	0xbe8539e4	-0.2602073
23	0xbf7dd62f	-0.99154943
24	0xbee6c902	-0.45075232
25	0xbf5b2841	-0.856083
26	0xbeef8e86	-0.46788424
27	0xbec609dc	-0.38679397
28	0xbe0831c5	-0.13300236
29	0x3f0c4fb1	0.548091
30	0xbee52252	-0.44752747
31	0x3d5663fb	0.052341443
32	0xbf99e351	-1.2022496
33	0xbf83a0df	-1.0283469
34	0xbf065044	-0.52466226
35	0xbe4acca3	-0.19804625
36	0xbf7efddf	-0.99606127
37	0xbf9f1ab3	-1.2430023
38	0xbc8f3d14	-0.017485179
39	0xbf14512d	-0.57936364
40	0xbf3b4b7f	-0.7316207
41	0x3ebdeb04	0.37093365
42	0x3f0abe68	0.54196787
43	0xbf4b675b	-0.7945458
44	0x3c4ce1e0	0.012505025
45	0xbf801089	-1.0005046
46	0xbe0e5ec7	-0.13903342
47	0xbf815d8b	-1.0106672
48	0xbf917fb5	-1.1367098
49	0xbf6d7d32	-0.9276916
50	0xbf5b6076	-0.8569406
51	0xbf6f9e43	-0.93600863
52	0xbf4700dd	-0.7773569
53	0xbf15c7dd	-0.5850809
54	0xbf0c3dd1	-0.54781824
55	0xbf2b0f4f	-0.66820234
56	0x3f93f0a5	1.1557814
57	0x3fcffed8	1.6249647
58	0x3eab84f9	0.33499888
59	0xbf867d4e	-1.050699
60	0xbecfa893	-0.405583
61	0xbf127fa6	-0.57226026
62	0xbf498267	-0.78714603
63	0xbf96d522	-1.1783793
64	0x3dd27e80	0.10278034
65	0xbe8b31ad	-0.27186337
66	0xbeb32bd1	-0.34994367
67	0xbe51ade9	-0.20476498
68	0xbbff7036	-0.007795359
69	0xbee69489	-0.45035198
70	0xbec63062	-0.38708788
71	0xbe95843b	-0.29202446
72	0xbe60ea06	-0.21964273
73	0xbdc83c88	-0.097771704
74	0xbda49031	-0.08035315
75	0xbee073c0	-0.4383831
76	0x3efdda70	0.49580717
77	0xbed8c160	-0.42335033
78	0x3d21a4ca	0.039463796
79	0xbf04d908	-0.51893663
80	0xbefc2249	-0.49244907
81	0xbeba78bf	-0.36420247
82	0xbe1de5e1	-0.15419723
83	0xbe2cc0bf	-0.16870402
84	0x3ebfc642	0.37455946
85	0x3b094ffe	0.002095222
86	0xbe6c7aa4	-0.23093659
87	0xbf02bf4a	-0.51073134
88	0x3f0c1145	0.5471385
89	0xbe8b2a05	-0.27180496
90	0xbef387ae	-0.47564453
91	0xbd852b95	-0.06502453
92	0x3e8a981a	0.2706917
93	0x3e6e266b	0.23256843
94	0xbed87955	-0.4228007
95	0xbe974d75	-0.29551283
96	0xbe18f8ea	-0.14938703
97	0xbeada73b	-0.3391665
98	0xbec84db7	-0.39121792
99	0x3f5a860f	0.8536081
100	0xbee6b4e6	-0.4505989
101	0xbd7bb9e6	-0.061456583
102	0x3f1263ff	0.5718383
103	0xbea7c270	-0.32765532
104	0xbe106a93	-0.14103155
105	0x3e477ea3	0.19481902
106	0x3e4fa459	0.20277537
107	0xbe981ca5	-0.29709354
108	0x3cab91ea	0.0209436
109	0xbd734163	-0.05938853
110	0xbeb9c49f	-0.36282822
111	0xbe8f95f0	-0.2804408
112	0xbecda8b3	-0.4016777
113	0xbf3e2a48	-0.74283266
114	0x3f26e3da	0.65191424
115	0xbf13f90c	-0.5780189
116	0xbe8467de	-0.25860494
117	0xbe5603c1	-0.2089987
118	0x3f1bbe2d	0.6083706
119	0xbec938e0	-0.39301205
120	0xbf83377d	-1.0251309
121	0x3e1da643	0.15395455
122	0x3ef92ef8	0.48668647
123	0xbe226b05	-0.15861137
124	0x3f31914a	0.6936232
125	0xbeb5b5e2	-0.35490328
126	0xbeb63398	-0.35586238
127	0xbeb355bb	-0.35026345
128	0xbaa01f92	-0.001221644
129	0x3dd99cce	0.10625611
130	0xbf4fe3dd	-0.81207067
131	0xbca193f0	-0.019723862
132	0x3f55d4aa	0.83527625
133	0xbb0895eb	-0.0020841311
134	0x3e9836ae	0.29729217
135	0xbe4f66d0	-0.20254064
136	0x3eafbdf5	0.34324613
137	0xbf14ce7f	-0.5812759
138	0xbebc3b63	-0.36764058
139	0xbe2761c8	-0.16345894
140	0xbdd36ef9	-0.10323901
141	0xbee78bae	-0.45223755
142	0xbd2a42d2	-0.04156763
143	0xbe7528d8	-0.23941362
144	0x3ce02696	0.02736215
145	0x3e9dd41d	0.30825892
146	0x3dbc6337	0.09198611
147	0x3e0b6679	0.13613309
148	0xbea873fb	-0.32900986
149	0x3dbb864f	0.09156477
150	0xbe9fb9a9	-0.31196335
151	0x3edc5c6a	0.43039256
152	0xbda83601	-0.082134254
153	0xbddfbd26	-0.10924749
154	0xbf0aa82a	-0.5416285
155	0x3e8d4f75	0.27599683
156	0xbe9d2755	-0.3069407
157	0x3f179e96	0.5922636
158	0x3f08e279	0.5347057
159	0xbed3acc4	-0.41342747
160	0xbd610c82	-0.05494357
161	0x3d65a571	0.05606598
162	0xbd741b33	-0.05959625
163	0x3f16a04f	0.5883836
164	0x3d466734	0.048438266
165	0xbe3b0afc	-0.18265909
166	0x3ef9e971	0.48810914
167	0x3d9f67c1	0.07783461
168	0x3e1ead50	0.15495801
169	0xbf01c3a8	-0.5068917
170	0x3f0cdae1	0.5502148
171	0xbda809c2	-0.08204986
172	0xbd767e7e	-0.060179226
173	0xbc89454b	-0.016756674
174	0x3f03c1ba	0.5146748
175	0xbea53070	-0.32263517
176	0xbef54817	-0.47906563
177	0x3edc8f7d	0.43078223
178	0xbec68258	-0.3877132
179	0x3e4c2354	0.19935352
180	0x3d920d15	0.071314014
181	0x3e22b73d	0.15890212
182	0xbf51fc2e	-0.8202542
183	0xbe80ad84	-0.25132382
184	0xbf231d23	-0.63716334
185	0xbf290cfc	-0.6603544
186	0xbe725b2e	-0.23667595
187	0x3dd9efc6	0.10641436
188	0x3e61ae2c	0.22039098
189	0xbeb88115	-0.36035982
190	0x3e213b7a	0.15745345
191	0xbcafcb33	-0.021459198
192	0x3facaf8c	1.3491073
193	0xbf2d954f	-0.6780595
194	0xbde89ab8	-0.11357635
195	0xbf35d7c8	-0.7103238
196	0xbf997372	-1.1988356
197	0xbf0a18f4	-0.53944325
198	0xbf4368dd	-0.76331884
199	0xbf35a633	-0.70956725
200	0xbf9963cf	-1.1983584
201	0x3f40abcd	0.7526215
202	0x3e954165	0.29151455
203	0xbf87a3be	-1.0596845
204	0x3fd70618	1.6798735
205	0xbe1a5430	-0.15071177
206	0x3efc823c	0.4931811
207	0xbee7bcc5	-0.45261207
208	0xbf7fe149	-0.9995313
209	0xbf799d0a	-0.9750525
210	0xbe4ae9c0	-0.19815731
211	0xbf742de5	-0.9538253
212	0x3b31d31f	0.0027133895
213	0xbf4a8f39	-0.7912479
214	0xbf2d54b7	-0.6770739
215	0xbf8b563e	-1.0885694
216	0xbf5b3fbf	-0.85644144
217	0xbf8c3428	-1.0953417
218	0xbf0b233c	-0.5435064
219	0xbebc4e16	-0.36778325
220	0xbf81c609	-1.013856
221	0x3dcc5ebb	0.09979006
222	0x3e32ea72	0.17472246
223	0xbfdb30e6	-1.7124298
224	0xbf85fb44	-1.0467305
225	0xbf8da454	-1.1065774
226	0xbf5f17e4	-0.8714583
227	0x3e91a8d2	0.28449112
228	0xbf47ffff	-0.78124994
229	0xbf48cf8e	-0.78441703
230	0x3e4e154b	0.2012531
231	0xbe83f846	-0.25775355
232	0xbf4a3a27	-0.78994983
233	0x3eea5363	0.45766744
234	0x3f1e998f	0.6195306
235	0xbf7df1bf	-0.99197
236	0xbfc98690	-1.574419
237	0xbf8a0aaa	-1.0784504
238	0xbac5d871	-0.0015094412
239	0xbf8dabc8	-1.1068048
240	0x3ef35fcc	0.47534025
241	0x3e1e2e5d	0.15447374
242	0xbf729b2d	-0.9476803
243	0xbf571081	-0.8400956
244	0xbefad5e0	-0.489913
245	0xbf454832	-0.77063286
246	0xbf454607	-0.7705998
247	0xbf2b1f00	-0.6684418
248	0x3feb57b1	1.8386136
249	0x3eb92600	0.36161804
250	0xbf598866	-0.8497375
251	0xbf69955f	-0.9124355
252	0xbf4b1020	-0.7932148
253	0xbf369755	-0.71324664
254	0xbf8c2146	-1.0947654
255	0xbf8d06e0	-1.1017723
