utils/model_mse.pth (torch, 801698 bytes, 9 tensors)

lstm.weight_ih_l0 f4 [512, 2]
00000000: c550 90bf 65d3 5cbf 395f cfbf 5754 9ebf
00000010: 594f 483f 9eb5 6abe df13 43bf 5981 8cbf
00000020: 708b b0bf c6e3 22bf d93d 8dbf 2946 0ec0
00000030: 1d8f c8bf 78bf 68bf a1e7 6dbf ad0e 27bf
00000040: 2c45 e7bd d257 43c0 37d8 bdbf e5b8 aabf
00000050: 0555 a1bf 8980 79be f9f7 40bf cc97 b4bf
00000060: f0ca a3bf e698 a0bf e262 50bf 7f4e a9bf
00000070: 5397 a6bf cef1 b5bf 705d 65bf 1c69 aabd
00000080: e008 aabf 606a 07bf 3203 8abf 9db8 28c0
00000090: 3c7c 89bf 4fd9 bebe 0b7f b7bd f4d8 e3bf
000000a0: 21bb 9dbe 8b94 213e 3553 dbbf f2c4 f0be
000000b0: 737d 493e 6083 32c0 4ec9 82bf b6b9 f9be
000000c0: 33f4 02bf dde2 23bf 2b4c 283e e884 60bf
000000d0: 5fe7 93bf 15bb e0bf 116a fbbf c946 7bbf
000000e0: dcbf bebe c092 2ac0 a3fd 533d 0079 37c0
000000f0: 6f49 8fbf 4ed6 acbf 0b3b 14bf d546 80be
00000100: 179a 9fbf a4c2 44bf 71a1 36bf 9ea6 b2bf
00000110: c504 a9bf 5af8 dbbf 42ad 8bbf ea97 68bf
00000120: 3e93 6abf c344 a2bf 7434 7ebf cb75 b9bf
00000130: 55f2 bf3c 76bd 46c0 d972 55bf 2025 d8bf
00000140: b199 6a3f 8227 ff3f f553 97bf 05b4 99bf
00000150: 12ee 46be b26f 93bf e380 27bf e5d0 e3bf
00000160: 4fd2 7ebf e721 7bbf d8dd 4e3e 1767 7abf
00000170: bec8 95bf c3a4 f7bf 2b17 44bf 3c5e e7bf
00000180: 42eb aebf bcc3 9cbf faa7 36bf 64ba 43bf
00000190: f504 b3bd bcfd d4be 07fe 31bf f54f a7bf
000001a0: 1d6c 84bf a4e3 43bf 5079 37bf 0261 17c0
000001b0: 0351 a8bf d83f 94bf 73b6 9fbf 26c1 95bf
000001c0: 8cc8 2ebf 732b b6bf 05c7 babf 2313 18bf
000001d0: 3830 3bbf ebe5 9dbf 9011 6a3f 1435 bbbf
000001e0: 20ba 3a3f badc 97bf 7156 4fbf 3087 4cbf
000001f0: 495e 51bf d9a0 4bbf 952a c13e 4416 c4bf
00000200: 1e2c 6ebf 1696 05bf b0fb dcbf 1146 53bf
00000210: a74d 9cbf 8767 99bf a604 d7be aa92 b5bf
00000220: 4431 c23c 4caf 33c0 b89f 233d 9afa 7c3f
00000230: 4a28 8b3d 35f5 2dc0 dd02 8ebf 8435 f8bf
00000240: baba fb3e faf3 883f fb20 09bf 6f23 f4bf
00000250: e574 9cbf 6d4c c3bf 4187 41bf 0978 d4bf
00000260: bc8b 89be 8d1b 17c0 d89f 8cbe 41fe 1ec0
00000270: a16a 8ebf 8f64 8abf f98b edbe 0c47 81bf
00000280: 96eb 10bc 9b24 3fc0 67e4 9cbf f785 efbe
00000290: 5375 103d 5886 58c0 2234 8fbf 1c9f 62bf
000002a0: 8b51 9dbf 4fa1 d0bf 15ac aabf 3a37 eebe
000002b0: 0074 c7bf 790c 89bf bc78 8abf 0325 0fc0
000002c0: 1fac b4bf 76fd abbf 38b8 04bf a5f5 d7be
000002d0: c3ff 9cbf 9aa0 63bf d9f9 5fbf 9688 97bf
000002e0: 6f8a 86bf 1005 34bf 6756 b63d 1b57 4ec0
000002f0: 0387 4abf e11a 85bf dc5f 9abf 71d8 b6bf
00000300: e19b 92bf 9bcf a7bf b6c6 9bbf df2c 11bf
00000310: fbdc 43bf 2be5 20c0 9d84 5bbf e772 c9bf
00000320: 8aeb 6dbe 0f89 d93d e013 c7bf c351 6cbf
00000330: 13eb 92bf 8ea1 a9bf 799b 50bf fc50 c8be
00000340: b12e 32bf 32eb 8bbf 3eea a0bf 4c22 d2bf
00000350: 73c0 ddbe 7fd0 c5be 0274 8bbe 0abc ecbf
00000360: 51c3 973e 9159 8c3f b396 86bf ae17 7fbf
00000370: 6d95 bebe ad49 19bf 66ca 173f 77b9 14c0
00000380: f4d0 cabe 1356 4ac0 39de 053e ef99 21c0
00000390: 8e12 dbbd d6b0 5ec0 90f9 80bf 44f9 d0bf
000003a0: f41d bfbf 3773 05c0 b558 753c 2b34 92bf
000003b0: 3949 d03e 797d d8be dce1 a6bf fe4e 38bf
000003c0: 8db9 bebf 76ae c7bf b8c1 87bf dc88 37c0
000003d0: 0e0b dcbd 4d73 47c0 06f4 49bf 4e54 a1bf
000003e0: abdf bebd c0b7 63c0 52bf adbf 7074 adbf
000003f0: 2cd3 9cbf c8f7 aebf fe26 a7bf 9087 dcbf
-1.1274649 -0.8626006 -1.6200935 -1.2369488 0.78246075 -0.22920844 -0.76202196 -1.0976974
-1.3792553 -0.63628805 -1.10345 -2.2230322 -1.5668675 -0.9091716 -0.9293156 -0.6525677
-0.1129249 -3.0522351 -1.4831609 -1.3337675 -1.2604071 -0.24365439 -0.75378376 -1.4108825
-1.2796307 -1.2546661 -0.81400883 -1.322708 -1.301493 -1.4214418 -0.895957 -0.08320829
-1.3283958 -0.5289669 -1.0782225 -2.636268 -1.0741038 -0.37275168 -0.089597784 -1.7800584
-0.3080683 0.15779321 -1.7134768 -0.47025257 0.19676761 -2.7892685 -1.0217683 -0.487745
-0.5115387 -0.6401804 0.16435306 -0.877028 -1.1554984 -1.7557093 -1.9641744 -0.98154885
-0.37255752 -2.665207 0.05175556 -2.8667603 -1.1194285 -1.3502901 -0.5790259 -0.2505404
-1.24689 -0.768595 -0.7134009 -1.3957098 -1.320458 -1.7185166 -1.0912249 -0.908568
-0.91630924 -1.2677234 -0.9929879 -1.4489073 0.023430983 -3.1053138 -0.8337837 -1.688633
0.91640764 1.9933932 -1.1822497 -1.2008063 -0.19426754 -1.1518462 -0.6543104 -1.7798125
-0.99539655 -0.98098606 0.20201814 -0.9781355 -1.1701887 -1.9347156 -0.7659785 -1.8075633
-1.3665545 -1.2247233 -0.7135006 -0.76456285 -0.0874118 -0.41599834 -0.6952824 -1.3071276
-1.0345494 -0.7651923 -0.71669483 -2.365296 -1.3149723 -1.1581984 -1.2477554 -1.1699569
-0.6827476 -1.423201 -1.4591986 -0.594042 -0.7312045 -1.233579 0.9143305 -1.4625573
0.72940254 -1.1864235 -0.80991274 -0.7989378 -0.8178449 -0.7954231 0.377278 -1.5319295
-0.9303607 -0.5218214 -1.7264309 -0.8252879 -1.2211198 -1.1984719 -0.41995734 -1.4185383
0.023705132 -2.8075743 0.03994724 0.9881989 0.06794794 -2.7180912 -1.1094624 -1.9391332
0.491659 1.0699456 -0.5356595 -1.9073313 -1.2223173 -1.5257698 -0.75597006 -1.6599132
-0.2686442 -2.3610566 -0.274657 -2.4842684 -1.112629 -1.0811938 -0.46395853 -1.0099807
-0.008845231 -2.9866092 -1.2257203 -0.46781895 0.03526814 -3.3831997 -1.1187785 -0.8852403
-1.229051 -1.6299227 -1.3333765 -0.4652651 -1.5582275 -1.0706931 -1.0818095 -2.236634
-1.4115027 -1.3436725 -0.51843596 -0.421796 -1.2265552 -0.88916934 -0.8749061 -1.1838558
-1.0510997 -0.70320225 0.08903199 -3.2240665 -0.7911226 -1.0398828 -1.2060504 -1.4284803
-1.145382 -1.3110231 -1.2170017 -0.5670909 -0.76509064 -2.5139873 -0.85749227 -1.573819
-0.23234382 0.10621845 -1.555294 -0.9231226 -1.1477989 -1.3252428 -0.8148723 -0.39124286
-0.69602495 -1.0931151 -1.2571485 -1.6416717 -0.4331089 -0.38635632 -0.27236944 -1.8494885
0.29641202 1.0964833 -1.051474 -0.9964551 -0.37223378 -0.59878045 0.5929321 -2.3238199
-0.39612544 -3.1615036 0.13073052 -2.5250204 -0.106968984 -3.4795432 -1.007616 -1.632607
-1.4931016 -2.0851572 0.014974763 -1.142217 0.40680864 -0.42283228 -1.3037677 -0.7199553
-1.4900376 -1.5600116 -1.0605993 -2.8677282 -0.10744296 -3.1164124 -0.78887975 -1.2603853
-0.09320005 -3.5580902 -1.3574011 -1.3551159 -1.2251945 -1.3669367 -1.3058774 -1.722887

lstm.weight_hh_l0 f4 [512, 128]
00000000: 8b61 c2bd ab9a d33d 1a8e 2b3c 0ede 46bd
00000010: 7db7 88be dd21 ffbd 6005 25bd 0d93 c93c
00000020: 4c6f 0c3f d992 033e d0db 3b3e 02c2 9c3d
00000030: 71e9 07bd 88ab 80be b74d 4cbd 12d3 4d3d
00000040: 848a 613d 4558 0b3d 0985 d5bc c96e 373f
00000050: 214a 61be de7a b73c 646c f63d 7a8a dc3c
00000060: 36c6 4c3d d5bc 043f 2022 30be ced6 49bc
00000070: 7c4c 48be fb32 81be 2769 90bc 6279 d73e
00000080: c1da 31bd e29b ca3e c6c7 e6bc d03d 9e3b
00000090: 0b1d b0bc 2e23 0b3d 5ad2 8dbd 6b48 0b3e
000000a0: 6eef 8abe 94fc 743d 810a 58be f9e9 14be
000000b0: 227d 01bc f45c f8bd ef09 4cbd 8604 be3d
000000c0: 9abc ad3c fa02 0ebd a09c db3d 4bae 74be
000000d0: ddd4 ff3d 31e9 913d b21f 473b 6a10 47bd
000000e0: 278c 2ebd b6d0 0b3d 192f 96be b0bc 0f3d
000000f0: fe7e ca3e f162 ec3c 9dd4 a8bd eefe ba3e
00000100: 9212 cebc 0b86 b9bb 02d4 f2bb c45c b93e
00000110: df76 80be b84d 8b3e d8b7 05bf 52d9 723e
00000120: c7af ddbe 2fa2 843d 82fb a2bd 9549 d9be
00000130: d397 013f 4509 8abe 27b7 20be 83d7 ef3e
00000140: df38 cf3e 17c4 043d 2b2f c13d efc0 193d
00000150: 01b1 243e 7c9e 14bc 68ba 9e3d 61d2 413e
00000160: 5a65 a33d d923 2cbe 83e4 ec3c a215 8a3e
00000170: 7cc8 9cbd 526c 803e eec8 41bd 0e92 363d
00000180: 1ac9 13be 27fa 343c 6791 f43d 5d5a e63c
00000190: b5f7 203f c66e 4e3d 629d 993c 1ad8 f03c
000001a0: ddb0 9e3c 4bdb 853e 4484 c1be 64ae 953d
000001b0: 0fdf 25bf 52b9 ac3c 0fa8 b1bd 7b52 ba3e
000001c0: 9346 af3e 1a87 babd 14ec 7ebe dada 29bb
000001d0: 6ce0 fa3d 72a0 a1be bcd5 713e bf6a 4e3d
000001e0: 5f15 28bc bd92 5e3e 4f7a 0b3e 6257 9fbd
000001f0: 820b 34b8 a720 6d3d 214b bfbd a962 7b3d
00000200: 39a6 73be caff 0c3f 6907 3b3e 8748 c5be
00000210: 9e70 8abd 870a 10bf 9a49 f5be 77c2 7abe
00000220: d62c 123f b570 ba3e aca6 733e 3d15 c23e
00000230: ffbd 0abf 4233 85be c7ee 82be eb36 533e
00000240: 4b37 b33c 85fa a13e 6509 08be f593 713f
00000250: 9d60 23bf ab58 a0bd ca91 903e e109 38be
00000260: dee0 c7bd a5d4 ae3c d866 febd f4a6 8e3e
00000270: b392 6dbf 172d 8fbe 759f d3be 9d77 4a3f
00000280: a1c5 b93e bd9a 323f 4d82 5d3e 64b4 33be
00000290: 8f91 93be e6d1 bd3e 48b1 cd3e f40e debe
000002a0: 5dfe dfbd 3477 2c3d c6a3 a0be 8b50 c3be
000002b0: af9e e13e 6264 aebe 765a 54be 4b0d 553e
000002c0: f848 44bd b9f6 25be fdab 173f 5091 e7be
000002d0: 24a6 c03e 2ed6 9cbe 9358 6c3e bb5c babe
000002e0: 16f7 8d3e 81ef 9f3c c4a5 bcbe 3a8b e33d
000002f0: 6037 d33e 9a28 603e 6988 24be 731d f23e
00000300: 5337 0ebe 97b9 ebbc 645b edbd 7f5a d03c
00000310: 6f74 a13e 47b9 123f 2ac7 ebbe 2c75 543e
00000320: b87c e63e 6d07 d73e 97c1 a1be 7229 0bbf
00000330: f6f5 913e c9d9 1dbd 5a32 efbe ec90 bb3e
00000340: 465e 263f 8e88 e63e 21d9 e43e 8c13 9c3e
00000350: 1fca 5b3e 3a3b 6bbd 4a8b eabc 3602 423e
00000360: 74d6 cd3e ca4b fcbe 6e4c 823c 2391 f33e
00000370: 6180 96bd bdbe 193f 8b24 c23e 559d 58be
00000380: a747 45be 9069 82bc 13c1 5c3e 441f 9abe
00000390: a056 0b3f a725 64be 5532 0b3e 2959 943c
000003a0: a7f3 42bd a55f 243e 4182 c1bd 3401 c63e
000003b0: e921 05bf ee33 39be 4296 b8be d253 1e3f
000003c0: 490a 113f c1b6 493e 7a27 fcbe 9c5f c6be
000003d0: 5d19 523e f05e cbbe 31ef 0a3c ea27 083e
000003e0: d051 89be 8617 c13e 315d bf3e 2706 d33e
000003f0: aa8c cdbe a197 813e be84 9abe 646e a83d
-0.09491261 0.10332235 0.010470891 -0.04855161 -0.2670249 -0.12457631 -0.04028833 0.024606252
0.54857326 0.12848987 0.1834557 0.076541916 -0.03318161 -0.25130868 -0.049878802 0.05025012
0.05506374 0.034019727 -0.026064413 0.7165342 -0.22000934 0.022397455 0.120323926 0.0269215
0.049993716 0.51850635 -0.17200518 -0.01231928 -0.19560426 -0.25234208 -0.017628266 0.42084795
-0.04342151 0.39572054 -0.028171431 0.004829146 -0.021498224 0.033969097 -0.06924887 0.13601844
-0.27135795 0.05981119 -0.21097757 -0.14542378 -0.007903369 -0.121271044 -0.04981416 0.092782065
0.021208096 -0.034670807 0.10723233 -0.23894612 0.12491772 0.07124556 0.0030383882 -0.048599638
-0.04261413 0.03413459 -0.29332808 0.035092056 0.39550012 0.028855773 -0.08243678 0.3652262
-0.02515534 -0.005661731 -0.007410527 0.36203587 -0.2509069 0.27207732 -0.5223365 0.23715714
-0.4329817 0.064762466 -0.079581276 -0.4243895 0.5062229 -0.26960197 -0.15694867 0.4684411
0.40473077 0.03241357 0.09432825 0.03753751 0.16083147 -0.009070989 0.07750398 0.1892791
0.07978316 -0.1681055 0.028917557 0.2696963 -0.07655427 0.25082642 -0.047310762 0.044572882
-0.14432183 0.011045969 0.11941796 0.02811926 0.6287797 0.05039861 0.018751804 0.02939992
0.019371444 0.2614387 -0.37796223 0.07308653 -0.64793485 0.021084461 -0.08674633 0.36391053
0.3423353 -0.091078 -0.24894744 -0.00259178 0.12249836 -0.31567723 0.2361669 0.05039477
-0.0102590015 0.21735664 0.13620876 -0.07780339 -4.292606e-05 0.057892468 -0.093405016 0.061373387
-0.23793878 0.55077803 0.18264546 -0.38531896 -0.06759761 -0.56266063 -0.47907716 -0.24488245
0.57099664 0.36414114 0.23794049 0.3790683 -0.5419616 -0.2601567 -0.25572798 0.20626418
0.021876952 0.31636444 -0.13284834 0.9436639 -0.63819295 -0.07829412 0.28236228 -0.17972519
-0.09759687 0.021341631 -0.1242196 0.2786175 -0.9280197 -0.27964088 -0.41332594 0.79088765
0.3628359 0.6976736 0.21631737 -0.17549282 -0.2882199 0.37074202 0.40174317 -0.43370783
-0.10937188 0.04210587 -0.3137495 -0.38147387 0.44066378 -0.3406096 -0.20737633 0.20805852
-0.04792115 -0.16207398 0.5924681 -0.45228052 0.37626755 -0.30632156 0.23080663 -0.36398873
0.27727574 0.019523384 -0.3684522 0.1111054 0.41253185 0.21890488 -0.16067661 0.47288093
-0.13888292 -0.02877502 -0.11589697 0.025433777 0.31534144 0.5731396 -0.46050388 0.20747823
0.45017028 0.41997853 -0.3159301 -0.54360116 0.28507966 -0.038537774 -0.46718103 0.36634004
0.649876 0.45026058 0.44696906 0.30483663 0.21463822 -0.05742953 -0.028630871 0.18946156
0.40202677 -0.49276572 0.015905585 0.47571668 -0.07348705 0.6005667 0.37918505 -0.21153767
-0.19265614 -0.015919477 0.21558027 -0.3010198 0.54429054 -0.22279988 0.13593419 0.018108921
-0.047595646 0.1605211 -0.09448672 0.38672793 -0.5200487 -0.18086216 -0.36052138 0.6184665
0.5665632 0.19698621 -0.49248868 -0.3874482 0.20517488 -0.3972087 0.008479879 0.13296476
-0.2682023 0.3771326 0.37375787 0.4121563 -0.4014638 0.25310996 -0.301794 0.0822418

lstm.bias_ih_l0 f4 [512]
00000000: 8987 4cbf 84cc 46bf 48f5 a33f 2a55 19bf
00000010: 40ea 52bf 10b5 6bbf 346e 84bf 5a96 47bf
00000020: 6640 2239 4262 69bf 520d 4dbf 2e88 48bf
00000030: 8e3e 7fbf e6bd 2dbf 67b7 96bf 7942 35bf
00000040: 25cd 5abf 7c00 63bf 86e4 75bf e76b 853c
00000050: cb01 12bf 08db 89bf 102e c43e 4d21 5cbf
00000060: 8d04 0dbf 507a 313e 9196 81bf 6594 86bf
00000070: 2fc9 4dbe 91ce ed3e 6e2b 8abf f899 a6be
00000080: fc1d 5dbf 4892 23bf 35f5 74bf 1690 32bf
00000090: 7fbb 54bf b8e1 71bf cdc3 0d3f 093e 67bf
000000a0: a905 bc3f 6b53 89bf 3e41 48be 352f 51bf
000000b0: 7401 61bf 35eb 3f3c f7e7 50bf e820 87bf
000000c0: 6514 a0bf 398a b7be 80cb 8abe 1086 29bf
000000d0: 00d0 59bf 6cdf 00bf 8d9b 81bf 6437 85bf
000000e0: 05b1 29bf 8a19 2abf fc00 0dbf 89e0 843f
000000f0: 10c7 a03f 534c 33bf a99e 09bf 56ed 2c3f
00000100: c82d 52bf cec9 9bbf 7774 9cbf 1bae adbe
00000110: dcfd 873e e891 763e e049 27bc 59a3 5bbf
00000120: 7aa6 3a3f 5690 24bf 1152 8ebf 2ab6 31bf
00000130: d7ee 43be b61b 8cbc f262 61bf 3f4d 44bf
00000140: e423 123f f279 50bf 9dde 4a3d e815 2bbf
00000150: 2933 86bf 23e9 9ebf 26bf aebf 991b 34bf
00000160: f996 9abf f895 21bf 856f 8cbf be28 04bf
00000170: 086a 52bf bf1a 923e 300e 22bf 2c8d 4dbf
00000180: cbfd aabf 20cc 79bf c948 33bf 7781 2fbf
00000190: 1e7f d0be cd57 89bf c75f 50bf 9074 3abf
000001a0: 8abf 21bf e48f 93bf 2c05 03bf dce6 1c3e
000001b0: cb58 5b3e 77cf 65bf 260e 46bd 138a 0c3f
000001c0: 84a7 fc3c 53e4 c33d 64ff b83d 523e 6fbf
000001d0: 988b 98bf c46d 0f3e 9342 813e 21c9 76bf
000001e0: 9445 8fbf 4db0 65bf 8acb 013e b565 60bf
000001f0: 0acd 023e 5b62 9cbf 98d1 a9bf ebb4 8dbf
00000200: 6e3d 09be 9518 4bbf 0910 783d 4dfd 63be
00000210: 162e c6be 5865 d2be 2020 a2be 7147 c2be
00000220: 8d12 38bd 04bd 9abe b9ab dabe 1e7a 0ebe
00000230: 2379 93be 32a4 c93d 7517 9cbe 4f22 e4be
00000240: d666 88be e5e4 17bf 8f5a a8be 5cb6 803e
00000250: 4b4c c1be e2b2 f5be 90a5 793e 0701 6dbe
00000260: 0ba5 b3be 2fc2 c23e 39d1 07bf 1cf8 bcbe
00000270: 53ec ac3e ea31 bb3d 05e9 0bbf e88d 58bd
00000280: 30ea e5be f353 ae3e 9fc2 02bf 16d6 97be
00000290: 4cf3 44be 72ef 53be 4a6c f9bc de89 f0be
000002a0: e8ed 963e 5910 6dbe 0fb2 8c3d 5905 99be
000002b0: c7d7 6cbe ec1e 13bf 803c 1fbf ebbc b1be
000002c0: d379 ccbe 3c7b 90be 496b 093e 85b9 64be
000002d0: e79f 07bf 085a 1ebf 2833 45be 2ef7 b0bd
000002e0: 5609 34be 200f 99be 6ff3 68be 07ba f03e
000002f0: 6a14 e9bc f0f0 a5be bcf4 a6be 758a 4abd
00000300: b1ed b9be f42f 08bf 4d0b 2abf ac50 d7be
00000310: f2f5 75bd bf8d 1c3c 9669 9fbe b1ae e0be
00000320: fdb0 a83e 508e 31bf ca30 04bf bb09 9c3c
00000330: 262a d4be ef46 06bf 469b d6be 9154 d4be
00000340: 877f 253e 9c02 39bf d1ff cbbe a6d5 dfbe
00000350: 1fe7 d3be a595 18bf e793 debe 332e 02bf
00000360: d1f0 e8be f2b9 e2bd eb7f f8be 07fc 013f
00000370: 5c28 a3be 7628 1d3e ea3d 30bf bb60 85be
00000380: 84da e7be 0247 86be 0ab7 22be 79d1 a8be
00000390: 3860 3c3f c385 1bbe 8dd6 91be 339b f3be
000003a0: fdda f3bd ebc2 a7be c59c 42be 914c dfbe
000003b0: 755a b63e c3c7 ddbe f342 96be 6efa 20be
000003c0: 694d 1dbc 28fa 87be 2208 86b7 be63 8fbe
000003d0: 30b0 f9be 61a7 d9be 701c de3d 2dc5 6dbe
000003e0: 3c7e 05bf dc20 03bf 6959 09bf bde6 c6be
000003f0: 7337 28be 5c4d acbe 6bf8 abbe 3f47 2cbf
-0.7989431 -0.77655816 1.2809229 -0.59895575 -0.8238869 -0.92073154 -1.0346131 -0.77963793
0.00015473514 -0.91165555 -0.8009845 -0.78332794 -0.99704826 -0.6786789 -1.177472 -0.70804554
-0.85469276 -0.88672614 -0.96051824 0.016286803 -0.57033986 -1.0769968 0.38316393 -0.8598831
-0.5508507 0.17331815 -1.0124074 -1.0514036 -0.20096277 0.4644666 -1.0794504 -0.32539344
-0.8637388 -0.6389508 -0.95686656 -0.6975111 -0.83098596 -0.94485044 0.55376893 -0.90329033
1.4689227 -1.0728582 -0.19556138 -0.8171266 -0.8789284 0.011713793 -0.8160395 -1.0556917
-1.2506224 -0.35847643 -0.27108383 -0.6622019 -0.8508301 -0.50340915 -1.0125595 -1.0407529
-0.66285735 -0.6644522 -0.5507963 1.0381023 1.2560749 -0.70038337 -0.5375772 0.67549646
-0.82101107 -1.2170961 -1.2223042 -0.33921894 0.26560867 0.24079096 -0.010210484 -0.85796124
0.72910273 -0.6428274 -1.1118795 -0.69418585 -0.19134079 -0.017103057 -0.88041604 -0.7668037
0.57086015 -0.81436074 0.049528707 -0.668303 -1.0484363 -1.2414898 -1.3652084 -0.7035461
-1.2077323 -0.6311946 -1.0971533 -0.5162467 -0.8219304 0.2853603 -0.633029 -0.80293536
-1.3358701 -0.97577095 -0.70032936 -0.6855692 -0.40721983 -1.072992 -0.81396145 -0.7283411
-0.6318289 -1.1528287 -0.51179767 0.15322441 0.2142059 -0.8976969 -0.048353337 0.54898185
0.030841596 0.09565034 0.09033087 -0.9345447 -1.1917601 0.14006716 0.25246105 -0.9640065
-1.1193109 -0.8972214 0.126753 -0.8765519 0.12773529 -1.2217516 -1.3267088 -1.1070837
-0.1340234 -0.79334384 0.060562167 -0.22264595 -0.38707036 -0.41092944 -0.31665134 -0.3794513
-0.044939566 -0.30222332 -0.4270914 -0.13913772 -0.28803357 0.09845771 -0.30486646 -0.44557425
-0.26640958 -0.5933364 -0.3288159 0.2513913 -0.3775352 -0.4798804 0.24379563 -0.23144923
-0.35086855 0.38038775 -0.53053623 -0.36908042 0.3377405 0.0914038 -0.54652435 -0.052869707
-0.44905233 0.34048423 -0.5107822 -0.29655522 -0.19233435 -0.2069681 -0.030447144 -0.46980184
0.29478383 -0.23150767 0.068698995 -0.29886892 -0.23129188 -0.5746906 -0.6220169 -0.34714445
-0.39936695 -0.2821902 0.13419832 -0.22336395 -0.52978367 -0.61856127 -0.19257796 -0.08640896
-0.17581686 -0.29894352 -0.22749113 0.47016928 -0.028452117 -0.32410383 -0.32608593 -0.04944845
-0.36314157 -0.5319817 -0.66423494 -0.42053735 -0.060049005 0.009555279 -0.31135243 -0.4388328
0.3294753 -0.69357777 -0.51636946 0.019047609 -0.41438407 -0.52451986 -0.4191534 -0.4147077
0.16161929 -0.72269607 -0.3984361 -0.43717688 -0.4138727 -0.5960334 -0.43472216 -0.50851744
-0.45496228 -0.110706225 -0.48535094 0.5077519 -0.3186673 0.15347466 -0.68844473 -0.26050362
-0.45283902 -0.2622605 -0.15890136 -0.32972315 0.7358432 -0.15187745 -0.28484002 -0.47579345
-0.11907003 -0.32765898 -0.19005115 -0.43613103 0.35615888 -0.4331647 -0.29347953 -0.15720531
-0.009600976 -0.26558042 -1.5977832e-05 -0.28005785 -0.48767233 -0.42510512 0.10845268 -0.23219748
-0.52145743 -0.51222014 -0.53652054 -0.38847914 -0.16427402 -0.3365277 -0.33587965 -0.6729621

lstm.bias_hh_l0 f4 [512]
00000000: ea39 47bf 3562 48bf 36f5 b13f 6b33 20bf
00000010: 0232 59bf a34d 4bbf 55f3 87bf c242 3cbf
00000020: c565 123e e710 73bf 578a 5fbf 2840 3cbf
00000030: 3361 87bf a1a7 1fbf fc0b 9ebf 7452 31bf
00000040: 0de5 59bf dc90 42bf 00c3 6cbf 76cd 683d
00000050: 8c93 e8be 8e90 8bbf ee67 873e 875b 4ebf
00000060: f68e 0fbf 8c33 233e 1d3e 7bbf 8f84 8bbf
00000070: 90a8 45be 9cb1 f13e 99d0 8abf d8bd bbbe
00000080: 38d4 4dbf 72f0 13bf 740a 7bbf 9fc2 41bf
00000090: 2659 4fbf 068d 7ebf 943f 153f 4450 6cbf
000000a0: 728b b93f 8a55 89bf 84c0 71be 97b2 44bf
000000b0: f56c 4cbf 56e1 b7bc 9016 46bf ffc8 75bf
000000c0: 25e7 acbf 9114 fdbe c57e c7be 66a9 46bf
000000d0: 7955 79bf 8352 25bf f59e 85bf fb3d 7bbf
000000e0: bd48 33bf b585 04bf 7369 0cbf 21be 803f
000000f0: b417 9e3f eaa9 54bf f2a6 02bf c30d 1d3f
00000100: 667b 48bf 78da 89bf e1c3 a1bf 658a c3be
00000110: 3072 bb3e 3998 133e ce02 443d 289a 5fbf
00000120: f33b 493f 1102 1ebf 6433 86bf bef4 32bf
00000130: d6b3 5cbe 351f 85bd 4405 5abf bd25 3abf
00000140: 48d1 093f beb8 74bf f499 853d 4152 2ebf
00000150: 30f6 89bf a664 a3bf 0484 aabf 098a 56bf
00000160: 0b52 96bf 0091 30bf 04d5 8bbf 0246 d6be
00000170: 1b84 60bf c883 6e3e 15c3 23bf 587f 36bf
00000180: bdcc 99bf 0fcb 85bf c790 4bbf 0fa7 3fbf
00000190: e2f8 e6be 35a2 75bf 5697 69bf af7b 38bf
000001a0: d0e2 3fbf 5c0a 87bf c83d 17bf a4ea 653e
000001b0: d5e1 6c3e 35bc 60bf b503 2fbe efa6 0c3f
000001c0: 7446 843c 9306 a13d 0c66 693d 32e1 7fbf
000001d0: cfb5 9dbf 544a ff3d 3d41 0b3e f708 81bf
000001e0: d2b6 85bf abca 68bf 16fc 783d 36d0 60bf
000001f0: 39b4 673e 37ef 9abf 196d a6bf 432a 99bf
00000200: e979 05be ccaa 2ebf 83ee 503e fad6 57be
00000210: 2692 aebe 5d8b ddbe fd61 68be 46dd 92be
00000220: 3f86 4dbd 44cc 83be d761 cfbe ac7f 18be
00000230: 8550 c8be 9edd f33d e2e4 98be 4fae 04bf
00000240: 19be 93be 793a 2fbf c9bf b3be 6d9e 893e
00000250: 5cf8 e0be 4a64 0cbf 6fd4 573e 21e6 26be
00000260: e855 79be 787f 933e 8b54 01bf 9021 b9be
00000270: 70de 973e fb3f cb3d bae9 00bf 6f55 1d3d
00000280: f2ff 8ebe 7e4a bb3e 592c 0dbf 32bd 8bbe
00000290: a145 26be e401 53be 2b16 a53d 2d83 f7be
000002a0: 78b2 e13e 4362 92be f447 33bd f9ed 84be
000002b0: 4f51 85be 9d5d 21bf 7514 1dbf e9fc dabe
000002c0: 850a b9be 1793 aebe 4846 fe3d 1066 fdbd
000002d0: bffd 1cbf 9137 0fbf c7f0 1abe 5b4d 65be
000002e0: f6c1 8dbe 721e bebe 1483 64be 3100 013f
000002f0: 59f4 b43c 8a1a 8fbe 081d 97be c98c 8cbd
00000300: 03ef adbe 3a69 00bf 8b2b 11bf 6a6a bebe
00000310: ea2f 3c3c 646f 2ebd 40c8 75be c0e1 e6be
00000320: 3cf1 8d3e df79 43bf 1275 d8be 81a0 c23d
00000330: d65e fcbe 90dc 07bf 4183 b9be 374b bbbe
00000340: 4774 ce3d 82e6 3bbf 8232 d2be c15b b0be
00000350: d612 e3be 2fb6 01bf 85e5 03bf 6cc7 f3be
00000360: 7c14 aabe c145 03be 1aad f2be e7f1 0b3f
00000370: 82d5 dbbe 6957 a83d c0a8 2cbf f8d5 74be
00000380: bb9f 00bf a6a7 c8be d2b3 73be 175b 48be
00000390: de45 3b3f 9979 08be be5e 7fbe aa07 1dbf
000003a0: 2136 21be e796 9bbe cba4 9dbe 3c0b d9be
000003b0: f048 063f 163c b6be 0266 9fbe 0fca 02be
000003c0: 3a96 2ebd 4cc5 b0be bbcf 953d 2b11 4bbe
000003d0: 59fa 06bf ac10 efbe b4cc cc3d 086a 8dbe
000003e0: 5b6b 0ebf 58f6 01bf 7658 1dbf 5da3 76be
000003f0: 9dfc 01be 1f31 89be 6fdb b6be 88ca 23bf
-0.77822745 -0.7827485 1.3902957 -0.6257846 -0.8484193 -0.7941534 -1.0621134 -0.73539364
0.14296634 -0.94947666 -0.87320465 -0.73535395 -1.0576538 -0.62365156 -1.2347407 -0.6926644
-0.8511513 -0.7600229 -0.92485046 0.056836568 -0.4542507 -1.090349 0.2644648 -0.8060841
-0.56077516 0.15937632 -0.9814165 -1.0899829 -0.19302583 0.47205818 -1.0844909 -0.36668277
-0.80401945 -0.57788765 -0.98062825 -0.75687593 -0.80995405 -0.99433935 0.5830014 -0.92309976
1.449568 -1.072923 -0.23608595 -0.76835006 -0.79853755 -0.022446316 -0.7737818 -0.9600982
-1.350804 -0.49429753 -0.38963905 -0.7760223 -0.97396046 -0.6457903 -1.0439135 -0.9814145
-0.70032865 -0.5176652 -0.548484 1.0058023 1.2350984 -0.8307177 -0.5103599 0.61349124
-0.7831329 -1.0769796 -1.2637902 -0.38191524 0.36610556 0.14413537 0.047854237 -0.873446
0.786071 -0.61721903 -1.0484433 -0.69904697 -0.21552977 -0.06500093 -0.85164285 -0.72713834
0.5383496 -0.95594394 0.06523505 -0.6809426 -1.0778255 -1.276509 -1.3321538 -0.83804375
-1.1743788 -0.6897125 -1.0924382 -0.41850287 -0.87701577 0.23292458 -0.63969547 -0.7128806
-1.2015606 -1.0452594 -0.7951779 -0.74864286 -0.45111758 -0.95950633 -0.91246545 -0.72063726
-0.74955463 -1.0550036 -0.59078646 0.2245279 0.23133023 -0.8778718 -0.17091258 0.5494222
0.016146876 0.07862582 0.056982085 -0.99952996 -1.2321109 0.12465349 0.13599105 -1.0080861
-1.0446417 -0.90934247 0.060787283 -0.87817705 0.22627343 -1.2104253 -1.3002044 -1.1966022
-0.13034786 -0.68229365 0.20403485 -0.21078101 -0.34095877 -0.43270388 -0.2269363 -0.28684443
-0.050176855 -0.2574178 -0.40504333 -0.14892453 -0.39123932 0.119075045 -0.29862124 -0.51828474
-0.2885597 -0.684486 -0.35107258 0.26878682 -0.43939483 -0.5484053 0.2107713 -0.16298725
-0.24349177 0.28808188 -0.5051963 -0.3615842 0.29661894 0.09924313 -0.5035664 0.038411554
-0.27929646 0.3658027 -0.55145794 -0.27292782 -0.16237499 -0.2060619 0.08060869 -0.48342267
0.44081473 -0.28590593 -0.04376979 -0.2596281 -0.26038596 -0.6303347 -0.6135934 -0.4277108
-0.36140838 -0.34096596 0.12415749 -0.123729825 -0.61324686 -0.5594416 -0.15130912 -0.2239279
-0.27687043 -0.37132603 -0.22315627 0.5039092 0.02208917 -0.27949935 -0.29514337 -0.0686279
-0.33971414 -0.50160563 -0.56707066 -0.37190562 0.011486033 -0.0425867 -0.2400217 -0.4509411
0.2772311 -0.76357836 -0.42276818 0.0950327 -0.49291104 -0.53070927 -0.3623295 -0.36580822
0.10080772 -0.733986 -0.4105416 -0.34445003 -0.44350308 -0.50668615 -0.51522094 -0.47613084
-0.33218753 -0.12819578 -0.4739769 0.5466599 -0.4293633 0.08219797 -0.6744499 -0.23909748
-0.5024373 -0.39190406 -0.23799065 -0.19565998 0.73153484 -0.13327636 -0.24938485 -0.6133982
-0.15743305 -0.30388567 -0.3078979 -0.42391384 0.52455044 -0.35592717 -0.31132513 -0.12772392
-0.042623736 -0.34525526 0.07315012 -0.19830768 -0.5272575 -0.46692407 0.099999815 -0.27619958
-0.5563256 -0.50766516 -0.61463106 -0.24085756 -0.1269402 -0.2679529 -0.3571429 -0.63980913

lstm.weight_ih_l1 f4 [512, 128]
00000000: e953 80bd b762 c03e 1d61 af3e 39a1 7f3c
00000010: 2118 22be f92a 12bd 1f39 36bd f9bc b23d
00000020: c3a8 4f3e e052 fa3d 9d8c 073f dbbf 8e3d
00000030: 6b19 8c3d 8f88 9d3d ec1a b13d a881 bbbd
00000040: aad1 973d 6735 293d b0e2 9b3b 3c70 043f
00000050: 7c0a 9cbd 90b7 173c 267a 793e ae78 e43c
00000060: 4843 ed3d e06f 723e ade9 eebb 9c52 813d
00000070: 664e 7bbe 1298 aebd 0c2a 72bc c0fd 113f
00000080: e5bd 66bd ba4c 703d 259f 933d 9bff ecbb
00000090: 1468 96bd 3d97 4cbd a406 223f a22c ebbd
000000a0: 75f7 55bf 7b8b 11be ee9d b8be d992 d9bd
000000b0: 987e b73d 4222 76bc ec4d 3fbc 9e68 c6bd
000000c0: 215c f4bd acc8 fdbd 1c82 503e 5a3f dfbd
000000d0: dab8 963c 65e1 53be 1ef5 953d aba4 b63c
000000e0: e812 5cbd d430 203b 56a3 bb3c 2a45 b83e
000000f0: 705b 173f 98f2 983d d5a9 4fbd dfed f43e
00000100: 8009 1b3e 3dad 983d 00d7 8cbd dcf4 2b3e
00000110: eed2 fa3e af76 2f3e 1c80 1d3c 9442 f43e
00000120: da81 30bf f0d9 57bd a2c0 31be 193a 48be
00000130: 465a 033f 3373 1f3d 8663 acbc 504b 503e
00000140: 4124 b53e 74ee da3d cd7d 153f 23ed c63d
00000150: 1d03 5fbd 3934 8fbc a0fc b03c 1714 1a3e
00000160: 526b 01bb 6a8d b53d 6616 bcbd f496 c93c
00000170: 7a40 b5bd f51b da3e 8889 093c 5af8 b1bc
00000180: e651 953d 7df3 5abd 0cbb abbd 1621 93bd
00000190: 62f6 7b3e a86c 27bc 2aeb 313c 250b 913d
000001a0: b944 173c 49a4 573d 732d b5be 884f e43e
000001b0: e12d 12bf 232d fd3d 85c0 bd3d 3fe7 293f
000001c0: 9362 a73e 0a24 b23e 0329 d4bd 5e23 96bd
000001d0: 06e8 193e 06b9 1dbe 4ffc 0abd b897 60bd
000001e0: 16ba 24bd 56db 273e 349e 4b3e c8b3 d9ba
000001f0: 01de aabe d567 a1bd 7bcf 1dbd dd56 353d
00000200: 0954 12be f1e6 983e cf1f 0b3f 96af 3fbd
00000210: efbc c1bd 5164 d1bd 48ea 67bd 1d43 c43d
00000220: d7b8 9a3e 3a17 70bc b845 e53e d772 d83c
00000230: 131f ef3c 13ab 473d cfaa d13d cd67 3ebd
00000240: 0880 ce3d b716 a33d 211a 103d 492d 8d3f
00000250: 25cf 22bd 01be 6cbc c72c 3f3e 483a cebc
00000260: 44b7 7c3d 34aa fb3d ceb3 a3bb 9a91 cebc
00000270: e0de 52be 4e71 44be ec67 8d3c f527 d93e
00000280: 215e 93bd 7fbc 5c3d 17c3 8e3d e0a9 9abd
00000290: 2c2c b6bc d3f1 223d 4ad0 233f cd03 0b3c
000002a0: 5259 b5bf 0225 b1bd 6952 04bf 8d87 b0bd
000002b0: c08a 04bc 516f 4e3d 4d51 adbd dd68 a33c
000002c0: a01a e3bd 4c75 82bd f170 093e 19fa 2cbe
000002d0: 7f83 413b eb62 e2bd c50d 203d f763 bcbd
000002e0: a22e 67bc 477a 003d 86db 77bd 7981 623e
000002f0: 5894 153f f622 803d 57ab 1cbd 142b f93e
00000300: 00fc c4bc 1529 fdbc 25b6 51bb 504e 7b3e
00000310: c447 283f f91f 0f3e 01e4 b6bd 6c6a dc3e
00000320: 0024 2ebf 8a94 35bd 844a 3bbd f836 4cbe
00000330: 77cb d73e 8e9c e6bd 7665 243d 2ea8 743e
00000340: 1769 973e 1f7b a93d 6dd4 593f 9ef6 c53d
00000350: 595a 1c3d 553d 80bd a356 f13d e766 bb3d
00000360: c241 4a3d 4ab7 1e3d 1d67 f9bd 97b7 1bbc
00000370: fd77 66bd 3156 a83e c648 92bd 209e 183d
00000380: 3f36 babc ce6e 323d cfc7 79bc 7114 deba
00000390: 37eb 3c3e a8ac ccbb 95f6 2fbc bea4 d03d
000003a0: e622 0c3c 45fa b4bb 7646 3abe bded 823f
000003b0: 79b6 eebe 9d81 14bd 1b4d 643b 93d2 813f
000003c0: d13c ad3e c4b9 eb3e 206d 50be 00d0 3fbc
000003d0: 1ed4 0d3e fd82 33be 0c8b 8b3d df4c 86bd
000003e0: 3a0e 00bd 03bb d93d d433 853e 7dd3 603d
000003f0: 5ee5 9abe ef4c 25bd 2efa f03c 5830 54bd
-0.062660046 0.37575313 0.3425378 0.015602403 -0.15829517 -0.035685513 -0.04448807 0.0872745
0.20279221 0.122228384 0.52948934 0.06970187 0.068407856 0.07692062 0.08647713 -0.09155589
0.07413037 0.041310694 0.004757248 0.51733756 -0.07619187 0.009260073 0.24363002 0.027889576
0.115850985 0.2367549 -0.00729104 0.063145846 -0.24541625 -0.08525099 -0.014780533 0.57027817
-0.05633344 0.058666922 0.07208089 -0.007232619 -0.0734407 -0.04994892 0.6329138 -0.114831224
-0.83580714 -0.14213364 -0.3605799 -0.10623712 0.08959693 -0.015022816 -0.011676293 -0.09687923
-0.11931635 -0.12391791 0.20362133 -0.10900755 0.018398691 -0.2069145 0.07322143 0.022295317
-0.053728968 0.0024443166 0.022905033 0.35990268 0.591239 0.07468146 -0.050699074 0.4783773
0.15140343 0.074549176 -0.068769455 0.16792625 0.48989052 0.17135118 0.009613063 0.47707045
-0.6894814 -0.052698076 -0.1735864 -0.19553412 0.5130962 0.038928222 -0.02104355 0.2034123
0.35379222 0.106900126 0.5839508 0.09713199 -0.05444633 -0.017480956 0.021604836 0.15046726
-0.0019747806 0.08864863 -0.0918396 0.024608113 -0.088501886 0.42599455 0.008394606 -0.021724869
0.072910115 -0.053454865 -0.08385286 -0.07184045 0.24605706 -0.010218777 0.01085929 0.07082204
0.009232693 0.05264691 -0.35386238 0.44591928 -0.57101256 0.12362125 0.09265236 0.6636848
0.32692394 0.3479312 -0.10359385 -0.073309645 0.15029916 -0.15402612 -0.033932026 -0.05483219
-0.040216528 0.16392264 0.19884568 -0.0016609365 -0.333725 -0.078811325 -0.038527947 0.044272292
-0.1428987 0.29863694 0.5434541 -0.04679831 -0.09459864 -0.10224212 -0.056619912 0.09583113
0.30219147 -0.014653975 0.44779754 0.026421947 0.029189622 0.048747133 0.10237657 -0.04648571
0.10083014 0.07963317 0.03518117 1.1029445 -0.03974833 -0.014449597 0.18669425 -0.025174275
0.061698213 0.12288323 -0.0049957996 -0.025215913 -0.20592833 -0.19183847 0.017261468 0.42413297
-0.07195688 0.0538907 0.06970804 -0.07551932 -0.02223786 0.039781403 0.639897 0.008484793
-1.4167883 -0.08649637 -0.5168825 -0.08619604 -0.008089721 0.05039913 -0.084627725 0.019947464
-0.11089063 -0.06370029 0.1342199 -0.1689228 0.002952784 -0.11054023 0.03907563 -0.09198754
-0.014110239 0.031366613 -0.06051209 0.22119702 0.5842948 0.06256668 -0.03824934 0.48665679
-0.024045944 -0.030903379 -0.0031999436 0.24541593 0.65734506 0.1397704 -0.08930207 0.43049943
-0.6802368 -0.04433111 -0.04572536 -0.19942844 0.4214742 -0.11260329 0.040135823 0.2389228
0.29572365 0.082754366 0.8508976 0.09666179 0.0381721 -0.06261698 0.11784103 0.091504864
0.049379118 0.038749017 -0.121778704 -0.00950422 -0.056266773 0.3287826 -0.07142787 0.037260175
-0.022730945 0.043562703 -0.015245392 -0.0016943348 0.18449102 -0.006246168 -0.010739942 0.10187672
0.008553242 -0.0055229985 -0.18190941 1.0228802 -0.4662359 -0.03625642 0.0034835998 1.0142387
0.33835462 0.46040165 -0.20354128 -0.011707306 0.13850448 -0.17530437 0.068136305 -0.06557631
-0.031263568 0.10631373 0.26016104 0.05488919 -0.30253118 -0.040356573 0.02941617 -0.051803917

lstm.weight_hh_l1 f4 [512, 128]
00000000: 6cff 48bd fb29 7c3d d226 de3e a9e0 c33d
00000010: 5795 9b3c b2d9 033e 5a7b 5c3b 0c97 2c3c
00000020: 9772 033e c009 ebbd be0a e83e 0aba 53bd
00000030: 9c6f 5c3f fda4 b9bb 7a8d 52bd b64a 77be
00000040: 374e 143d 2ede d3b9 591d b03c a215 893d
00000050: 4406 3bbd 6da0 a03d 344f f9be 0d6b 6f3c
00000060: 4f52 fe3d 01f6 853d 9509 aebd e1ab 4bbe
00000070: 9da7 553d 8d18 60bc 8136 9c3d ba5c 4a3e
00000080: e100 cf3c 6d36 163d 0c8a fdbd d7d0 9ebd
00000090: 848d 3bbd 1382 bd3c 36d7 d4bd 6b32 38bd
000000a0: 6b0e 843e 9d04 e5ba 3aaf f0bd ffda 83bd
000000b0: 884d 893e 825b 993d 2936 29bd 5c68 f63d
000000c0: 337b dcbd d4b0 de3c f28e 3bbd fb8b 01bd
000000d0: 4b60 2b3d b551 d2ba 1a66 5bbd 29db 79bc
000000e0: 6db9 583e 5b40 cfbd 5e6e df3d 8e81 f23e
000000f0: bfb4 0ebc fc40 8c3d bed9 9f3c 0e5c ac3c
00000100: 1886 133d 1c1b 023e 3208 ea3c 0ac7 a0bd
00000110: 0a04 243e f894 723c 0e61 8b3d 9ee9 6b3d
00000120: d0c5 1f3d 1964 7abd 3604 b83d dc90 453d
00000130: f00e b8bd 84b2 7abd a819 f93e 4122 033f
00000140: 2de6 c3bd 3714 2bbe 82d3 893d 11bf 44bc
00000150: a8b7 febd ac65 5dbc 24ea 62bd 78c9 e7bd
00000160: cd3a 1e3f 3820 9d3d ddb7 8cbc eba4 bd3e
00000170: e615 7c3e c682 303c 8a66 80bd 7976 dcbd
00000180: a763 33bc e023 813d 2531 05be aaac 843c
00000190: 4c37 74be 98b0 0cbe 62fe 33be 7925 debe
000001a0: 48f1 cf3d b7cb d43d 5063 a3bc e525 5bbe
000001b0: 54f1 11be 39a0 4ebd 80ab 8abd 7302 bcbe
000001c0: c041 9e3d ec25 623d df8b 26bd 6904 00be
000001d0: f0ef a33e 2276 623d 4f82 babd d87e cf3d
000001e0: 6a3b 00be 58b1 18be 7c6c 17be ae13 d9bc
000001f0: a8f9 433f 0e43 0d3f 26b9 aa3d a864 283e
00000200: eb9a ecbb bee7 9b3d 21d1 423e 86fc 023d
00000210: b9c4 8b3d b929 9b3c a54e a0bb 82d7 3dbc
00000220: c3b9 b13d 0a38 07be f2b9 883e 5389 bd3c
00000230: 40b3 e73e 4683 b33d 3b6b fbbd 3810 8cbd
00000240: e484 bf3d 70ef 2ebd a574 833e 6a00 f93b
00000250: 7d5a 6fbd 04a4 9b3d 64c3 e2be d849 853c
00000260: 1a1b 62bd 54ec a33c ecc9 c3bc 7420 10bf
00000270: b3e2 863d 7c62 29bd 2eef a33d d6bf 983d
00000280: ce71 a43d e95e 193e 8607 23bd 2d96 22bc
00000290: 7b87 ecbd 5861 bbbd 6ec2 39bc 7dcc a53a
000002a0: 0e84 7f3e 697c 5ebb 5ebd 94be 6447 60bd
000002b0: 981b 833d 60bf c5bc 286a 7b3d 431a 563d
000002c0: 2f87 ae3c ab8e 553d ef16 533c 493a 0ebe
000002d0: f245 29bd a05a 4a3d e0bb 94bd eeac c8bd
000002e0: 4ff8 753c 4c4e dfbb e203 9e3d b619 d63e
000002f0: d10e 833d c5aa 653d c5a7 b5bd dd18 8abd
00000300: e040 5bbd 5a3d c43d 1d7b 503d 9afb 09bd
00000310: 888e 8c3d 4b4a ed3c f6ec ef3c 8833 cd3d
00000320: e3f2 cbbd 17eb 13bd 2831 66bd cf0d cc3d
00000330: 7d8c cbbd 32da d6bc 2025 9f3c 2d26 013f
00000340: d246 2dbd 279b 9abe f123 c83d c13b 49bd
00000350: 349f d9bd 5252 aebd bb2c c2bd 37fc 3cbd
00000360: 6da1 1c3f 74c9 d83c 82d7 433d 4c2d 803e
00000370: 0ee7 073b e3cc 243d 05be 56bd fa71 273e
00000380: df5a 25ba cac5 dbbc 18cd 9fbd a58a ca3d
00000390: e9e7 a9bd 4a3b 33be 2f05 60bd 7a2c 48bf
000003a0: 35b4 583d 7f2e 093d f9d7 5cbe d24c 403c
000003b0: b2c2 23bd 76ed 1bbc af68 85bc b095 16bd
000003c0: 621c a43d 784d d53d 8ceb 74bc e90b cbbd
000003d0: 9282 703e 0f39 e13d cb37 26be d372 e3bd
000003e0: f285 0cbe 3356 19be a67b e2bd 61ae 8bbd
000003f0: afb6 b63e fec1 0a3f 7096 e73d 008d b23d
-0.049071714 0.061563473 0.43388993 0.09564335 0.01899211 0.12876013 0.003364286 0.010534059
0.12836681 -0.11476469 0.45320696 -0.051691093 0.861078 -0.00566542 -0.051404454 -0.24149594
0.036207404 -0.00040410593 0.021498369 0.06693579 -0.045660272 0.07843099 -0.4869324 0.014612925
0.12418043 0.06541062 -0.084979214 -0.19889785 0.0521618 -0.013677728 0.07627583 0.19761935
0.025268974 0.036673 -0.12379846 -0.07754677 -0.045789257 0.023133313 -0.10392611 -0.044969957
0.2579225 -0.0017472688 -0.11752172 -0.064382546 0.26816964 0.07488157 -0.041311417 0.12031624
-0.10765686 0.027183928 -0.04579062 -0.031627636 0.04183988 -0.0016046079 -0.05356417 -0.015250006
0.21164484 -0.10119697 0.10909723 0.47364467 -0.008710085 0.06848332 0.019513007 0.021039989
0.036016554 0.12705654 0.028568361 -0.07850464 0.16017166 0.014806025 0.06805621 0.05759584
0.039007008 -0.061130617 0.08985178 0.04823385 -0.08987224 -0.061205402 0.48652387 0.5122414
-0.09565387 -0.1670693 0.06729795 -0.012008444 -0.124373734 -0.01351301 -0.055399075 -0.11317724
0.6180847 0.07672161 -0.017177517 0.37039885 0.24617729 0.010773366 -0.06269558 -0.10764784
-0.010949052 0.06305671 -0.13007028 0.016195614 -0.23849219 -0.1373924 -0.17577508 -0.43387964
0.101534426 0.10390418 -0.019944817 -0.21401174 -0.14252216 -0.05044577 -0.06770992 -0.3672062
0.077273846 0.055211946 -0.040660735 -0.12501682 0.32018995 0.05528844 -0.09106886 0.101316154
-0.12522665 -0.14911401 -0.14787477 -0.026498642 0.7655282 0.5518044 0.083360955 0.16444647
-0.007220616 0.07612561 0.19025089 0.031979106 0.06824631 0.018940793 -0.0048921877 -0.011587026
0.08678009 -0.13204971 0.26704365 0.02313677 0.45253944 0.08765273 -0.12276312 -0.06839031
0.09351519 -0.042708814 0.2567493 0.0075989263 -0.058435906 0.07599643 -0.44289696 0.016270563
-0.055201627 0.020010151 -0.023899995 -0.5629952 0.06586208 -0.041353688 0.08004604 0.07458465
0.08029519 0.14977612 -0.039802097 -0.0099235 -0.11549278 -0.09149426 -0.01133786 0.0012649443
0.24952719 -0.0033948666 -0.29050726 -0.054755583 0.064017475 -0.024139106 0.061380535 0.05227114
0.021304695 0.052138012 0.012883886 -0.13889422 -0.04132647 0.049402833 -0.07262397 -0.09798609
0.015012815 -0.0068147536 0.07715584 0.4181649 0.063993104 0.05607106 -0.0886989 -0.067430235
-0.053528666 0.095820144 0.05089866 -0.03368721 0.06863123 0.02896609 0.029287796 0.100195944
-0.09958436 -0.03611287 -0.056199223 0.09963571 -0.099389054 -0.02622709 0.019426882 0.50448877
-0.042303868 -0.30196497 0.0977248 -0.04912925 -0.10626069 -0.08511795 -0.09481188 -0.04613897
0.61183816 0.026463248 0.047812946 0.2503456 0.0020737085 0.040234458 -0.05242731 0.16352072
-0.00063077913 -0.026827712 -0.078027904 0.098897256 -0.082961865 -0.17503086 -0.054692443 -0.78192866
0.052906234 0.033491608 -0.21566762 0.011737065 -0.039980598 -0.009517064 -0.016285269 -0.036763847
0.08013226 0.104151666 -0.014948737 -0.09914381 0.23487309 0.10997211 -0.16232221 -0.11105885
-0.13722971 -0.14974289 -0.1105874 -0.068203695 0.35686252 0.5420226 0.113079906 0.087183

lstm.bias_ih_l1 f4 [512]
00000000: 6602 54bf e1c4 33bf fa9f 9cbd 118a 0fbf
00000010: 09f5 3abf cff8 3abf a0b6 61bf ebbc 62bf
00000020: 6211 afbe 9ca4 933e 8827 5d3f 4741 68bf
00000030: 6f1f c33e 60a3 8ebf ca72 b5bd 7ce0 203f
00000040: eea0 20bf b2d5 8ebf 5674 f43e a808 48bf
00000050: ded1 6cbf 83dd 43bf b10f 60be 3a9d 25bf
00000060: 84e9 64bf ac20 2bbf 5631 e6bd 6de5 16bc
00000070: d0ee 12bf 80b1 46bf 415a 6ebe 4a84 07bf
00000080: 700b 6bbf 4847 abbe 8ec6 59bf 342e 77bf
00000090: 4f64 46bf 5f37 79be 8946 28bf 2a06 54bf
000000a0: 7095 b2be 46bc 2dbf 60c3 0fbf fd1d 70bf
000000b0: 236c 93be 15dc 75bf a2f1 57bf 9013 80bf
000000c0: 3ffb 29bf 75e8 3ebf be4a 45bf e72e 14bf
000000d0: 5a94 203d 2df9 2fbf 3919 58bf 2381 4bbf
000000e0: a5e3 24be 6cd0 3abf c903 353e aeed 4a3f
000000f0: c7aa 37bf b979 16bf b5b7 363f 41d0 58bf
00000100: 13b7 dfbe 7523 03bf 4386 4bbf 9082 55bf
00000110: 9753 1cbf 207d 6dbf a68f 35bf 3458 e8be
00000120: e299 39bf e1bf 88bf 0222 41bf e9a0 29bf
00000130: e3e0 b0be e520 7dbf 6ddf efbe 1792 393f
00000140: 1fe8 1dbf 9dde 4abe c066 59bf 6098 32bf
00000150: db0e 3cbf a6df 42bf 1697 7ebf f3b4 2ebe
00000160: 2e42 0bbf bc67 3cbf 8d35 77bf 0155 51bf
00000170: cdcb 39bf 9015 68bf e5b5 1dbf 7fc0 69be
00000180: bb39 c5be 6651 45bf a69c 5dbf f509 113e
00000190: fbc1 093e ecd2 88be 5ab9 3cbf 73de bb3d
000001a0: a954 7fbf 3521 63bf aca4 b9be c2fb ebbe
000001b0: 45f8 18bf 295c 7bbe d6f8 44bf 0ddc 29bf
000001c0: 861d 5cbf 1aa1 45bf 94b8 06bf 3985 07bf
000001d0: b4cb 193f 455e 4bbf 566e 22bf 5024 3bbe
000001e0: ceaf 06bf f6d9 eabe 9844 febe e40d eabe
000001f0: 45ba c4bd ab09 22bf 1960 47bf eb6d 59bf
00000200: 126c 42be dfd0 14bd c20e 07bf a8c6 68be
00000210: 4efc c0be 4bd4 9bbe af32 d9be aa97 bfbe
00000220: 59db fabe e4e9 0dbf c9f4 f83c ab5a 52be
00000230: aeba 983e c912 1dbf 04bc a3be b016 303d
00000240: 0a84 9dbe 8ac9 17bf 95e4 ddbe dd77 7fbe
00000250: e588 d4be c198 fabe e15b c63e 7646 abbe
00000260: b183 afbe 0acf 67be d0ed bdbe 7aee a03e
00000270: dcf7 5cbe 5b7d d4be 4422 3cbe 6134 48bd
00000280: 0e8b 81be 7f01 b7be afd2 1ebf 4540 b8be
00000290: ce06 b7be a922 adbe a396 fbbe 8001 fcbe
000002a0: 3a4d 4dbe fd84 94be 8933 19bf bcdf 60be
000002b0: c7ab c6be 661d 61be 1e67 bebe 23e1 03be
000002c0: 633c cabe 5b4c 89be bbec fcbe b9da e6be
000002d0: 1595 77be 31dd 83be 1c10 99be eb72 06be
000002e0: cfff e23c 0d2c a1be c0af 58be 2392 923e
000002f0: 5d78 3cbe 8db6 9cbe 6992 9c3d 417e 48be
00000300: c608 00bf 60e9 5abe 67c9 08be 2e65 c4be
00000310: 2956 97be 407b d3be 1c80 6abe 9652 4ebe
00000320: 47d8 4cbe f999 c0be 4631 d5be fbf1 333e
00000330: 6a6d 5e3e 1e0c e2be cedd 99be 4582 903e
00000340: 9681 a3be 927d cb3d ebab 0abe 46eb 02bf
00000350: 5237 3bbf b911 b9be 0706 47be 1af7 f8be
00000360: c40b 20bf 3b5b babe 864a 18be e644 fbbe
00000370: 99d8 92be b87e 68be f02d 5cbe 956a 2e3e
00000380: ba8c 89be 82b5 20bf 71d9 debe 4204 6ebe
00000390: e3c5 9b3e 9b17 b1be b925 12bf 4422 1a3e
000003a0: b28c e1be 1c47 6abe f8b1 9bbe 5564 c1be
000003b0: 55f7 98be dbf8 393f 4394 a1be b80f e5be
000003c0: dc09 acbe 5ffd 9bbe 1d8d d1be 8c04 12be
000003d0: 3829 723f 616c 3bbe 3033 bbbe dbed 94be
000003e0: eec8 01bf c1c3 61bd 4c25 3bbe 2dc7 35be
000003f0: 1fad 693e f310 13bf c192 54be 8e31 dabe
-0.8281616 -0.7022229 -0.076477006 -0.5607005 -0.73030144 -0.730359 -0.8816929 -0.88569516
-0.3419295 0.28836524 0.86388445 -0.90724605 0.3810992 -1.1143608 -0.08859785 0.62842536
-0.6274556 -1.1158965 0.47745007 -0.7813821 -0.9250773 -0.76509875 -0.21880986 -0.64693034
-0.89418817 -0.6684673 -0.11239879 -0.009209973 -0.5739565 -0.77614594 -0.23276617 -0.5293623
-0.9181433 -0.3345282 -0.85068595 -0.96554875 -0.7749681 -0.24337529 -0.6573263 -0.82821906
-0.34879637 -0.6786541 -0.56157494 -0.9379576 -0.2879344 -0.96038944 -0.8435308 -1.000597
-0.66398996 -0.7457345 -0.7706717 -0.5788407 0.03920398 -0.6873959 -0.84413487 -0.7949392
-0.16102464 -0.72974277 0.17677225 0.7926892 -0.7174496 -0.58779484 0.71374065 -0.8469277
-0.43694362 -0.5122598 -0.7950174 -0.8340235 -0.6106505 -0.9276905 -0.70922315 -0.45379794
-0.7250043 -1.0683557 -0.75442517 -0.66261154 -0.34546575 -0.9887832 -0.46850148 0.7248854
-0.61682314 -0.19811483 -0.8492241 -0.69763756 -0.7346017 -0.7612251 -0.9944929 -0.17061214
-0.5439786 -0.73595786 -0.96566087 -0.8177033 -0.725766 -0.906579 -0.61605674 -0.22827338
-0.38520607 -0.7707733 -0.8656715 0.14163955 0.13452904 -0.2672342 -0.73720324 0.09173288
-0.99738556 -0.88722545 -0.36258447 -0.46090513 -0.5975383 -0.24546875 -0.76942194 -0.66351396
-0.8598255 -0.77198946 -0.52625394 -0.52937657 0.6007645 -0.7944072 -0.6344961 -0.18275571
-0.52612007 -0.45869416 -0.49661708 -0.45713723 -0.096058406 -0.63296 -0.7788101 -0.84933347
-0.18986538 -0.036332007 -0.52756894 -0.22732031 -0.37692493 -0.30435404 -0.4242148 -0.37420398
-0.48995474 -0.55435014 0.03039016 -0.205424 0.29829925 -0.6135679 -0.31979382 0.042990386
-0.307648 -0.592919 -0.43338457 -0.24948068 -0.41510692 -0.48944667 0.38741973 -0.33452195
-0.3428016 -0.22637573 -0.370955 0.31431943 -0.21578926 -0.4150189 -0.18372446 -0.048878077
-0.25301403 -0.3574333 -0.6204023 -0.35986534 -0.3574738 -0.33815506 -0.49138364 -0.49219894
-0.20048991 -0.29007712 -0.5984426 -0.21960348 -0.3880293 -0.21983871 -0.37188047 -0.12878852
-0.39499196 -0.26816067 -0.4939936 -0.45088747 -0.24177964 -0.25754693 -0.29895103 -0.13129775
0.02770987 -0.3147892 -0.21160793 0.28627118 -0.1840529 -0.30608025 0.07645113 -0.19579412
-0.5001339 -0.21378088 -0.13358079 -0.38358444 -0.29557922 -0.4130497 -0.22900432 -0.20148692
-0.20004378 -0.37617472 -0.41639155 0.17572777 0.21721426 -0.4414987 -0.30052036 0.28224388
-0.31934804 0.0993606 -0.13542144 -0.5114025 -0.7313129 -0.36146334 -0.19435893 -0.48626024
-0.6251795 -0.36397728 -0.14872178 -0.49076003 -0.28680876 -0.2270459 -0.21501899 0.17032845
-0.26865178 -0.6277696 -0.4352527 -0.23243812 0.30424413 -0.34588322 -0.5708881 0.15052134
-0.44052655 -0.22878689 -0.30409217 -0.3777186 -0.298762 0.7264535 -0.31558427 -0.44738555
-0.33601272 -0.30466744 -0.40927973 -0.14259547 0.94594145 -0.18303062 -0.3656249 -0.2908772
-0.5069722 -0.055118326 -0.18275946 -0.17751761 0.22819947 -0.5744774 -0.20759107 -0.42615932

lstm.bias_hh_l1 f4 [512]
00000000: 5375 4ebf 1b59 29bf 631e 20be 13cf 20bf
00000010: adc4 2dbf 2848 46bf cd33 7fbf e544 41bf
00000020: 149e edbe c58a ad3e c01f 6d3f b7aa 52bf
00000030: 8d69 b73e acf3 83bf ef40 55bd 7a64 0e3f
00000040: 2130 febe a36b 8dbf 0968 be3e d4a1 48bf
00000050: aec2 72bf 2c29 2abf cc25 77be 4eb9 32bf
00000060: e5c3 6dbf 505f 12bf 3c6c a4bd dc6a 2d3d
00000070: 5215 13bf 552e 5bbf f38c 41be adc9 efbe
00000080: 486a 5cbf 190f b0be b58f 51bf c86e 7bbf
00000090: b117 54bf c45d 6dbe 568e 16bf de27 53bf
000000a0: d668 ddbe 10e9 3ebf 9154 20bf e0d6 6abf
000000b0: b4d3 3bbe 8379 71bf 5fd6 41bf a1a0 83bf
000000c0: 241d 38bf 136d 23bf 8cd2 55bf 42fd 12bf
000000d0: 6332 393e 4a67 3fbf 3aa4 41bf 0c89 57bf
000000e0: 19f9 08bd 935e 30bf 4a05 953d 23b3 213f
000000f0: a68c 40bf 690a 08bf ce77 413f 5908 43bf
00000100: 90a5 abbe 740f 19bf 2b52 24bf bca1 68bf
00000110: e5e1 2fbf d737 65bf f7e3 39bf 7056 09bf
00000120: b09e 37bf cd13 92bf 770f 39bf 9e38 05bf
00000130: 7d1a a5be acc9 71bf 2065 bbbe 1ae9 5d3f
00000140: eb0e 2bbf 7bc1 92bd 2d1a 5cbf 8538 2ebf
00000150: 69b4 38bf a32a 5cbf 8952 6dbf 9559 02be
00000160: 6e88 23bf e3e5 62bf 51e4 71bf 3e1a 58bf
00000170: 3b46 50bf 3d1b 66bf 167b 30bf 6217 4cbe
00000180: 9cf8 94be 6cf8 5cbf db08 67bf 3c2c 933d
00000190: cae8 a33d 7621 8fbe 5c8c 49bf 5328 843e
000001a0: 2aed 6cbf c53f 66bf 30fb 9dbe 22c8 0fbf
000001b0: e1ec 0bbf 5885 20be a7dd 52bf 6024 07bf
000001c0: 2948 49bf eb0d 5fbf d153 00bf eff0 05bf
000001d0: 0b84 193f 18f5 39bf 4eec 2ebf 162b 8bbd
000001e0: 4566 30bf dd7a a6be 0feb d4be b72e eebe
000001f0: 07b4 eabd 32d6 2fbf 20dd 52bf 0d57 53bf
00000200: 8321 42be 5bb9 46be beb2 0cbf 39b9 39be
00000210: 4a8a c4be f12f 8abe 3baa c8be ae4f bebe
00000220: 5dd8 b1be 76cc 15bf d61c cebd f90f 8bbe
00000230: bbc2 873e 43ff 14bf f5d4 a5be 371b acbd
00000240: cbea 9cbe e8ad 09bf ee6d d2be 528a 24be
00000250: 65d9 f4be bad4 adbe 2f17 023f d92d 7cbe
00000260: b4f1 e1be 6297 2fbe 1dd5 96be de88 da3e
00000270: b1d1 abbe e77e f1be 0f04 36be 7111 bebc
00000280: 1612 11be 97bf abbe b67d fabe c78c 95be
00000290: 36ac c1be 5d98 a7be df5d ebbe 5200 d3be
000002a0: 596b 81be adb3 c7be 2eb3 0dbf f169 58be
000002b0: 6cd4 04bf ebbd 6fbe ffb2 d8be 0c32 74be
000002c0: f6ec dabe 790c 8fbe cd5b e8be 0d28 c9be
000002d0: a230 34be 6ad1 80be b0cf b2be d732 43be
000002e0: fe80 55bc 7d0c 9dbe 3403 05be 9f3a de3e
000002f0: ac0a 99be 193c cbbe c0fb 11bd 7a1a 26be
00000300: bbd3 b3be b7f1 78be ac61 f7bd 7ae1 a8be
00000310: 40fe 45be e943 c0be dbf2 8dbe 117c f8bd
00000320: 3b59 45be b8a4 f5be 269a a8be 3b42 123e
00000330: 52f8 6b3e 1d77 00bf d48a bcbe eeb7 893e
00000340: 7aac c7be 1d42 0f3e 97ee 30be 82c2 cebe
00000350: a210 52bf 0c7a b9be 27b4 60be 563e 05bf
00000360: 67c2 2abf 4bbb 81be 8869 0fbe fef4 ddbe
00000370: 2e8e 9bbe 422d 81be b8aa 4bbe 1c93 eb3d
00000380: d27f a5be 96a3 04bf fd89 c8be dd8c 52be
00000390: 33e2 d73e 95f7 a6be 9cd7 1fbf 6379 c33d
000003a0: 09ba 06bf 6491 a2be b887 c7be 7c7a 8abe
000003b0: ed6f 93be 7bc6 343f 2bb8 ddbe 313c a9be
000003c0: 86b1 95be e271 aabe 861f 95be 0f3f dabd
000003d0: c6dd 6f3f 1c72 70be 46af a3be 3ef7 adbe
000003e0: 244d 07bf e44c dcbd 3e50 67be f75d a6be
000003f0: fef3 b63e b365 20bf cc12 26be f5d6 97be
-0.8064777 -0.6615159 -0.15636592 -0.6281597 -0.6787823 -0.7745385 -0.99688417 -0.7549575
-0.46409667 0.33894935 0.9262657 -0.8229174 0.35822716 -1.0308738 -0.05206388 0.55622065
-0.49646094 -1.1048473 0.37188748 -0.7837193 -0.9482831 -0.66469073 -0.24135512 -0.69814
-0.92877036 -0.57176685 -0.080284566 0.042338237 -0.5745441 -0.8561757 -0.18901424 -0.46833554
-0.8609967 -0.3438652 -0.81859905 -0.98215914 -0.8284865 -0.231803 -0.5881094 -0.8248271
-0.43244046 -0.74574375 -0.6262904 -0.91734123 -0.18342477 -0.9432604 -0.7571773 -1.0283395
-0.71919465 -0.6383831 -0.83524394 -0.5741769 0.18085627 -0.7476698 -0.75641215 -0.8419349
-0.033440683 -0.6889431 0.072763994 0.63163966 -0.7521461 -0.53140885 0.7557343 -0.7618461
-0.33524752 -0.59789205 -0.6418788 -0.9087179 -0.6870406 -0.8953833 -0.7261347 -0.5364752
-0.7172651 -1.1412293 -0.7228922 -0.52039516 -0.3224677 -0.9444835 -0.3660059 0.8668381
-0.6681964 -0.0716581 -0.8597744 -0.6805499 -0.72150284 -0.8600256 -0.92704064 -0.12729485
-0.6388005 -0.8863203 -0.9448901 -0.8441504 -0.81357163 -0.8988531 -0.68937814 -0.19930795
-0.29095924 -0.8631656 -0.9024789 0.071861714 0.08003385 -0.27955216 -0.78729796 0.25812015
-0.92549384 -0.89941055 -0.30855703 -0.56164753 -0.54658324 -0.15675867 -0.82369465 -0.5278988
-0.7862573 -0.8713061 -0.50127894 -0.5232076 0.59967107 -0.7263961 -0.6832932 -0.06795327
-0.6890605 -0.32515612 -0.41585585 -0.46520016 -0.11460119 -0.6868621 -0.8236866 -0.82554704
-0.18958096 -0.19406645 -0.5496024 -0.18137063 -0.38386756 -0.269897 -0.39192376 -0.37170166
-0.34735385 -0.5851511 -0.10064094 -0.27160624 0.26515755 -0.58202 -0.32389036 -0.08403628
-0.30647883 -0.53780985 -0.41099495 -0.1606839 -0.4782211 -0.3395136 0.50816625 -0.24626864
-0.44129717 -0.17147592 -0.29459468 0.42682546 -0.3355842 -0.4716713 -0.17774986 -0.023201676
-0.14167055 -0.3354461 -0.48924035 -0.29208967 -0.378267 -0.3273343 -0.45970055 -0.41211182
-0.25277212 -0.3900427 -0.5535153 -0.21134163 -0.5188663 -0.23412292 -0.42324063 -0.23847216
-0.42758912 -0.27939203 -0.45382538 -0.3928837 -0.17596677 -0.2515977 -0.34924078 -0.19062363
-0.013031242 -0.3067359 -0.12989503 0.434041 -0.29890954 -0.39694288 -0.035640478 -0.16221038
-0.35122475 -0.24310957 -0.12079176 -0.32984525 -0.1933527 -0.3755181 -0.27724347 -0.12133039
-0.1927232 -0.47977233 -0.32930106 0.14283077 0.23043945 -0.5018175 -0.36824667 0.2689814
-0.38998777 0.13990064 -0.17278515 -0.40382773 -0.8205663 -0.36225927 -0.21943723 -0.5204824
-0.66702884 -0.25338206 -0.140051 -0.43350977 -0.30381912 -0.2522984 -0.19889343 0.11502668
-0.32324082 -0.5181211 -0.39167777 -0.20561548 0.42164764 -0.32610765 -0.6243837 0.09544637
-0.5262762 -0.3175155 -0.38970733 -0.27046573 -0.2879633 0.7061536 -0.43304572 -0.33053735
-0.29237002 -0.3329001 -0.29125613 -0.10656559 0.93697774 -0.2348103 -0.3196966 -0.33977693
-0.5285208 -0.10756853 -0.22589204 -0.32493564 0.35733026 -0.6265518 -0.16218108 -0.29656187
